trajectory_inference/RVAgene/models/microglia_pseudotime_2_trained_100_epochs.pt (torch, 234887 bytes, 23 tensors)

encoder.model.weight_ih_l0 f4 [192, 1]
000000 f8 72 0a 3c 11 b2 0c 3f 2f 62 19 3d 62 5f c2 bd
       0.008450262 0.5495921 0.03744715 -0.09490849
000010 82 8a 51 3e 93 6f 0c 3f b0 9b 97 be 6f d5 29 bf
       0.20462993 0.5485775 -0.29610968 -0.663413
000020 43 b5 dc 3e a5 1c 48 3f 65 a6 bd 3f 97 0d 6c 3f
       0.43107042 0.7816871 1.4816405 0.92208236
000030 21 85 05 be c7 0c bd 3e e6 74 7f ba 79 6f 90 be
       -0.13039066 0.3692381 -0.0009744897 -0.28210047
000040 1a 51 2a 3f 43 53 3e 3f a3 db ab be 9c 21 09 3e
       0.6653 0.743458 -0.33566007 0.13391727
000050 3f 98 51 3d 57 b5 4e 3f 72 cb d0 3e 49 a7 ee 3f
       0.051170584 0.8074545 0.40780216 1.8644801
000060 ec f2 33 3f f9 0d be 3f 73 04 11 3d 58 bd 89 3d
       0.70292544 1.4848014 0.035404634 0.067255676
000070 0f d2 fa 3d a9 e6 a9 3e c0 38 44 be a0 d8 e2 3f
       0.12247097 0.33183792 -0.19162273 1.7722359
000080 ca c2 d5 bd 35 ac 5d 3e 27 74 8d 3f b9 d9 b7 3d
       -0.10437544 0.21647723 1.1051072 0.08977074
000090 55 2f 51 3e 78 fa 8a 3f 6e 82 18 3f 80 2f 1b 3f
       0.20428212 1.0857687 0.5957402 0.60619354
0000a0 13 47 64 be b0 df ff bd 2b ad 9e 3f 3c f7 d0 3e
       -0.22292738 -0.12493837 1.2396597 0.40813625
0000b0 2e 81 5e be bc 27 18 3f 27 55 bf 3d ec de da 3e
       -0.21728966 0.5943563 0.093424134 0.427482
0000c0 53 fe 51 bf 85 0a dc 3e eb 63 a3 be 2a e0 dd be
       -0.8202869 0.42976776 -0.3191217 -0.43335086
0000d0 1a d1 08 3f 70 35 38 3f 29 c8 f8 be 3c a6 ea 3f
       0.53444064 0.7195654 -0.4859021 1.8331981
0000e0 64 72 f6 3e 4a 56 f7 be 97 45 90 bf a4 37 60 be
       0.48134148 -0.4830802 -1.1271237 -0.21896225
0000f0 32 8d 3b bf 54 c1 c8 3c ab 55 de be 1f 50 97 be
       -0.7326232 0.024506249 -0.43424734 -0.29553315
000100 e6 d8 a5 3c 58 30 9f 3f 43 8b 41 3d 86 c6 de 3e
       0.020245027 1.2436628 0.04725195 0.43510836
000110 9d 1f fd bd 0a 97 25 3f a4 e4 f9 bd 6f e2 2c bf
       -0.123595454 0.6468359 -0.12201813 -0.6753301
000120 5e 10 1c 3f 24 57 df 3e 72 3e 97 be 63 5b 1c 40
       0.60962474 0.4362117 -0.2953983 2.4430778
000130 70 93 26 bf 09 a2 6c 3f 5e df 66 be 5f e7 16 3f
       -0.6506872 0.92434746 -0.22546145 0.58946794
000140 ba 63 83 bd 81 69 af bc 9b 70 24 3f f9 93 8e bd
       -0.06415506 -0.021412613 0.6423432 -0.06961817
000150 77 ff 18 3f 5a 6d 44 bf c6 a3 8e 3e aa 7a 8c 3e
       0.5976481 -0.7672936 0.27859324 0.27437335
000160 9c 03 70 bf 4e 6e 2b bf 02 65 19 3d c0 1f 85 bc
       -0.9375551 -0.66965187 0.037449844 -0.016250491
000170 1d 7d ed be 62 0f 32 3e 4d c3 50 bf 2d 59 0d bf
       -0.46384516 0.1738868 -0.81548005 -0.55214196
000180 94 c7 c1 3e 00 31 2f 3f f7 4c 3c bf 7f 43 90 be
       0.3784758 0.68434143 -0.7355494 -0.28176495
000190 ea da a6 bd 1d d6 a7 be 04 17 12 be d7 e3 a9 bf
       -0.08147223 -0.32780543 -0.14266592 -1.3272656
0001a0 e1 26 18 be 7f fd 15 bf da 25 7c 3f cb 5a 0b bf
       -0.14858581 -0.5858993 0.98495257 -0.54435414
0001b0 a3 64 42 bf f1 2d 57 bf 66 2c 03 3f ca 4e 84 3d
       -0.7593481 -0.84054476 0.5123962 0.0646034
0001c0 b7 33 4c be 41 5e 63 3f e0 6b 86 bf b6 cc d9 3e
       -0.19941603 0.88815695 -1.0501671 0.42538995
0001d0 88 1a ed be 7c 9f 31 bf cc 83 42 bf af f2 88 3f
       -0.46309304 -0.6938398 -0.75982356 1.0699061
0001e0 42 7b 77 3c 4a cd e3 3f c8 89 66 be 75 7b 9b bf
       0.015105071 1.7797024 -0.22513497 -1.2147051
0001f0 71 a8 31 3f ff 12 4c 3c ba db 92 3e 56 c8 6e 3f
       0.69397646 0.012455701 0.28683263 0.9327444
000200 b1 77 37 bf ec c3 1c bd 6d c2 43 3f e4 b7 71 3e
       -0.7166701 -0.038272783 0.76468545 0.23605305
000210 c7 ec d3 be fa a7 33 bf 02 d5 2b bc 5c 1d 4b 3e
       -0.41391584 -0.70178187 -0.010487797 0.19835418
000220 00 84 94 bd e6 8f e9 be 76 6d 78 bf 46 71 8d be
       -0.072517395 -0.45617598 -0.97042024 -0.27625483
000230 e8 9a 01 3f 9c ca c0 3e 7e e7 03 3e 1b 0c 0b 3f
       0.50626993 0.3765458 0.12881276 0.54315346
000240 aa 38 9c be 9f c0 1c 3e a5 cc b5 3e 76 c6 f1 be
       -0.3051198 0.15307854 0.35507694 -0.47221726
000250 75 c9 60 3e 6a d1 05 3f 45 38 23 bf 61 38 2f be
       0.2195185 0.52272666 -0.63757735 -0.1711135
000260 0a d8 86 3e 0b 02 38 3d 62 2b 0f 3f 78 73 a6 3e
       0.263367 0.044923823 0.5592557 0.3250997
000270 0f 4b 93 3e ef c1 a8 bd 22 f0 8b be b9 79 59 3e
       0.28768203 -0.08240115 -0.27331644 0.2123784
000280 be e8 05 3d d5 f8 29 3f e7 24 81 be f1 4b c4 3e
       0.032692663 0.6639531 -0.25223467 0.3833919
000290 6a c7 e8 3e 7d de 7f 3f 8b d5 9c 3e 51 52 02 40
       0.4546464 0.99948865 0.3063167 2.0362742
0002a0 c5 c7 c9 3e c1 ad f5 3f b9 c4 c8 bd 41 3d 00 3f
       0.39410225 1.919365 -0.09803147 0.50093466
0002b0 2f 4e ef be ca 9d 0c 3f 55 67 94 3e ad 52 33 3f
       -0.46739337 0.54928267 0.28985086 0.7004803
0002c0 4b 24 01 bb bf 88 e0 be a1 c3 48 3f fa 7a 62 3e
       -0.001970547 -0.4385433 0.78423506 0.22117224
0002d0 ff 98 c6 3e 11 51 b8 bd 27 47 9a be 74 44 2e 3f
       0.38788602 -0.08999837 -0.3013241 0.680732
0002e0 c5 9b 6c bf 3f e0 bc be 63 89 c7 3f 95 10 fa 3d
       -0.92425185 -0.36889836 1.5588802 0.12210194
0002f0 b7 50 52 bd da de 25 3f 63 fe 70 be b9 c4 98 3e
       -0.051346507 0.6479317 -0.23534541 0.29837587

encoder.model.weight_hh_l0 f4 [192, 48]
000000 d1 8e 8b bd 98 e7 aa be d0 5f a6 be 72 98 fd 3e
       -0.068143494 -0.33379817 -0.32494974 0.4953037
000010 16 8d 95 3e c7 4e 36 be 22 6a 6a be e8 6c b3 3e
       0.29209203 -0.17803489 -0.22892049 0.35044026
000020 c2 46 b8 be 56 73 2d 3f 18 51 74 bd 45 06 45 3e
       -0.35991484 0.67754114 -0.05964765 0.19240673
000030 9f 50 1c be 85 2f 75 be 7e 67 9d 3e 0f 87 fb 3e
       -0.1526513 -0.23943909 0.3074302 0.4912648
000040 1d 6e 00 3d 19 e2 33 3e bc 0e cd 3e 2d e8 27 3f
       0.031355012 0.17566718 0.40050304 0.6558865
000050 5a 78 01 bf 92 33 a3 be c6 0b 6d 3b 07 43 c4 3d
       -0.50574267 -0.31875283 0.0036170348 0.09583097
000060 f0 62 d3 be 76 46 34 3f 60 0c 92 3e ae 5a de be
       -0.4128642 0.70420015 0.28525066 -0.43428558
000070 64 b2 06 bf f4 47 a3 3d 1b bf 8c 3e 90 4d 05 3e
       -0.5261595 0.07972708 0.27489552 0.13017869
000080 f1 1e 7c 3f 80 1d 21 3e b3 e2 93 3d a5 03 6d be
       0.9848471 0.1573391 0.07220974 -0.23145922
000090 46 30 bd be 99 06 d5 bd 37 d2 e4 3e c4 09 70 be
       -0.36950892 -0.10401649 0.4469163 -0.23441225
0000a0 74 84 a0 3e ac 7d 1b 3d 68 be b2 be 17 45 0a 3e
       0.31351054 0.037961647 -0.34910893 0.13502918
0000b0 29 0f f8 bc e7 3e d7 bd f1 03 c0 be e6 5f d3 bc
       -0.030280666 -0.105100445 -0.37503007 -0.025802564
0000c0 af 75 10 bd 9a 5a 36 be 4e 71 ec 3c 66 ae df 3e
       -0.03526848 -0.17807999 0.028862622 0.43687743
0000d0 6e df ba be d9 24 8e bd 2c 80 f4 be ad e1 9f be
       -0.36498588 -0.06940622 -0.47754037 -0.31226864
0000e0 02 8c c6 bb f7 14 23 3f a6 75 53 be e3 88 37 3e
       -0.0060591707 0.63703865 -0.20650348 0.17923312
0000f0 47 17 ed 3d 55 83 e6 bd 45 5a 8c bb 87 11 0a 3f
       0.115767054 -0.11255518 -0.004283222 0.53932995
000100 71 96 10 be 9e bb 32 3e 52 a0 2f bf 6f a4 a3 3e
       -0.14119889 0.17454383 -0.68604004 0.3196139
000110 2d 7c a7 be 06 5b 07 bf da 01 66 bf 95 e5 f1 be
       -0.32711926 -0.52873266 -0.89846575 -0.4724547
000120 ac 64 36 bf 95 9b 67 be 7b c0 ad 3e ab 96 90 bf
       -0.71247363 -0.22617944 0.33935913 -1.129598
000130 ba c7 0c bf df 7e ee 3e 78 36 86 3c 2d 52 80 be
       -0.5499226 0.4658117 0.016383395 -0.25062695
000140 5b 5b 99 3e 9a e2 0c 3f 08 c1 de be ce 8a 90 bd
       0.2995251 0.55033267 -0.43506646 -0.07057725
000150 66 9a 20 bf 4b 97 bd be c8 4e 08 3f e3 21 96 be
       -0.62735593 -0.3702949 0.5324521 -0.2932273
000160 5d 63 c4 3d 51 85 83 3e 43 47 29 be 8c c2 43 3f
       0.095892645 0.2568765 -0.1653109 0.7646873
000170 3d 7d 5a be 10 fd 6f bd b1 9a ed be 11 e3 66 3e
       -0.21336837 -0.05859095 -0.46407083 0.22547556
000180 2d 6e a3 bd 20 cd 95 3d 81 69 0a 3d a2 51 26 3e
       -0.07979999 0.07314515 0.033792023 0.16242078
000190 22 8d 05 be f9 e2 38 3c 79 f2 1a be 49 dc 69 3d
       -0.13042119 0.011284583 -0.15131558 0.057094846
0001a0 bd 6b f8 bd 96 e1 08 3d aa 75 6e be 51 f5 49 3d
       -0.121299244 0.03341826 -0.23287073 0.049306218
0001b0 db 21 a8 be 57 df f3 3d 7c 3a c8 3e 7a 31 71 be
       -0.3283833 0.11907833 0.3910712 -0.2355403
0001c0 3d d9 22 3f 56 b2 ad bc cd 20 b4 3e 70 70 97 3d
       0.6361273 -0.021203201 0.35181275 0.073944926
0001d0 07 57 9a bd 08 62 ae 3e 1b f1 1c bd 2e 16 75 be
       -0.075361304 0.34059167 -0.038315874 -0.23934242
0001e0 87 b3 d8 3e 40 e8 b8 3d 3c 8d a8 be 2a 49 b6 bd
       0.42324468 0.09028673 -0.32920253 -0.08900674
0001f0 15 b4 86 3e 52 26 81 be a3 6d e0 bc 7c a4 79 be
       0.26309267 -0.2522455 -0.027396029 -0.24379152
000200 e2 6c 34 be b0 2e e2 3d 12 08 75 be d9 d2 fe 3d
       -0.1761966 0.11044061 -0.2392886 0.1244256
000210 2a 75 0a be 29 62 cb 3d bb 81 f4 3d 95 10 de 3d
       -0.13521257 0.09930832 0.119388066 0.108430065
000220 aa ec d4 3d 24 d3 9e be b5 09 c8 3e 52 7a c3 be
       0.103967026 -0.31020463 0.39069906 -0.3817926
000230 f3 63 09 3f 76 3a e4 be f5 16 96 3e 64 3b a8 3e
       0.53668135 -0.44575852 0.2931439 0.3285781
000240 00 6d 7e 3e 8e 33 8b 3e 88 1a e3 bb 95 54 8a be
       0.24846268 0.2718777 -0.006930653 -0.27017656
000250 db d1 cd 3d 09 69 f7 3e f0 9d ec 3e 80 d2 ff be
       0.100497924 0.48322323 0.46214247 -0.49965286
000260 e2 de cf be 7b 6c 82 3e 86 83 17 3f 4d c6 08 bf
       -0.40599734 0.2547339 0.59185064 -0.5342758
000270 66 d6 05 3e 8e e0 38 be 26 f5 d6 be df f7 fb 3d
       0.13070068 -0.18054411 -0.41983908 0.12303137
000280 49 cc 23 be 1c 2d e6 3e 4a e8 d5 be d6 a9 f3 3d
       -0.15995897 0.4495629 -0.41778785 0.11897628
000290 35 c7 46 3e 37 f5 31 bf 01 9f 95 be 57 68 c1 3e
       0.19411929 -0.69514793 -0.29222873 0.37774917
0002a0 ce 88 ab be b6 39 b9 3e ee 52 24 be f8 82 dc be
       -0.3350281 0.36176842 -0.1604726 -0.4306867
0002b0 9f 8b 83 3e a5 c4 9e 3e 0b 98 46 be 95 91 e0 3e
       0.2569246 0.31009403 -0.19393937 0.4386107
0002c0 f7 9f 6e 3c 46 3e bb bc dc 9f 1b 3e 30 d9 c3 bd
       0.014564506 -0.022856843 0.151977 -0.095629096
0002d0 6d 7e 6a 3e 18 33 c8 be 83 94 be be 1f 8a 09 bd
       0.2289979 -0.3910148 -0.3722268 -0.03357899
0002e0 34 07 3d be f6 eb b8 bd e4 ac d1 be aa 47 aa bb
       -0.18459779 -0.09029381 -0.40952218 -0.0051965313
0002f0 f6 b9 e2 bc 8e f1 19 3e dc ae de 3e 22 53 61 3e
       -0.027676564 0.15033552 0.43492782 0.22004369
000300 d6 68 95 3e 3d 6f 10 3e 90 28 95 be b9 8c 53 bc
       0.29181546 0.14104934 -0.2913251 -0.012911969
000310 03 7b b2 bd 70 f1 26 3d 7b 4f 43 bd 14 9f 7c be
       -0.08714869 0.040757596 -0.04768322 -0.24670058
000320 c6 e2 91 be c9 da 0b be d2 07 9c 3e 42 d6 c6 3d
       -0.28493327 -0.13657679 0.30474716 0.09708835
000330 df e8 a4 bd 24 50 1b bf 31 eb ac 3e 17 64 57 3e
       -0.08052229 -0.6066916 0.33773187 0.21034275
000340 f4 af 53 3e 04 d9 98 3d a6 ed 94 3e 76 94 e3 3e
       0.2067259 0.074632674 0.2908756 0.44449204
000350 2b 5d f8 be db 0d a1 be 5e 64 96 be fa 99 2f 3e
       -0.48508582 -0.31455883 -0.2937345 0.17148581
000360 f0 bb 57 be cb 57 8c 3e 66 35 e0 be 84 07 73 3d
       -0.21067786 0.2741073 -0.4379074 0.05933334
000370 01 99 01 3e 22 20 9b 3e 10 1e 53 3e 48 82 4f bd
       0.12656023 0.30297953 0.20616937 -0.050661355
000380 24 a4 12 3e 1c 19 8b 3e 00 e4 0f 3e b2 16 b4 3e
       0.14320427 0.27167594 0.14051819 0.35173565
000390 1f 34 89 be 44 67 0c bd 1c ab ae 3d 63 4b 58 3e
       -0.26797578 -0.03427817 0.0852873 0.21122508
0003a0 06 4d 52 be 58 8a 2a bf bf cd ff 3d ff 9f 91 bd
       -0.20537195 -0.66617346 0.12490415 -0.07110595
0003b0 fc 7d 3c 3f 52 d6 bb 3d ee 2c 3d 3e 0b ac fe 3e
       0.73629737 0.09171738 0.1847417 0.49740633
0003c0 e2 91 12 3e e9 c1 c1 be ee 25 0f 3e 9d 82 cc 3c
       0.14313462 -0.37843254 0.13979313 0.024964625
0003d0 a3 ee 2f be 83 ee 16 3e 00 46 dc be 44 1a 3b 3d
       -0.17180876 0.14739423 -0.43022156 0.045679346
0003e0 de 25 b3 bd a4 c9 49 3d 68 81 37 3f 0b dd d2 bd
       -0.08747457 0.049264565 0.71681833 -0.10296067
0003f0 c1 37 d9 bd a1 20 b5 bd 44 d3 e8 bc 0e 13 7b 3e
       -0.10606337 -0.08844114 -0.028421052 0.24518988

encoder.model.bias_ih_l0 f4 [192]
000000 61 8e 9b be e2 34 6d be 3d b0 a2 be f4 ba 92 bd
       -0.30382064 -0.23164704 -0.31775084 -0.07164565
000010 57 e2 a8 be bb 64 69 bd 94 6d 05 3e b7 97 84 be
       -0.32985184 -0.05698083 0.13030082 -0.25897
000020 58 95 c9 be be eb c1 bd 5c 4e 9b be dd 5b 03 be
       -0.39371753 -0.094687924 -0.3033322 -0.12828012
000030 db c7 8d be 3f 1a e2 be 55 39 37 bd 1d 18 23 be
       -0.2769154 -0.4416065 -0.04473241 -0.15927167
000040 79 f9 68 be 8a ca 99 be 59 66 ea 3d 3a 54 53 bc
       -0.22751416 -0.30037338 0.114453025 -0.012898499
000050 0a 61 2d be b4 4b 3a be 31 d1 c7 bd e4 bc b3 be
       -0.16931549 -0.18192941 -0.09756697 -0.3510505
000060 ed eb 35 be 37 20 af 3e 22 ad d7 be 57 c0 4a 3e
       -0.1776578 0.34204265 -0.42124277 0.19799934
000070 ea 06 dc bd c6 a0 90 be 29 2d a2 be 50 fb 82 3c
       -0.10743506 -0.2824766 -0.3167508 0.015988976
000080 fe db 18 3e aa 36 4b be 87 cd 20 be 92 53 f2 be
       0.1492767 -0.19845071 -0.15703402 -0.47329384
000090 2a d0 32 3e 43 3f 37 3d a0 2f d4 be 45 c5 85 be
       0.17462221 0.044738065 -0.41442585 -0.26127067
0000a0 85 27 b1 be 4c ca 7c be 6d 6a ea bd fa d7 70 be
       -0.34600464 -0.24686545 -0.1144608 -0.23519889
0000b0 bf e2 c2 be 34 85 04 be dd 3b e6 be 46 a4 a0 be
       -0.3806362 -0.12941438 -0.44967547 -0.3137533
0000c0 ec 11 c0 3e 43 72 02 bf 58 d8 f3 3e 3c 8b f7 3e
       0.37513673 -0.509556 0.47625995 0.48348415
0000d0 87 0c cb 3d cd f6 54 3e ac 20 c4 3e 30 7a c4 3e
       0.09914499 0.20797272 0.38306177 0.38374472
0000e0 65 dc 44 3e f0 f9 33 3e 7f eb 81 3d f7 ef b3 3e
       0.19224699 0.17575812 0.063437454 0.35144016
0000f0 41 06 8c 3e 16 3e 02 3c 76 23 49 3e 29 19 32 3e
       0.2734852 0.007949373 0.19642434 0.1739241
000100 e7 0e f8 3c 15 74 34 3e 58 52 28 3e ed 21 d8 3e
       0.030280543 0.17622407 0.16437662 0.42213383
000110 d8 e1 ca 3e 6a cc 94 bc 56 38 8b 3d 74 18 5c 3d
       0.3962543 -0.018163878 0.067978546 0.053734258
000120 82 0f db 3c b0 02 a2 be 9a b1 73 3c 84 41 db 3e
       0.026740793 -0.31642675 0.0148738865 0.42823422
000130 46 b3 61 3e c1 86 30 be af f4 c2 bc c3 3b 5a 3d
       0.22041044 -0.17238905 -0.023798315 0.05327965
000140 57 88 0f 3e 63 f3 ff 3d 25 c6 59 3e a2 02 8b 3d
       0.14016853 0.12497594 0.21266992 0.067876115
000150 55 2d 2c 3e 50 32 34 3e 10 07 a2 3e b0 a3 36 be
       0.16814168 0.17597318 0.31646013 -0.1783588
000160 6d 19 e2 3e 19 7f 0f 3e 10 7c ea bd 0c 8d 68 be
       0.44160023 0.14013328 -0.11449444 -0.22710055
000170 d4 39 9d 3e 70 a6 55 be 71 28 72 3d 85 4b 22 3e
       0.30708182 -0.20864272 0.0591206 0.15849121
000180 16 5c 1a 3e 9d 44 fe bd ef 77 9c 3c 6b b0 0a bd
       0.1507419 -0.12415431 0.019100158 -0.03385965
000190 52 73 71 bd 4a 6a 15 bc 6c cc a3 bd a6 a8 90 be
       -0.05894787 -0.00911958 -0.07997975 -0.2825367
0001a0 da 93 11 3d 10 e0 96 3d d5 52 e3 bd 44 9c 75 bd
       0.035541393 0.07366955 -0.11099783 -0.05996348
0001b0 c9 f5 83 bd 62 6a df bc 33 41 cc bd 0f a7 94 3d
       -0.06443364 -0.027272407 -0.09973373 0.072584264
0001c0 b8 80 0f 3e ae 1e eb 3d ad ad b1 be fc e9 82 bb
       0.14013946 0.11480461 -0.34702817 -0.0039951783
0001d0 be d7 c6 bd 52 83 1a bc 8a 65 7e be 1a 93 7d be
       -0.09709118 -0.009430723 -0.24843422 -0.24763146
0001e0 e8 3c 1d 3e 4e 22 f0 bd 17 12 a7 bd 7c 04 13 be
       0.15355265 -0.11725293 -0.08157747 -0.1435718
0001f0 96 44 64 bd 83 cc 92 bc 95 90 8d 3c 74 de b4 bd
       -0.05572947 -0.017919784 0.017280856 -0.08831492
000200 a0 f8 33 be 16 5d 5f 3e d0 13 0a be 90 18 49 3d
       -0.17575312 0.21812853 -0.1348412 0.04909569
000210 a4 f4 bd bd 6b f0 da bd cb 52 26 3e 60 4c 8a 3c
       -0.09275177 -0.10690387 0.1624252 0.016882122
000220 13 51 5d 3d 40 e9 a9 3e 86 c4 b0 bc f1 90 01 be
       0.054032397 0.33185768 -0.021578085 -0.12652947
000230 4d 85 5c be 68 3a 87 3d 43 6b ae 3d 66 50 09 3d
       -0.21535225 0.06602937 0.08516552 0.03352394
000240 83 96 22 bb 53 03 bc 3d e8 3e 94 bd 8d 8c 0c bd
       -0.002480895 0.091803215 -0.07238561 -0.034313727
000250 be a6 3f be 9a 13 5b bd bc 6d 1d 3d f8 d1 19 be
       -0.18715951 -0.05348549 0.03843473 -0.15021503
000260 2d bd 7a be 7b c5 65 3e c5 a3 f2 3e 09 02 1a be
       -0.24486227 0.22438614 0.4739057 -0.15039839
000270 73 46 5d 3c ac 55 69 be 4d 04 1a bd b6 a7 2a be
       0.013505566 -0.22786587 -0.037601758 -0.16665539
000280 ff 42 ef bd 96 1d fb 3d 78 d7 42 3e be 47 70 3d
       -0.116827 0.122615024 0.19027507 0.05866217
000290 89 d6 00 bb 9e e6 35 be 71 c4 71 be 13 14 31 be
       -0.0019659123 -0.17763755 -0.23610093 -0.17292814
0002a0 11 72 9a be 20 0e 2f bd 82 1d 2f be a5 79 a0 3e
       -0.3016515 -0.04273808 -0.171011 0.31342807
0002b0 84 97 8a be c7 cb 87 be 9e 9e de be 9b 27 80 3d
       -0.27068722 -0.26522657 -0.4348039 0.06257554
0002c0 ca 9f 3f 3e d4 97 07 be 74 4f d5 3d 13 d8 ec be
       0.18713298 -0.13241512 0.10415545 -0.46258602
0002d0 75 d1 ec ba 45 90 3f 3e 7c c7 3d 3d e6 38 df be
       -0.0018067794 0.18707378 0.04633282 -0.43598098
0002e0 b4 d1 e7 3c 9e 32 2b 3c 88 07 2d be 0f 0b 99 3d
       0.028298236 0.01044908 -0.16897404 0.074728124
0002f0 70 5f 09 3e be 41 1d be 4d d2 bb be e4 70 1e be
       0.13415313 -0.1535711 -0.36683884 -0.15472752

encoder.model.bias_hh_l0 f4 [192]
000000 8c 3c 78 be cf 78 92 be c0 11 e7 be 2b 4e 23 3d
       -0.24241847 -0.28607795 -0.4513073 0.03986947
000010 37 a3 95 be bd b6 42 be 93 99 09 be 57 d9 41 be
       -0.29226086 -0.19015022 -0.1343749 -0.18930565
000020 61 c4 0f bf b5 33 9d be d5 39 7e be df 4b 38 be
       -0.56159025 -0.30703512 -0.24826749 -0.17997693
000030 fb 03 4b be 7d 64 d8 be d9 0d 68 be a5 00 b6 bd
       -0.19825737 -0.42264166 -0.22661532 -0.08886842
000040 bb b8 80 be 7d 22 1f bd 4c 57 01 3d f1 3f ee 3d
       -0.25140938 -0.03885125 0.031577393 0.116332896
000050 b9 69 97 be 07 29 aa be a1 19 32 be d9 e4 72 be
       -0.29572847 -0.33234426 -0.17392589 -0.23720111
000060 f6 a0 b9 be a1 1e 50 3e 1b 99 ff be 27 ed 9c 3d
       -0.36255616 0.20324184 -0.49921498 0.07662421
000070 39 99 a9 be d8 24 1f be 51 29 2d be 38 b8 26 3d
       -0.33124712 -0.15541399 -0.16910292 0.04070303
000080 37 5b ff 3d a8 db 1c be f8 d2 58 bd 0e 14 e0 be
       0.1246857 -0.15318167 -0.05293557 -0.437653
000090 ee 0b dc 3b e6 92 0d be 73 4d ed be ec 93 9b be
       0.0067152893 -0.13825569 -0.46348152 -0.30386293
0000a0 1f a3 1b be e3 69 9d be d6 18 e2 bd 0a 3f 1b be
       -0.15198945 -0.30744848 -0.11039893 -0.15160766
0000b0 af e2 20 be 3e 84 ac be 6b f7 31 bf 8c 83 4d be
       -0.15711473 -0.33694643 -0.69518155 -0.20069712
0000c0 08 36 bf 3e d6 a3 b5 be 78 34 f5 3e bc 46 bd 3e
       0.3734591 -0.3547656 0.47891593 0.3696803
0000d0 0a a6 83 bd d4 f6 9c 3e 93 2b cd 3e ba 7e 32 3e
       -0.06428154 0.30657065 0.40072307 0.17431155
0000e0 de 1e 0b 3e 5a a7 e2 3e ae 41 e9 3d 25 d9 bf 3e
       0.13585994 0.44268304 0.113894805 0.37470356
0000f0 a1 98 e8 3e d9 50 39 3c 34 3e 3c 3e 68 8c 60 3e
       0.45428947 0.0113107795 0.18383104 0.2192856
000100 0f d9 d9 3d c4 a4 5e 3e 2a 50 94 3e 71 34 e7 3e
       0.10637104 0.2174254 0.2896741 0.45157197
000110 44 d5 e8 3e eb f4 9a 3d d6 ee 3d 3e 82 5e 3c be
       0.4547521 0.07566246 0.1854814 -0.18395427
000120 7e d0 f7 3d 5d bc 37 be aa f4 89 3e c8 30 f0 3e
       0.121003136 -0.17942949 0.26944476 0.46912217
000130 a6 b1 a7 3c d7 20 02 bd 17 50 f2 3d a1 d3 03 3e
       0.020470452 -0.0317696 0.11831682 0.12873699
000140 82 5b 88 3d 7d fa 22 bd 8e 24 55 3e 9f 07 ff bd
       0.06658079 -0.039789665 0.20814726 -0.124526255
000150 a9 61 17 3e 5b 96 b2 3e f2 79 f1 3d c5 24 ea bd
       0.14783348 0.34880337 0.11790837 -0.114327945
000160 12 21 25 3f cd 57 52 3e f8 45 48 bd 24 1c 24 be
       0.64503586 0.20541306 -0.048894852 -0.1602636
000170 b1 85 a5 3d ab 0f 84 bd c1 0a 46 3d ea 94 68 3e
       0.0808214 -0.06448301 0.0483501 0.22713056
000180 b0 e2 9e bd ac ca 8d 3d 81 7c 72 bd 3d 66 29 be
       -0.07758081 0.06923422 -0.059200767 -0.16542907
000190 47 2d 9f bc f8 d9 9d 3d 89 f9 9f be 89 0a 4b be
       -0.01943077 0.0770759 -0.31245068 -0.19828238
0001a0 71 ae 29 bd bd 52 d9 bd 17 da 8d be 86 96 a8 bd
       -0.041426126 -0.10611484 -0.27705452 -0.08231835
0001b0 2c e3 38 3e c1 ee a3 bd a7 d6 df bc 4a 2d 96 3d
       0.18055409 -0.08004523 -0.027324034 0.07332857
0001c0 3c 3f ea 3d f5 44 7a 3d 20 5e c9 be 0a 95 11 3e
       0.11437842 0.06110092 -0.39329624 0.1421701
0001d0 c9 d6 7f 3d 61 81 30 bd 97 54 a2 bc 01 fe 10 be
       0.062460694 -0.043092135 -0.019815726 -0.14159395
0001e0 83 c0 0f 3d 8e e1 dd bd 82 82 29 bc bd ee 91 be
       0.035095703 -0.10834037 -0.010346057 -0.28502455
0001f0 19 ec 23 bd 33 39 a3 bc bd 56 f5 3c ea 10 7d bd
       -0.040020082 -0.019924736 0.029948587 -0.06178371
000200 48 b3 6f 3b 4a 85 8c 3d c1 52 ca bd 1a ae 02 3c
       0.0036575366 0.0686136 -0.09879065 0.007976079
000210 59 cb c6 bd 9c 99 09 be 2f 3f c2 3d a2 49 2c 3e
       -0.09706754 -0.13437504 0.094847076 0.16824964
000220 7e 67 cb bd ec cd 81 3e 88 64 b2 3d a5 53 a4 bd
       -0.09931849 0.25352418 0.08710581 -0.080237664
000230 23 19 47 3c 38 ab 4f 3e 9d 8f db bc d9 3b 30 3e
       0.012151989 0.20280159 -0.026801879 0.1721033
000240 9e 13 de bd 42 a4 8f 3d 69 4f 5f bc 92 68 01 3e
       -0.108435854 0.070137516 -0.013629773 0.12637547
000250 de c2 90 be 2c 0d 8a be 59 64 01 3e d4 84 78 bd
       -0.28273672 -0.26963174 0.12635936 -0.06067355
000260 c0 b7 06 be be 4b 7a 3e 94 b0 f3 3e 89 98 d5 bd
       -0.13156033 0.24442956 0.47595656 -0.104294844
000270 60 cf 33 be ea 40 fc bd 92 33 47 bd 18 07 8d be
       -0.17559576 -0.12317069 -0.048633166 -0.27544475
000280 39 16 be bc 78 c1 04 3e 86 bb 3a 3e ff 86 fd bc
       -0.023203956 0.12964427 0.18235597 -0.03094816
000290 2b 26 79 bd d7 e6 eb bd 45 52 09 be 3c 49 4d bb
       -0.060827415 -0.115186386 -0.1341029 -0.0031324169
0002a0 22 50 de be 32 60 0c 3d fb 78 d1 be ff 02 cc 3e
       -0.4342051 0.034271426 -0.40912613 0.39846036
0002b0 ba e1 96 be f2 fd 7c bd 42 3f 49 be e3 0c 82 3e
       -0.2946909 -0.06176562 -0.19653037 0.25400457
0002c0 71 f0 6e 3d de 4c 75 be 2b 25 f0 3d 84 b9 cd be
       0.05833477 -0.23955104 0.11725839 -0.401806
0002d0 15 64 0f bd d7 50 bc 3e d3 48 34 3e 02 48 cc be
       -0.035007555 0.36780426 0.17605905 -0.39898688
0002e0 fd c2 cb bd ef 95 89 3e 18 c1 f5 bd 62 b0 61 3d
       -0.099493004 0.26872203 -0.1199972 0.055099852
0002f0 df 6b 8b 3d 20 a8 84 bd 06 3b 02 bf 14 57 e7 bc
       0.06807684 -0.0647738 -0.5087131 -0.028239764

encoder.model.weight_ih_l1 f4 [192, 48]
000000 de 0c 05 3d 03 b0 f1 bd c7 8a d0 3d ea fe aa 3c
       0.032482974 -0.1180115 0.1018272 0.020873506
000010 e2 cf 4e bb 4d 41 55 bd dd f6 ce 3d b0 eb ff 3b
       -0.0031557013 -0.05206423 0.10105679 0.0078100786
000020 c7 9f dc 3d 57 9b 43 3d 6d d1 ca bd db 94 0d be
       0.107726626 0.047755565 -0.09903226 -0.13826315
000030 89 6c 59 3c 05 83 ad bd 73 22 de bd 04 54 06 3e
       0.013270506 -0.084722556 -0.108464144 0.13117987
000040 02 56 4b bd 39 3f b3 bc e6 1d 50 3d cb 1a 32 bc
       -0.04964257 -0.021880733 0.050809763 -0.010870646
000050 a4 12 d1 bc 2a 4a a8 bb 85 60 a9 bc 29 95 0e be
       -0.025521584 -0.005135794 -0.020675907 -0.13924088
000060 a5 88 43 bd b2 47 df bb 70 13 23 bd 65 1a ef 3d
       -0.047737736 -0.0068139667 -0.03981346 0.11674956
000070 26 52 7e bd 55 86 bc 3d 82 c3 04 3e d8 97 63 3d
       -0.06209006 0.09205309 0.12965205 0.05556473
000080 33 22 56 3d 70 b6 41 3d 09 89 c3 3d 0a 76 e1 bd
       0.05227871 0.047293127 0.09547622 -0.11008842
000090 f8 26 ae 3d 12 e4 97 bc 4b 02 10 3e a8 2d 0b bc
       0.085035264 -0.01854137 0.14063375 -0.008494772
0000a0 f1 67 7d 3d 7b 0f cb bd b6 3f 90 3d 86 8d 31 3d
       0.061866704 -0.09915062 0.07043402 0.043347858
0000b0 c8 f8 88 3d ea 2d 2a 3d 8b 6f b7 3d ac ee 41 bd
       0.06688076 0.041547693 0.08956822 -0.047346756
0000c0 66 20 44 3b a8 be b8 3c 78 40 c4 bd 68 63 cd bd
       0.0029926538 0.02255185 -0.09582609 -0.10028726
0000d0 11 6a 05 3e d8 3e 51 bb 7e 8b b1 3d 0f 1f ca bd
       0.13028742 -0.0031928327 0.08669184 -0.09869205
0000e0 05 b3 ed bc 44 fb 01 be ce 1e df bd db 1e f3 bd
       -0.029016027 -0.12693506 -0.108945474 -0.118711196
0000f0 1a 6e fd 3d 44 01 a6 bd 87 c9 44 bd 25 f1 57 3d
       0.12374516 -0.0810571 -0.048043754 0.052720208
000100 5f 7d 11 3d 96 f3 47 bd cf 54 d9 bd 7f ab 86 bc
       0.035519954 -0.048816286 -0.10611879 -0.016439198
000110 c2 bf 0f be d8 4b d1 bd d5 c0 a0 bd 46 0f e3 3d
       -0.14037994 -0.10219544 -0.0784928 0.110868976
000120 54 e9 e0 bd 43 e9 0d bc 9f ce 9d 3d 47 b3 41 3d
       -0.10982004 -0.008661571 0.077054255 0.047290113
000130 f2 1a 88 bb 29 e8 80 3d b7 6e b1 bd 41 73 cc bd
       -0.0041536028 0.06294281 -0.08663695 -0.099829204
000140 9b 5c 82 3d 55 ce 80 3d 04 d3 5c 3d 2f f9 4c bd
       0.06365319 0.06289355 0.053912178 -0.050042327
000150 c3 31 1c 3c 1a e6 c0 bc 92 f8 a8 3d be 62 0b be
       0.0095333485 -0.023547221 0.08250536 -0.13611886
000160 e1 37 80 3c 57 af 07 bc f2 74 29 3a f2 52 d0 bd
       0.015651645 -0.00828155 0.00064642646 -0.101720706
000170 2a eb da bd e0 70 ab bd 6e fd 0b bc 5b 3d f4 bd
       -0.10689385 -0.083711386 -0.008544309 -0.11925765
000180 23 0d 13 3e 8f bc cc bd 3b 61 05 3e a5 99 a3 bd
       0.1436048 -0.09996902 0.13025372 -0.0798829
000190 9a 4f af 3c db 74 10 bd 3e cd 9c 3d 77 58 ea bc
       0.021400262 -0.035267692 0.07656334 -0.028606636
0001a0 86 9c d3 3c a0 6e 23 3c e6 14 a0 ba 3f ec 4e bc
       0.025831472 0.0099751055 -0.001221326 -0.012629568
0001b0 f9 eb d3 3d 3c 29 09 3e d6 13 fd 3d e4 6e 35 bc
       0.103477426 0.13394636 0.12357299 -0.011073802
0001c0 5b e7 da 3d a5 50 2b bd f2 69 e8 bd 68 3f 37 bd
       0.10688659 -0.041824955 -0.113483325 -0.044738203
0001d0 3a a3 8b bd f8 c5 bf bd 7d dd e9 bb 31 c4 7c 3c
       -0.06818242 -0.093639314 -0.007136999 0.015427635
0001e0 c2 65 02 be a7 43 29 3d 95 05 d6 3d 1c d8 f1 bd
       -0.1273413 0.041324284 0.104502834 -0.11808798
0001f0 31 e5 35 3d e4 e9 0b 3d 34 c5 b2 3d 68 1e 38 3d
       0.044408027 0.034158602 0.0872902 0.044950873
000200 ce 03 f9 3d cf 75 81 3d e3 2b e2 bd f6 ee 40 bd
       0.12158929 0.06321298 -0.11043527 -0.04710289
000210 db 22 96 3d 01 8a c9 3d f7 3c 8c 3d 74 32 e3 bd
       0.07330867 0.09840775 0.068475656 -0.110936075
000220 23 c4 09 3e 47 91 18 bd 8a cf 04 be d0 c2 5a bd
       0.13453726 -0.037247922 -0.12969795 -0.053408444
000230 18 e7 a6 bc da e0 b0 3d c1 d9 02 3d 86 fc 53 3d
       -0.020373866 0.08636637 0.031945948 0.051754497
000240 c7 e1 61 3d 8c b5 e0 3d 5f 63 00 be 9a 91 cd bd
       0.05514696 0.10972127 -0.12537907 -0.10037537
000250 bc 88 ff bd 8d ec cb bd df 6f 26 3b 33 fd f6 3d
       -0.12477252 -0.09957228 0.002539627 0.12060013
000260 c0 68 e1 bd 55 21 fc bd f8 bd ff 3c 05 df b3 bd
       -0.110063076 -0.12311045 0.031218514 -0.08782772
000270 a5 70 e0 bd 44 38 9b bd cd a6 8c bd 89 95 81 bc
       -0.10958985 -0.07579091 -0.06867752 -0.015818374
000280 c1 c3 92 bd 78 8f c8 3b 1c 82 93 3d 83 09 04 be
       -0.07166243 0.0061206184 0.07202551 -0.12894253
000290 18 1a 94 bd 29 53 b8 bd 3b 5b fb bd e2 9a 58 3c
       -0.072315395 -0.090002365 -0.1227326 0.013220521
0002a0 7c 31 cf 3d cf c4 38 bd 44 b8 c9 3d 24 c3 12 3c
       0.1011686 -0.045109566 0.09849599 0.008957658
0002b0 9c 7c 3e bd 87 fc 26 3d 13 ab 02 3e 08 3e e5 bd
       -0.046505556 0.040768173 0.12760572 -0.11193472
0002c0 bf 2f 3c 3d b2 ae 73 bc 5d 89 88 bc 94 07 89 bd
       0.04594397 -0.014873194 -0.016667062 -0.066908985
0002d0 1d 8e 43 bc 3f 5a e3 bd bb 55 72 3d 7e fc a5 bd
       -0.011935738 -0.111011975 0.05916379 -0.081048
0002e0 95 df b8 3d 86 37 d5 bc 9c c0 cb bd f6 40 e5 bd
       0.0902702 -0.026027452 -0.09948847 -0.11194031
0002f0 d2 71 99 3d ad fb ac 3d 4b 83 e4 bb 8d 8a 01 3e
       0.074924126 0.08446441 -0.006973659 0.12650509
000300 27 78 cc 3d 67 cf 23 bc 80 16 34 3d e7 b4 26 3d
       0.09983855 -0.009998179 0.04396677 0.040699866
000310 e4 47 f1 bc 08 9a f9 bd bc 2f f4 3d 72 d3 3e 3d
       -0.029453225 -0.12187582 0.11923167 0.04658837
000320 db 70 03 3e c9 1a 8f bd de 7a 66 3d 2c 2b 96 3d
       0.1283602 -0.06987531 0.05626952 0.07332453
000330 ad 6f d0 3d b9 8c 8e bc ad 74 d1 bd 10 7c 83 bc
       0.101775505 -0.017401086 -0.10227332 -0.016050369
000340 96 ac d1 bd 41 12 eb 3d 99 aa 8a bc b2 67 13 be
       -0.10237996 0.11478091 -0.01692705 -0.14395025
000350 fc 55 90 3d a6 9a e5 bd f8 a7 43 3d 3d c4 73 3d
       0.0704765 -0.112111375 0.04776761 0.05951332
000360 ae 51 b7 bd fe 4b ad 3d 23 3f d4 3d dd 40 81 bd
       -0.08951126 0.0846176 0.10363605 -0.063112
000370 3e cd 44 bc 90 5e 37 bd 3e 39 10 3e be 46 32 3d
       -0.012011824 -0.044767916 0.14084336 0.043524496
000380 04 7e a2 3c 5e 6b 17 3d 31 80 cf 3d 02 09 1f 3c
       0.01983548 0.036967628 0.101318724 0.0097067375
000390 13 1c 4c bd 6c 8b 13 3e d0 b0 fe bc c7 68 3c 3d
       -0.04983146 0.14408654 -0.03109017 0.04599836
0003a0 d9 7c 13 be b3 b3 2f bc 6d 1f 94 bd ac 73 67 bd
       -0.14403094 -0.010723996 -0.072325565 -0.056506798
0003b0 7b ee fc 3c 7f 5f 7c 3d 39 b8 26 3d 7c 12 fd bd
       0.030875435 0.06161451 0.040703032 -0.12357041
0003c0 60 f5 db bd a4 a1 04 3e ad 1c 6c 3c b9 99 1a bc
       -0.10740161 0.12952286 0.014411134 -0.009436064
0003d0 fb e2 b3 bd c7 2c c6 bb 39 a0 09 3d 8d 72 0f be
       -0.087835275 -0.0060478183 0.033600066 -0.14008541
0003e0 2f 8a ee 3d 0f 6a 13 3e 64 38 a5 3c c5 ef 07 3d
       0.1164745 0.14395927 0.02016849 0.033187646
0003f0 ff 5b e2 bd 6f 37 6d bb 55 e0 b9 3d 47 0c d4 bc
       -0.11052703 -0.003619637 0.09075991 -0.02588476

encoder.model.weight_hh_l1 f4 [192, 48]
000000 7c bb d3 bd df 16 db bd a0 54 24 bc f6 7b 80 3d
       -0.10338494 -0.10697722 -0.010029942 0.06273644
000010 25 85 06 3e 55 3f df 3d 9b 20 b8 bc aa f2 12 bd
       0.13136728 0.109007515 -0.022476485 -0.035875954
000020 d3 8c aa 3d fe a2 e5 bc d0 d7 f1 3d 6e f6 55 bd
       0.08327641 -0.028031822 0.11808741 -0.052236967
000030 bd 0f d2 bd 75 d2 c1 bd e7 bd cc bd 56 03 47 bd
       -0.10256908 -0.094639696 -0.099971585 -0.048587166
000040 7e 7a 1b bd 90 6e e1 3c e6 f7 ee bd 04 2f c8 3c
       -0.037958615 0.02751854 -0.116683766 0.024436481
000050 16 10 42 3d 7f 7f 9b bd 89 2e 0f 3e 8d 32 13 3e
       0.047378622 -0.07592677 0.13982596 0.14374752
000060 ee 3b 9a bd d3 b6 7e bd 41 d3 86 3d 55 cb e1 bc
       -0.07530962 -0.062186074 0.06583262 -0.027562777
000070 22 9b ec bd 6d 51 01 3e 65 5e 07 be 12 da d1 bd
       -0.11553027 0.12628718 -0.13219602 -0.10246672
000080 f9 af 00 be 2a f2 ce bd 70 d1 6a bd 0c db ad 3d
       -0.12567128 -0.10104783 -0.05732864 0.084890455
000090 ba c9 f8 bd 41 fd c3 bc 6c 36 51 bd 7c 3c f0 3d
       -0.12147851 -0.023924472 -0.05107729 0.117302865
0000a0 32 54 42 bd b8 fa ce bd e8 da cb bd ce 96 6d 3d
       -0.047443576 -0.101064146 -0.099538624 0.058005147
0000b0 c0 9e a2 bd 85 17 f2 3c 81 32 cd 3b 0d 01 0c 3e
       -0.079404354 0.02955223 0.006262124 0.13672276
0000c0 75 ef 4c 3c 1f ff c3 3d 94 ca e3 3c 94 93 8e bd
       0.012508263 0.09570145 0.027806558 -0.06961742
0000d0 1b a8 93 bd 51 13 0c bd 7f d6 58 bc 6d fe 0f bd
       -0.07209798 -0.03419811 -0.013234734 -0.03515475
0000e0 2f 50 0b 3e 3b 68 cb 3d 06 47 e2 3d dc 96 f0 3d
       0.13604806 0.0993199 0.11048703 0.11747524
0000f0 13 98 dd 3d 3b 4e fc 3c 8b 4f b4 bd e6 d7 3b 3d
       0.108200215 0.030799022 -0.08804234 0.045860194
000100 fb 2a f7 3d 87 2e 45 bc 04 12 d5 bd 3a 9d e0 3d
       0.12068745 -0.012035019 -0.10403827 0.109674886
000110 ce da fa 3d 6a c1 be 3d 0d e0 e5 bd b7 b6 99 3c
       0.12248765 0.093142346 -0.11224375 0.018763883
000120 9e 1b 8e 3d 1d bb a1 3d 07 7a 0e be 6c a4 e8 3c
       0.06938861 0.07897017 -0.13913737 0.028398715
000130 e1 c0 c6 3d d8 23 ff 3d f6 11 3d 3d fc f2 c1 bd
       0.097047575 0.124580085 0.046159707 -0.09470174
000140 d1 69 87 bd 1e fc c4 3c 33 4a 12 3e 4a 75 48 3d
       -0.0661198 0.024046 0.14286117 0.04893998
000150 c8 51 cf bd f7 c7 d9 bd 9c 91 13 3e 47 e2 e4 3d
       -0.101230204 -0.106338434 0.14411014 0.111759715
000160 a9 c7 07 3b fa b9 b9 3d 04 22 3b 3d a6 3f 92 3c
       0.0020718372 0.09068675 0.045686737 0.017852616
000170 5c e0 6b bd 47 36 6c 3d 49 52 f3 bd 6f 10 14 bd
       -0.057587013 0.05766895 -0.11880929 -0.036148485
000180 cc de 3f bc 5c 78 4b 3d 98 85 0b bd 83 16 83 3d
       -0.011710834 0.04967533 -0.03406295 0.06400778
000190 e3 e0 f1 3c 64 fe c4 bb b6 f5 10 be 2c a0 5b 3c
       0.02952618 -0.006011771 -0.14156231 0.013404887
0001a0 49 e2 18 3d 2c 96 1f 3c e7 b9 07 be ef c3 f8 3c
       0.037325177 0.009740394 -0.1325451 0.030366866
0001b0 91 e3 97 bc 23 95 ff bd c3 1b c5 bc 62 28 03 3e
       -0.01854113 -0.124796174 -0.02406109 0.12808374
0001c0 8e a5 b3 bc bb 19 a5 bd 22 18 e8 3d c2 b3 35 3d
       -0.021929529 -0.08061548 0.11332728 0.044360884
0001d0 87 be 8d 3d a3 b4 d7 bd 4a 36 99 3d dc 24 bf 3d
       0.06921106 -0.105325006 0.07481058 0.09333202
0001e0 76 ea 65 3d 5e 49 e0 3d 67 37 aa bd e8 1c 11 be
       0.056131802 0.10951494 -0.083113484 -0.14171183
0001f0 69 71 c8 3d f1 d5 00 be 4e ce f2 bd ec da fb bd
       0.09787256 -0.12581612 -0.11855756 -0.122976154
000200 19 6b 99 bd 7f e2 a7 bc 74 91 09 be d4 11 ce bc
       -0.074911304 -0.020493744 -0.13434392 -0.025154985
000210 ef 80 52 bc d6 e1 82 bd a3 f0 94 bd 5a 93 8e bd
       -0.012848123 -0.06390731 -0.0727246 -0.06961699
000220 f0 8c 8d bd 61 13 90 bd 72 0b ad 3d e9 e7 dd bd
       -0.06911647 -0.07034946 0.08449449 -0.10835249
000230 2b ba bd 3b f0 07 96 bb 63 d5 80 3c 6d fa f3 3d
       0.005790015 -0.004578583 0.01572675 0.11912999
000240 9c c2 02 be 82 81 9a bd 31 f7 46 3d e7 27 be 3d
       -0.1276955 -0.07544233 0.048575584 0.092849545
000250 3f af 9a 3d 1c 2a ad 3b 66 8a 12 bd d0 61 6b bd
       0.07552957 0.005284561 -0.03577652 -0.05746633
000260 51 42 d0 3d a5 43 f5 3d ee cc 52 bd bc 0b 0d be
       0.10168899 0.11975793 -0.051464967 -0.13774008
000270 d4 ea 56 bd 30 8d ed bd a4 32 78 bd ad 70 fe bd
       -0.052470043 -0.11599195 -0.06059517 -0.12423835
000280 da 72 f4 bd 42 a6 2d bd b9 c3 f3 3d 50 fc 71 bd
       -0.11935969 -0.042394884 0.119025655 -0.059078515
000290 2b 76 0d be a1 23 92 bd 37 a9 07 be c9 8c 9c bd
       -0.13814609 -0.07135702 -0.13248144 -0.0764404
0002a0 79 b0 9d 3d 88 06 4c 3d 6c 0b b1 3d 23 cd dd 3c
       0.07699675 0.049810916 0.08644757 0.027075356
0002b0 e7 be e0 3d ec bd fc bd 7d fa d9 3c 8d 3d 40 bc
       0.10973912 -0.12340912 0.0266087 -0.011733425
0002c0 45 cc b6 bd da 0c b7 3c fd e7 cb 3d 22 4e 41 bd
       -0.0892568 0.022344995 0.09956358 -0.047193654
0002d0 19 10 1b 3d ea 5c aa 3d af 63 7c 3d 03 8c 02 3d
       0.03785715 0.08318503 0.061618503 0.031871807
0002e0 54 19 e1 bc b4 9c 22 bd 38 ae cf 3d bb 3a c1 3d
       -0.027477898 -0.039700225 0.101406515 0.0943503
0002f0 58 a5 03 3d c0 7a 55 bc 87 27 d2 3d ab 9a 02 be
       0.032140106 -0.013029754 0.102614455 -0.12754314
000300 7b b4 6b bd cd 53 73 bd ce 44 0a be 3c 8b da bd
       -0.057545166 -0.05940609 -0.1350281 -0.10671088
000310 4b 64 93 bb ee 01 88 3d 0e c0 f5 bd 4a 5b b9 3d
       -0.00449804 0.06640993 -0.11999522 0.09050615
000320 f4 9e f4 bd 22 0c a3 3d df df 35 3d 07 a0 3e bd
       -0.119443804 0.079612985 0.044402953 -0.046539333
000330 20 e3 ef bc c1 da 5a bd 05 b5 99 3c 94 bc b1 bd
       -0.029283106 -0.053431276 0.018763075 -0.086785465
000340 83 e8 36 bd bd 8c 26 3b 7e ce 18 3d b0 f0 36 bd
       -0.044655334 0.0025413476 0.0373063 -0.04466313
000350 5b a7 90 3d 26 86 1f 3c 28 8e e4 3d 57 50 7b bd
       0.070631705 0.009736573 0.11159927 -0.061355915
000360 fa 04 0d 3e 66 7c b0 bb 56 13 c4 3c bd 5a eb bd
       0.1377143 -0.005385923 0.023935001 -0.11491916
000370 65 51 88 3c 0b d6 a6 3d c2 36 7d 3d ce bb 34 bd
       0.016640374 0.08146294 0.0618198 -0.044124417
000380 63 22 10 be 4e e5 0f be d3 e4 ac 3d f0 df d4 3d
       -0.14075617 -0.14052317 0.08442082 0.10394275
000390 30 b1 9d bd 37 21 cb 3b a5 be 0d bd ca 75 c9 3d
       -0.076998115 0.006199028 -0.03460564 0.098369196
0003a0 98 35 3d bc 7b cf 74 bd fa 11 bb 3d 70 fb 0f 3e
       -0.011548422 -0.05976818 0.09134288 0.1406076
0003b0 f2 14 62 3d ae 69 86 bd e5 26 44 bc 74 5d 05 3e
       0.055195756 -0.065631256 -0.011972164 0.13023931
0003c0 db ca f0 3c 8c 13 b1 bd da 54 fe bd 8d 2d 0f 3e
       0.029393604 -0.086463064 -0.12418528 0.1398222
0003d0 c9 85 4f bd 05 42 05 bd 92 f7 9c bd 54 01 8d bd
       -0.050664697 -0.032533664 -0.07664408 -0.06885019
0003e0 51 d3 6c bd 75 1c c3 bd f1 bb d0 3d 14 25 8d 3d
       -0.057818715 -0.09526912 0.10192097 0.06891838
0003f0 49 f0 cb bd c0 66 49 3d b3 5f 06 3d c8 3b 6c 3c
       -0.0995794 0.049170256 0.03280611 0.01441855

encoder.model.bias_ih_l1 f4 [192]
000000 40 d8 ad 3d d6 70 ca 3d 93 1a 93 bc 29 5e 02 3e
       0.08488512 0.09884803 -0.017957008 0.12731232
000010 1c e0 df bd 0f e9 b9 bd 3d 6f 6d bd 6d 3a 39 bc
       -0.10931417 -0.090776555 -0.057967413 -0.011305434
000020 bc f3 03 bd ef 02 cd bd 2f 19 9e 3d 50 36 f7 bd
       -0.032214865 -0.10010325 0.07719647 -0.12070906
000030 75 e1 67 bd fd fa 9d bc 4d 0e a8 bc ab 82 56 3c
       -0.056611497 -0.01928472 -0.020514632 0.013092677
000040 72 88 71 bd b1 2c cd bd 4a 8e 00 3e 0f eb 6c 3d
       -0.058968015 -0.1001829 0.12554279 0.057841357
000050 e8 0c 23 3c 49 31 c3 bd 47 13 e4 3d 21 81 65 3d
       0.009951808 -0.09530885 0.11136489 0.05603135
000060 7a 63 e7 3d 71 ef 82 bd c0 5c df bd ef 39 d7 3d
       0.112982705 -0.06393326 -0.109063625 0.10509097
000070 b5 3d 1e bc 3d a4 b1 3d b8 95 0e be 11 98 ec 3d
       -0.009658267 0.08673904 -0.139243 0.11552442
000080 aa 36 08 3e 32 17 9c bd d4 39 a9 bd a0 76 05 be
       0.13302103 -0.07621612 -0.08262983 -0.13033533
000090 dd e2 4e 3d 7a d9 92 bd c0 31 e3 bd 1b ea fb 3d
       0.050509322 -0.071703866 -0.110934734 0.123005114
0000a0 2d 1b aa 3d 8d 4a da bd c1 2c f1 3d d9 e4 80 3d
       0.083059646 -0.10658751 0.11776114 0.06293649
0000b0 63 0b 07 be 7c 60 78 3d 33 35 08 be 4b 2c 7d 3d
       -0.13187937 0.06063889 -0.13301544 0.06180982
0000c0 ef dc 88 3d 79 f6 48 bd 73 e9 0d 3e 2d 58 6b 3d
       0.06682765 -0.04906318 0.13858585 0.057457138
0000d0 48 c0 b8 bd 99 66 56 bd 12 97 a7 bd 82 70 43 3d
       -0.0902105 -0.05234394 -0.08183111 0.047714718
0000e0 b3 f2 f8 3d 4e 75 91 3d 20 cf e6 3d 27 95 c8 3d
       0.12155666 0.07102452 0.11269975 0.097940736
0000f0 87 12 ae bd b4 8a b4 bd cf 4d d8 3d a8 25 7f 3d
       -0.084996276 -0.08815518 0.10561716 0.06229177
000100 31 ca d7 3d 2d 3e f5 3d 55 da 9f bc d0 a9 bb bd
       0.10536612 0.1197475 -0.019513289 -0.091632485
000110 02 f4 03 bd af 7b cf 3c 3a d0 ff bd fc e5 f2 bd
       -0.032215126 0.025327532 -0.12490888 -0.11860272
000120 44 16 b1 bb 73 34 7c 3d 9b f3 95 3d ba 79 12 3e
       -0.0054042656 0.061573457 0.07321855 0.14304247
000130 2f fa 83 bd a9 db 9e 3d 61 a8 a7 bd a8 2f 56 3d
       -0.06444203 0.077567406 -0.081864126 0.052291542
000140 6e 0e 44 3c fa 1f 00 3e d4 35 97 bd ce 34 74 3d
       0.011966331 0.12512198 -0.07383314 0.05962067
000150 b7 f4 d9 3d 12 3a 8b bd e7 24 e1 3d d5 0b c8 bc
       0.10642379 -0.067981854 0.10993367 -0.024419704
000160 c7 b0 31 3c d7 96 02 3e 19 71 e2 bd 1a 39 0f be
       0.01084537 0.12752853 -0.11056728 -0.13986626
000170 66 c7 f6 bb 76 a6 9c 3b 0e 8b 4e 3d b3 56 09 3e
       -0.0075310944 0.004780586 0.05042558 0.1341198
000180 94 ef dc 3d 8a f8 88 bc 4e 9a bd 3d 31 f6 08 3d
       0.107878834 -0.016720075 0.09257947 0.03343791
000190 a4 81 fa 3d 02 ab de 3d fb 3f dd 3d f3 a9 cb bd
       0.12231758 0.10872461 0.10803219 -0.099445246
0001a0 b0 d8 a5 bd bb 4e 10 3d 13 35 a7 bc 50 b3 55 bd
       -0.080979705 0.035231333 -0.02041105 -0.05217296
0001b0 16 0c 14 bc b8 cc 76 3d 55 d1 6f bd d0 61 3b bd
       -0.009036085 0.06025383 -0.058549244 -0.04574758
0001c0 94 b7 0b be 52 bb d1 bd 66 2d c5 bd 34 16 9b 3d
       -0.13644248 -0.10240807 -0.096278 0.07572594
0001d0 6b 3b 4f bd dd d1 43 bd fe f1 e8 3d 4e 21 12 3e
       -0.050593775 -0.047807563 0.11374281 0.14270517
0001e0 05 fc 55 bd 0f ea 01 be 34 fe 87 3d e8 40 8c 3d
       -0.052242298 -0.12686943 0.06640282 0.068483174
0001f0 f2 85 48 3c 3a 38 f8 3d f4 67 f4 bd dd 62 08 3e
       0.012238966 0.12120099 -0.1193389 0.13318963
000200 39 f0 23 3d 40 de 12 be 6e eb 88 bd 6c ef 1c bd
       0.040024016 -0.14342594 -0.0668553 -0.038314268
000210 6b e6 8b bd ca 78 2b bd 9c a0 96 3c 4f 4f f6 bc
       -0.06831058 -0.04186324 0.018387131 -0.030067114
000220 c2 4e 03 be b5 87 42 3c 8c fc e3 3d 2c b0 71 3d
       -0.12823012 0.011873175 0.11132154 0.0590059
000230 ff 70 e1 bd f2 6e c1 3d 13 45 3c bd 80 97 4b bc
       -0.110078804 0.09444989 -0.04596431 -0.012426257
000240 fb a7 fb 3d d2 12 e6 3d 64 c9 de bd 2f 4f 87 3d
       0.12287899 0.112340584 -0.10878256 0.066069
000250 fc ba f8 3c 16 7c 13 3e 28 1e 3e bd 08 0b f0 3d
       0.030362599 0.14402804 -0.046415478 0.11720854
000260 cd 3b fd bd a4 fc f6 bd f3 df c0 bd 12 cf c9 bc
       -0.12364922 -0.12059906 -0.09417715 -0.024634872
000270 7a 5c d7 3b fe a6 f2 bc 9b 77 f8 3d 2e 77 fe 3d
       0.0065723034 -0.029620644 0.12132188 0.124250755
000280 3a 87 7d 3d 45 33 cd bd f3 55 eb 3d a0 63 88 bd
       0.06189654 -0.100195445 0.11491003 -0.06659627
000290 72 08 ca bc 4f 7b cb bd 12 4b 12 3e d5 c0 c8 3c
       -0.02466223 -0.099356286 0.1428645 0.024506012
0002a0 da fa 59 bd 13 62 5e 3d 5d ef 95 3c 29 89 1d 3d
       -0.053217746 0.05429275 0.018302614 0.038460884
0002b0 f1 80 28 bc f6 c5 9c bd fe f2 8c 3d 5c ac 02 3d
       -0.010284648 -0.076549456 0.068822846 0.031902656
0002c0 f9 9c f6 bd aa a4 90 bd 69 94 b7 bd 4e d5 8b bd
       -0.12041659 -0.07062657 -0.08963854 -0.06827794
0002d0 a2 80 74 3d b9 83 5f 3d 7d 88 e4 bc e4 27 2f bd
       0.059692986 0.05456898 -0.027897114 -0.042762652
0002e0 df 69 ef 3d 26 5f db 3b 05 b3 eb bc d9 ea a7 bd
       0.11690115 0.006694692 -0.028771887 -0.081990905
0002f0 46 7c 47 3d 45 92 81 bd ff c5 12 be ed 04 06 be
       0.0487025 -0.06326727 -0.14333342 -0.13087817

encoder.model.bias_hh_l1 f4 [192]
000000 36 fc 65 bd 97 26 af bd 29 ea a4 3a 5f 30 97 bc
       -0.05614873 -0.08552282 0.0012581992 -0.018455682
000010 42 2f d1 3b d3 8b 2d 3d e2 7b d2 3c 88 57 be 3c
       0.0063838074 0.042369675 0.025693838 0.023235098
000020 a7 ed a6 bd f0 2f 7e bd 63 b1 9e bd 54 c9 f5 3c
       -0.08150797 -0.062057436 -0.077486776 0.030003227
000030 b3 fe 00 3e 2a f2 83 3c 84 ef eb 3d 90 12 c7 3b
       0.1259716 0.016106684 0.11520293 0.006075211
000040 ff e5 42 bd 2b 92 04 be 59 be 80 3d f0 35 fd bd
       -0.047582623 -0.12946384 0.06286306 -0.123638034
000050 07 34 f6 bd f0 8f 92 3d 8e fa 04 3e 40 53 68 3d
       -0.12021642 0.0715636 0.12986204 0.05672002
000060 18 97 d4 bc bb f0 e9 3d 7a 08 2c bd a1 ce a4 3c
       -0.025950953 0.11422869 -0.04200027 0.02011806
000070 96 6f da bd 3d 90 56 bb f1 84 0a be 0e 9f b7 bd
       -0.106658146 -0.0032739781 -0.13527276 -0.08965884
000080 e8 fd 17 bd 37 59 90 3d 7e 06 13 bd 5b be fd bd
       -0.03710738 0.070482664 -0.035894863 -0.12389823
000090 a9 81 70 3d c4 e2 5a bd c7 a2 66 bd 15 cf 0d bd
       0.058717404 -0.053438917 -0.05630758 -0.034621317
0000a0 09 90 83 3d ae 29 0c be ff c5 1a bd 97 1e 6d bd
       0.06423957 -0.13687775 -0.03778648 -0.0578905
0000b0 6b 6e 0d 3e 4b d5 0f 3e ad 46 6c bb 81 70 5c 3d
       0.13811652 0.14046209 -0.0036052868 0.05381823
0000c0 12 ca f8 3c 05 99 68 3b 07 e1 de 3d 33 8d 9a 3c
       0.030369792 0.0035491597 0.10882764 0.018866157
0000d0 76 12 84 3d 09 d6 cc bd 17 cb 89 bb cc 15 9a bc
       0.06448834 -0.100017615 -0.0042051184 -0.018809222
0000e0 fc ca d6 3d ac 6c ea 3a 39 ca bb 3d 2c 3e fc bc
       0.10487935 0.001788517 0.0916943 -0.030791365
0000f0 e8 0b fc 3d 1b 39 0d be a6 5d 24 bd 21 af f5 3d
       0.123069584 -0.13791315 -0.040128373 0.11996294
000100 fc ed 3d bc c4 00 0c be b9 dc c5 bd f5 11 f5 3d
       -0.011592384 -0.13672167 -0.0966124 0.11966316
000110 4f 11 a2 bd 43 a9 b1 bd 7d a1 28 bd 30 df 0e be
       -0.079134576 -0.08674862 -0.041169632 -0.13952327
000120 45 76 8e bd 06 c1 a4 bc 70 53 0e bd a5 09 58 3d
       -0.06956152 -0.020111572 -0.03474754 0.052743573
000130 77 5f 36 bd f0 8d 0d 3e b7 7b 96 3d 39 f1 c8 bc
       -0.044524636 0.13823676 0.073478155 -0.024529086
000140 0c 33 9d bb 6b ee 3c bd da 7a 19 bc 2a f8 9b bd
       -0.004797345 -0.04612581 -0.009367669 -0.07615693
000150 bc 38 26 bc f7 77 36 bd de 75 f9 bc 5b e1 b0 bd
       -0.0101453625 -0.044548 -0.030451711 -0.08636733
000160 f0 33 0e 3e a1 06 8a 3d 80 7b 30 bd 40 2f 97 bd
       0.13887 0.067395456 -0.04308653 -0.07382059
000170 67 c1 bc bd ff dc 0e 3e b3 ac fa 3d 66 71 9b 3c
       -0.09216576 0.13951491 0.12239971 0.018974971
000180 60 fc fd 3d 4f da a1 bd 97 f1 e9 bd f5 17 16 bd
       0.12401652 -0.07902967 -0.11423033 -0.03664394
000190 a6 0e 62 bd 55 76 8d 3d 5a 97 ea bd 84 3b f5 3c
       -0.05518975 0.06907336 -0.11454649 0.029935606
0001a0 fb d4 a9 3d a2 26 68 bd 46 e9 20 3d a9 c3 f5 3d
       0.08292576 -0.056677468 0.039284967 0.1200021
0001b0 bd 4e 4b bd f3 9b 0d 3e 03 77 b6 bd c0 29 05 be
       -0.049635638 0.13829021 -0.089094184 -0.13004208
0001c0 3a 5e 8f bd fb 0f 8f bd ca f2 e7 bd 53 0d 3e bd
       -0.07000394 -0.0698547 -0.11325605 -0.046399426
0001d0 2e 48 b5 3d 65 d8 ea bd b7 5c 5f bd af fa dd 3d
       0.08851658 -0.11467055 -0.05453178 0.1083883
0001e0 a5 b5 d2 3d 2d 59 e8 bd 80 12 c5 bd 0a 74 8e bb
       0.10288552 -0.11345134 -0.09622669 -0.004347329
0001f0 01 ab f1 3d 1e 2a bd bb 3f 47 5e 3d 33 7e 41 bd
       0.118001945 -0.005772843 0.054267164 -0.047239494
000200 d0 94 65 3c bd d3 5b bd a9 fd de bd b0 ee 11 3e
       0.01401253 -0.053668726 -0.108882256 0.14251208
000210 ad 39 dc 3d 2c 2d ab bd 59 5f 10 3d de 66 0b 3e
       0.10753188 -0.08358225 0.03524718 0.1361346
000220 15 1d 62 3d 1d d2 72 3d b5 fe 21 3c a9 f2 25 3d
       0.055203516 0.05928241 0.009887387 0.040514622
000230 18 31 e4 bd f3 c5 0b bd 7b 5e d8 3c 46 12 79 bb
       -0.111421764 -0.034124326 0.02641224 -0.0038005277
000240 ee 7d e9 bd 75 9b ec 3d 8f 9b 03 be d0 e5 03 be
       -0.11400972 0.115530886 -0.1285231 -0.12880635
000250 d7 72 18 bd 71 b7 ba 3c 12 9a 3d 3d 18 44 81 3d
       -0.037218895 0.02279255 0.04628951 0.06311816
000260 8d f2 23 3d c9 a2 ed bc ac e7 0b bd f3 82 c9 bd
       0.040026236 -0.029008286 -0.034156486 -0.0983943
000270 1c 84 c2 3d 38 46 df bd de 94 18 3d 47 7f 96 3d
       0.09497854 -0.10902065 0.037251346 0.07348495
000280 20 8d 94 3d 2a e6 64 3c 76 1c f2 bd 69 13 7b 3d
       0.0725348 0.013970891 -0.11821835 0.061297808
000290 47 c6 75 3d 58 9c 08 3e bd 7e bf 3d 89 ba 5e bd
       0.060003545 0.1334089 0.09350345 -0.054377113
0002a0 2d 70 8b 3d d9 ae 99 3d 94 a4 e0 3d ca 25 a4 bd
       0.06808505 0.07504053 0.10968891 -0.0801502
0002b0 2d b9 23 bd 52 5c a3 3d f8 2e 0a 3e 3a e3 81 3c
       -0.03997152 0.07976593 0.1349448 0.01585542
0002c0 c8 57 20 3d ee a8 30 bd cf b3 ee bd ef c8 e2 3c
       0.039146215 -0.043129854 -0.116553895 0.027683703
0002d0 00 35 59 3d a5 1b 09 3e ef 1a af bd 83 9b 92 bd
       0.05302906 0.13389452 -0.08550059 -0.07158568
0002e0 a0 a7 a8 bc 68 a1 f2 3d cf 24 e7 3d c9 4e 09 be
       -0.020587742 0.11847192 0.112863176 -0.1340896
0002f0 40 8e 02 be d7 96 0a bd b9 9a e5 3d 81 72 a2 3d
       -0.12749577 -0.03383526 0.11211152 0.07931996

lmbd.hidden_to_mean.weight f4 [2, 48]
000000 d6 68 cf bc 21 18 25 3f 4f 65 3b bd 88 9f 98 bd
       -0.025318544 0.6448994 -0.045750912 -0.07452303
000010 90 ce 52 bc f8 58 14 3e 09 e0 1f be be 62 53 be
       -0.012866631 0.14487064 -0.15612806 -0.20643136
000020 fa 73 99 be 99 c9 44 bf ef fb 8f 3f 51 36 a3 be
       -0.29971296 -0.76870114 1.1248759 -0.31877378
000030 b2 ba 50 be 04 67 81 be 95 17 7e 3d 06 4b 76 be
       -0.20383719 -0.25273907 0.06203421 -0.24052057
000040 21 71 e5 be 13 3e 8e 3d 83 03 87 bd de bb b2 be
       -0.44812873 0.069454335 -0.06592467 -0.34908956
000050 98 bf ca 3e 9b 46 1a be 24 5f 96 bd 20 61 63 3f
       0.395993 -0.15065996 -0.073423654 0.88820076
000060 00 ff 87 3e 05 f4 fa 3f d8 57 dd 3d 08 e7 91 3c
       0.26561737 1.9605719 0.108077705 0.01781036
000070 f2 04 78 3e f2 33 34 bd 51 51 bc bd bd 63 dc bb
       0.24220636 -0.04399485 -0.091951974 -0.006725757
000080 fa 86 cd 3d 5a 06 27 3e 8e 57 15 3d cd 85 a4 3e
       0.1003551 0.16311017 0.03646045 0.32133332
000090 19 38 03 3e 86 0d 62 bf db b4 3f 3d 7d 15 e0 3c
       0.12814368 -0.88301885 0.046803337 0.027353996
0000a0 90 45 32 3a 9a 5a 16 bf fd 91 c3 be 99 fc 14 bf
       0.0006800527 -0.58731997 -0.38197318 -0.58197933
0000b0 c7 f1 a2 3e ac d3 fb 3e 31 c6 85 be c3 e0 5a 3e
       0.31825086 0.4918493 -0.2612777 0.21374802
0000c0 36 15 d9 be 85 ed 78 3e 4b 10 6c 3e ff 4c 44 3e
       -0.42398995 0.24309357 0.2305309 0.19169997
0000d0 b6 b9 67 bd 37 12 88 be c1 1e 2e 3e 15 b1 8c be
       -0.056573592 -0.26576397 0.17003919 -0.27478853
0000e0 24 06 a7 3e b2 76 8b 3e 7d ab be bb f6 0c 8e 3d
       0.32621872 0.27238995 -0.005818783 0.06936066
0000f0 ff f8 2a be 50 3c 0f 3f bb 6a c4 be bf 24 0c 3d
       -0.16696547 0.55951405 -0.3836268 0.03421473
000100 4a ce 03 bf 69 cd 9c be 7c ba 64 3d 57 0e 3e be
       -0.5148665 -0.30625466 0.055841908 -0.18560158
000110 d5 e7 84 3c 2a 4b 76 bd 51 b4 c7 bc c6 1c d1 bb
       0.016223827 -0.060130276 -0.024377974 -0.006381604
000120 32 20 94 3e d7 fc 21 bd 73 4b 08 3f b7 13 79 3e
       0.28930813 -0.039547767 0.53240126 0.24323927
000130 b4 43 99 bd 89 f2 b9 be de 22 41 be 56 e7 1e 39
       -0.074836165 -0.36317852 -0.18860957 0.00015154234
000140 bf 22 a2 be 34 69 72 3e 89 9d 75 be 8e a4 52 bd
       -0.31667134 0.23672944 -0.23985876 -0.051426463
000150 ab b0 39 3d 26 7b 94 be 04 34 0e be 42 b5 f2 bd
       0.0453345 -0.29000205 -0.1388703 -0.118509784
000160 25 0d 09 3f eb c5 30 be 28 db 86 be 30 32 3e 3d
       0.5353568 -0.17263 -0.26339078 0.04643458
000170 68 78 08 be 2d a7 cf 3d fc 4d d5 be 28 eb 1e be
       -0.13327181 0.10139308 -0.4166106 -0.15519392

lmbd.hidden_to_mean.bias f4 [2]
000000 47 da 41 bc 18 5b f4 3c
       -0.0118318265 0.029828593
