trajectory_inference/RVAgene/models/microglia_pseudotime_0.05_trained_100_epochs.pt (torch, 234887 bytes, 23 tensors)

encoder.model.weight_ih_l0 f4 [192, 1]
-0.22565012 0.30012268 -0.0913326 0.08994 -0.904337 -0.08144474 0.4673627 0.5074783
0.82235265 0.5316109 0.37510026 0.8334942 2.6326118 0.52746886 -0.10345667 0.22793747
-0.033768117 0.67520005 0.59384626 -0.7821674 0.27514207 0.11900259 0.27021158 0.22146471
0.46930683 0.52212244 0.35708803 0.9222336 0.52395874 0.27285972 1.6197304 0.63138646
0.03013849 0.31195387 0.07837957 0.59076303 0.6745645 0.9057155 0.17521445 0.6412411
0.48034644 0.33474037 0.5394888 0.55297357 0.13558069 0.18341605 0.8617014 -0.6345621
-0.12190966 -0.52512854 -0.7520774 -0.25402638 0.84048754 -0.30853838 0.53492445 -0.53038156
0.7955663 0.23888247 0.27616328 -0.5376966 1.7535832 -0.32043383 -0.5867219 -0.30857056
-0.39271736 -0.31754515 -0.012178793 -1.5999879 -0.29454267 -0.25080097 -0.13274635 -0.70646286
0.43057862 -0.49833733 0.12409162 -0.54850215 0.07779554 -0.20465529 -0.09033345 -0.06670129
-0.28269014 0.26768008 0.2871414 0.25139165 -0.45520803 -0.51985407 -0.7110712 -0.21950515
-0.071034074 0.42120016 0.58115005 -0.32853517 -0.3207852 0.10345586 -0.55562365 0.15840071
-0.85341024 -0.8401988 0.112573355 0.6071827 -1.1101063 1.0877005 -0.48093376 0.18302675
-0.802229 0.28917012 -0.106142305 -1.0353254 -1.716264 -0.043477725 -0.18337938 -0.26953226
-0.53236103 -0.8833383 -0.33878538 -0.7705669 0.6356078 0.685483 -0.15029433 -0.6292039
0.032093793 0.6413347 -0.06061652 -1.2352237 -0.21646382 -0.07009736 0.7194847 0.10225388
-0.55971056 0.11830247 -0.26248062 0.74437135 0.71665406 0.5695436 0.9003912 0.45223054
0.38136917 -0.48758426 0.37644544 0.664262 0.647728 0.07662089 0.49266738 -1.1653761
0.14476235 0.16228876 -0.70999473 -0.032780033 0.367095 0.17263387 0.60781115 1.464542
-0.056854766 1.2488319 0.11866006 0.5724666 2.531168 -0.026129596 -0.48088217 -0.004085917
-0.35049573 0.88749856 0.32473427 -0.42205656 0.2867053 -0.10699129 0.1823298 -0.29191598
0.9303208 -0.44989073 0.1741234 1.0784789 0.22692932 0.044507787 0.8228774 0.66363174
0.19449364 0.23709464 0.48563415 0.6527106 0.9387014 -0.075181626 -0.097997665 -0.1467668
0.38197628 0.72099125 0.7567362 0.3374553 0.22021967 -0.07294121 -0.028383827 -0.18230379
00000000: d310 67be aea9 993e 960c bbbd 7632 b83d
00000010: a182 67bf 80cc a6bd 2a4a ef3e 19ea 013f
00000020: b485 523f a717 083f 240d c03e e05f 553f
00000030: b67c 2840 3308 073f 17e1 d3bd 7168 693e
00000040: 7050 0abd e9d9 2c3f 4f06 183f 1f3c 48bf
00000050: 6cdf 8c3e a1b7 f33d 2c59 8a3e a5c7 623e
00000060: fc48 f03e d1a9 053f 3ed4 b63e 8017 6c3f
00000070: 2922 063f 45b4 8b3e 5353 cf3f 8ba2 213f
00000080: ffe4 f63c 6bb8 9f3e 7885 a03d 3f3c 173f
00000090: 42b0 2c3f f9dc 673f 6b6b 333e 6028 243f
000000a0: f8ef f53e 1763 ab3e f01b 0a3f ad8f 0d3f
000000b0: aad5 0a3e 6bd1 3b3e 7798 5c3f a972 22bf
000000c0: c6ab f9bd d36e 06bf 2588 40bf bf0f 82be
000000d0: 312a 573f bef8 9dbe cff0 083f 16c7 07bf
000000e0: 3caa 4b3f 9b9d 743e 4665 8d3e 7ca6 09bf
000000f0: 6a75 e03f e70f a4be 6833 16bf f6fc 9dbe
00000100: 4012 c9be 4795 a2be 8f89 47bc 67cc ccbf
00000110: 4cce 96be fc68 80be a9ee 07be c0da 34bf
00000120: cd74 dc3e 1226 ffbe bf23 fe3d a36a 0cbf
00000130: 4553 9f3d 2891 51be be00 b9bd b09a 88bd
00000140: c3bc 90be 5d0d 893e 3304 933e 68b6 803e
00000150: 0711 e9be 2815 05bf c308 36bf f5c5 60be
00000160: 507a 91bd 8ca7 d73e 40c6 143f c335 a8be
00000170: f53d a4be aae0 d33d 5a3d 0ebf cc33 223e
00000180: 1879 5abf 4517 57bf dc8c e63d 5370 1b3f
00000190: f717 8ebf c539 8b3f f33c f6be 5d6b 3b3e
000001a0: e15e 4dbf 1b0e 943e 2361 d9bd 8b85 84bf
000001b0: 8aae dbbf b315 32bd cec7 3bbe 2200 8abe
000001c0: d048 08bf 7522 62bf 4775 adbe df43 45bf
000001d0: 31b7 223f d07b 2f3f c2e6 19be 8213 21bf
000001e0: c874 033d 832e 243f 0749 78bd cf1b 9ebf
000001f0: b1a8 5dbe 348f 8fbd 2630 383f 7b6a d13d
00000200: 3149 0fbf 9148 f23d dc63 86be 1f8f 3e3f
00000210: a476 373f 9ccd 113f 0a80 663f c38a e73e
00000220: d242 c33e a5a4 f9be 75bd c03e 130d 2a3f
00000230: 81d1 253f 6aeb 9c3d e63e fc3e 0b2b 95bf
00000240: 953c 143e 062f 263e 37c2 35bf 5b44 06bd
00000250: e0f3 bb3e efc6 303e 8399 1b3f 1d76 bb3f
00000260: 8be0 68bd b9d9 9f3f 0c04 f33d 2c8d 123f
00000270: a8fe 2140 bc0d d6bc 3036 f6be 28e3 85bb
00000280: 2d74 b3be 1b33 633f 9243 a63e cc17 d8be
00000290: 09cb 923e 401e dbbd aab4 3a3e 0376 95be
000002a0: 8129 6e3f 1458 e6be 684d 323e 990b 8a3f
000002b0: 2960 683e cc4d 363d 18a8 523f c5e3 293f
000002c0: 5729 473e f0c8 723e 0aa5 f83e 0b18 273f
000002d0: bc4e 703f d3f8 99bd 00b3 c8bd 094a 16be
000002e0: 6592 c33e e292 383f 77b9 413f f1c6 ac3e
000002f0: 4481 613e 3362 95bd 3385 e8bc d8ad 3abe

encoder.model.weight_hh_l0 f4 [192, 48]
-0.072627164 -0.0033043807 -0.018071 -0.030967489 0.4715848 -0.2913919 0.09117073 -0.45024633
0.14478725 0.1824142 0.18610497 0.15492944 0.5957505 0.42955714 0.48713085 0.22475556
-0.022840397 0.2720993 -0.20116717 0.5011035 0.05249743 -0.112582676 -0.26635778 0.1536885
0.02376046 -0.116456084 -0.43682864 0.47651672 -0.18026109 -0.19033542 -0.28603557 0.52044815
-0.18128279 -0.22415034 0.6229887 -0.34729466 -0.27576858 -0.2867508 0.061554693 0.016710555
-0.377983 0.5538402 -0.14267871 -0.27893555 0.123819105 -0.0065476866 -0.1697927 0.17320144
-0.47350383 0.55502605 -0.07211475 -0.08850378 -1.3672433 0.62772644 -0.08359246 1.0241901
-0.15021583 0.8755664 0.35267976 -0.24788086 -1.1475871 0.035220012 0.21169412 0.3930157
0.456104 -0.52392393 0.24614121 0.06361955 0.250174 -0.1435483 -0.087284334 0.34044975
0.100258835 -0.07958942 -0.51990837 -1.1471689 -0.12024254 -0.08226925 0.3069608 -0.6730932
-0.24464916 -0.13491254 -0.15664111 0.2044093 0.04315577 0.23252788 0.27785048 0.43194076
0.4564122 -0.1173665 0.029331183 0.53657174 -0.013342935 -0.1626745 0.10171683 -0.3217881
-0.15248255 0.3185982 0.26370198 0.42525423 0.59043145 0.18415298 -0.5710726 -0.7397599
-0.112204604 0.23546873 0.3737427 -0.8096828 -0.46912903 0.25623855 0.002544679 0.19880375
0.059168793 -0.36453134 -0.6807302 1.2136958 -0.009014706 0.515591 -0.45445627 0.30441615
-0.13112633 -0.11448121 0.2480747 -0.46666652 -0.43706447 -0.19469777 0.09965188 0.7997409
-0.4443494 -0.42318684 0.31874287 -0.40252525 0.2522332 -0.022603244 0.20307328 0.84795314
0.10420091 1.0856732 0.61449665 -0.23617335 0.6046063 -0.37665218 -0.39655644 -0.24619775
-0.073033035 -0.24353261 -0.47686517 -0.15477285 -0.098649114 0.20563973 -0.29656374 -0.30479112
0.11857087 -0.098497435 0.53514135 0.69160926 0.014386058 0.4677234 0.53513026 -0.20428705
-0.37592056 0.054960635 0.10718126 0.17843142 0.26158386 -0.099366434 -0.33517104 -0.5196738
-0.25053772 0.29232642 -0.63936 0.24703813 -0.4263732 0.3728782 0.11933781 0.05284053
-0.3124106 -0.3950123 -0.2290563 0.1798328 0.24580148 0.45463014 0.0033860274 0.23348467
0.061571322 0.51292086 -0.020353077 0.121577084 0.25260937 0.02174801 0.40027964 0.22786471
-0.5236318 0.65093064 0.31892964 0.43106487 -1.7135165 -0.30243355 -0.03003952 1.5368371
-0.09305101 -0.29965916 -0.34430057 -1.0964831 -0.8481484 -0.6325827 -0.6417108 -0.046481032
-0.3975226 -1.3661783 -0.10179729 0.30031112 0.22495674 -0.187303 0.58560145 -0.6372401
-0.03772067 0.44235152 0.06846366 -0.97870487 0.5463385 0.8705911 0.7556643 -0.86571383
-0.13767865 0.37667856 -1.3420988 1.0273365 0.95381266 0.1902523 0.11699312 -0.13902019
0.2545678 -0.73828024 0.3259742 0.5081237 0.17134409 -0.01016225 -0.055929862 -0.95904374
-0.35622463 -0.2528594 0.45427474 0.23475415 -1.659769 -0.24846226 -0.18726783 -0.007952914
-0.031204123 -0.30213946 0.17140615 0.5170318 0.40045205 0.0011891759 -0.3914448 -0.15865858
00000000: 8dbd 94bd 4f8e 58bb a209 94bc 88af fdbc
00000010: 9073 f13e 5231 95be b8b7 ba3d b086 e6be
00000020: 1c43 143e caca 3a3e 4d92 3e3e d3a5 1e3e
00000030: 1b83 183f eaee db3e 3769 f93e 5226 663e
00000040: c91b bbbc 9950 8b3e c4fe 4dbe 5248 003f
00000050: 8c07 573d bf91 e6bd 0c60 88be 8560 1d3e
00000060: 4ca5 c23c 8780 eebd 01a8 dfbe 00fa f33e
00000070: 5d96 38be 4ae7 42be 4173 92be 173c 053f
00000080: 32a2 39be ab87 65be 307c 1f3f 9bd0 b1be
00000090: 8a31 8dbe 00d1 92be c620 7c3d 93e4 883c
000000a0: fd86 c1be 79c8 0d3f 5e1a 12be a4d0 8ebe
000000b0: df94 fd3d fa8d d6bb 23de 2dbe b85b 313e
000000c0: 186f f2be 3016 0e3f e6b0 93bd 7841 b5bd
000000d0: d401 afbf aeb2 203f 8632 abbd a918 833f
000000e0: 2ed2 19be 1f25 603f 7192 b43e 7bd4 7dbe
000000f0: 22e4 92bf dc42 103d 58c6 583e 5b39 c93e
00000100: 7786 e93e e11f 06bf 710c 7c3e f74a 823d
00000110: ce16 803e 53fe 12be 21c2 b2bd 6e4f ae3e
00000120: 8154 cd3d c7ff a2bd b718 05bf 6ed6 92bf
00000130: b941 f6bd c87c a8bd f729 9d3e d64f 2cbf
00000140: 4f85 7abe 8326 0abe 8766 20be ac50 513e
00000150: 1bc4 303d ca1b 6e3e 6b42 8e3e 5727 dd3e
00000160: dcae e93e d95d f0bd f347 f03c c45c 093f
00000170: 539c 5abc 2594 26be ea50 d03d 69c1 a4be
00000180: 6324 1cbe 4e1f a33e f203 873e ecba d93e
00000190: 8426 173f 9992 3c3e d031 12bf e860 3dbf
000001a0: 87cb e5bd b71e 713e 345b bf3e 5f47 4fbf
000001b0: ae31 f0be b331 833e a1c4 263b 3693 4b3e
000001c0: fa5a 723d daa3 babe 5644 2ebf 625a 9b3f
000001d0: 6bb2 13bc c6fd 033f 7eae e8be 6fdc 9b3e
000001e0: fb45 06be 2075 eabd 4b07 7e3e eaee eebe
000001f0: eac6 dfbe da5e 47be 4916 cc3d d2bb 4c3f
00000200: c481 e3be f2ab d8be 4432 a33e ca17 cebe
00000210: b624 813e 702a b9bc 71f2 4f3e 7513 593f
00000220: 4967 d53d 57f7 8a3f a74f 1d3f 6dd7 71be
00000230: 7ac7 1a3f 8ed8 c0be 7209 cbbe 431b 7cbe
00000240: 5892 95bd 9d60 79be ac27 f4be c67c 1ebe
00000250: 8c08 cabd 3993 523e 34d7 97be 950d 9cbe
00000260: 49d5 f23d 06b9 c9bd 06ff 083f 4e0d 313f
00000270: 80b3 6b3c 7179 ef3e 4cfe 083f a030 51be
00000280: a978 c0be 671e 613d d981 db3d bab6 363e
00000290: 52ee 853e a180 cbbd 8a9b abbe 5809 05bf
000002a0: 7b46 80be cfab 953e 19ad 23bf 90f7 7c3e
000002b0: 974d dabe e4e9 be3e 6267 f43d 506f 583d
000002c0: 48f4 9fbe 0d3f cabe bc8d 6abe 1726 383e
000002d0: 62b3 7b3e 48c5 e83e 1de8 5d3b 9b16 6f3e
000002e0: 3632 7c3d c84e 033f 7fbb a6bc 68fd f83d
000002f0: 0456 813e e228 b23c 74f1 cc3e 5e55 693e
00000300: bc0c 06bf 64a3 263f bf4a a33e 89b4 dc3e
00000310: 8254 dbbf 92d8 9abe 7015 f6bc 14b7 c43f
00000320: 8791 bebd ed6c 99be 2a48 b0be 8f59 8cbf
00000330: 4120 59bf f1f0 21bf 2947 24bf e562 3ebd
00000340: 1588 cbbe eede aebf 197b d0bd 61c2 993e
00000350: 0f5b 663e 5ccc 3fbe fae9 153f 2b22 23bf
00000360: fd80 1abd e67b e23e ad36 8c3d 678c 7abf
00000370: d7dc 0b3f 0fdf 5e3f 3773 413f 6c9f 5dbf
00000380: a2fb 0cbe 03dc c03e e5c9 abbf c37f 833f
00000390: 112d 743f 80d1 423e 179a ef3d 4f5b 0ebe
000003a0: b656 823e efff 3cbf 17e6 a63e 6514 023f
000003b0: d374 2f3e 917f 26bc b616 65bd e483 75bf
000003c0: 1363 b6be ca76 81be b396 e83e 6463 703e
000003d0: 5073 d4bf e46c 7ebe 23c3 3fbe f04c 02bc
000003e0: ca9f ffbc 06b2 9abe 1885 2f3e 325c 043f
000003f0: 0d08 cd3e 1fde 9b3a 746b c8be 6577 22be

encoder.model.bias_ih_l0 f4 [192]
-0.12495419 -0.26130822 -0.17454085 0.15044905 0.2594248 -0.34310424 -0.47263393 -0.0862367
0.5585493 -0.11184555 -0.2123825 0.051102955 -0.3427677 -0.32815662 -0.5764225 -0.47818413
0.038661096 0.16191228 0.06921127 0.0015965067 -0.33548903 -0.41724026 -0.40996918 0.0041409335
-0.4224445 -0.31287536 0.04475232 -0.05028743 -0.3061343 0.07627621 -0.099125266 -0.11253961
-0.41806996 -0.13969757 -0.22450793 -0.16963921 0.044204284 -0.4750584 0.14931747 -0.21311025
-0.37324157 -0.14287928 0.01178217 -0.32649723 -0.23123254 -0.33517084 -0.082389645 0.08906252
-0.032228272 -0.15327801 0.50717443 0.5850179 0.6882248 -0.22006547 0.048381276 0.34050524
0.6186281 0.014871849 0.33001038 0.080477685 0.048610523 -0.06562906 0.40533653 0.092050895
0.24510553 -0.18556975 0.39009815 0.29852802 -0.3870272 0.23447183 0.2265713 0.25225145
-0.15732211 0.3262617 -0.19511756 -0.0697962 0.044607107 0.16995285 0.37603208 0.28551972
0.02255075 -0.113334455 -0.28338498 -0.29066372 0.021001061 0.26605386 -0.07856254 0.2996115
0.050023273 0.082963586 -0.20196313 -0.15122049 0.2983542 -0.18969369 0.23005022 0.14376375
-0.009457748 0.16323611 0.15505676 0.032439608 -0.30683604 0.16941468 -0.06479668 0.25140768
0.057345476 -0.18247633 0.03455061 -0.08784896 0.21777596 -0.0096948985 -0.1082068 -0.16206191
-0.116476364 0.005411671 -0.13597026 -0.0056572338 0.18093142 0.14135955 0.025666803 0.1478101
-0.11728478 0.12762828 0.23343574 0.24659306 -0.037822112 0.29145858 0.18265069 0.00107441
-0.123242766 -0.02787006 -0.18583266 -0.075659044 -0.041257076 -0.047785453 0.035372782 0.05746073
0.061340496 -0.052855365 0.081589475 0.12576282 -0.06539933 -0.0320065 -0.072768115 -0.17091133
-0.29185274 -0.1983791 -0.07336141 -0.03734378 0.4727326 -0.040800035 -0.21499504 -0.3411302
0.07833778 -0.12936997 -0.11114745 0.35044843 0.0071171555 -0.24849175 -0.25805217 -0.28874987
-0.17722496 0.10176466 0.4804391 0.08614057 -0.4170982 -0.020512573 -0.018467037 0.2687939
-0.42264172 0.13848346 -0.06753824 -0.0012017717 -0.15752792 0.4142372 0.123679884 0.025371144
-0.21805353 0.012016647 -0.29401252 -0.191033 -0.17878704 -0.11768187 0.19850235 -0.16827312
-0.37810308 0.14137308 -0.12848152 -0.03939647 -0.15213323 -0.42812124 -0.11546387 0.16001995
00000000: fbe7 ffbd 31ca 85be d6ba 32be 510f 1a3e
00000010: 54d3 843e 5cab afbe 13fd f1be de9c b0bd
00000020: 16fd 0e3f 480f e5bd cc7a 59be 5551 513d
00000030: 3f7f afbe 2504 a8be 6d90 13bf 8dd4 f4be
00000040: 195b 1e3d 55cc 253e a3be 8d3d e041 d13a
00000050: 38c5 abbe 84a0 d5be 7be7 d1be abb0 873b
00000060: a54a d8be 3331 a0be 354e 373d 31fa 4dbd
00000070: a3bd 9cbe b436 9c3d 3002 cbbd 2b7b e6bd
00000080: 440d d6be e10c 0fbe 68e5 65be e7b5 2dbe
00000090: 8d0f 353d db3a f3be aee6 183e 9339 5abe
000000a0: 8519 bfbe f24e 12be 010a 413c a52a a7be
000000b0: 39c8 6cbe 839b abbe e7bb a8bd 6966 b63d
000000c0: cb01 04bd e9f4 1cbe 2fd6 013f bcc3 153f
000000d0: 802f 303f d858 61be 722b 463d b456 ae3e
000000e0: 695e 1e3f 0ea9 733c 1ff7 a83e 7cd1 a43d
000000f0: d41b 473d 8768 86bd 4588 cf3e 2e85 bc3d
00000100: f2fc 7a3e ff05 3ebe f2ba c73e aad8 983e
00000110: 6e28 c6be 6219 703e 4f02 683e 1a27 813e
00000120: 0c19 21be c60b a73e e6cc 47be 4ff1 8ebd
00000130: f1b5 363d 1f08 2e3e 4787 c03e a42f 923e
00000140: 5abc b83c e51b e8bd d617 91be e0d1 94be
00000150: 6b0a ac3c 3638 883e 66e5 a0bd ae66 993e
00000160: 34e5 4c3d d0e8 a93d 6ccf 4ebe 8bd9 1abe
00000170: e2c1 983e 103f 42be 4992 6b3e ce36 133e
00000180: acf4 1abc 5e27 273e 33c7 1e3e 65df 043d
00000190: 9d19 9dbe 0b7b 2d3e 1fb4 84bd 82b8 803e
000001a0: 17e3 6a3d 13db 3abe f184 0d3d 28ea b3bd
000001b0: a900 5f3e 5ad7 1ebc 879b ddbd 8ff3 25be
000001c0: 298b eebd 6354 b13b ca3b 0bbe 5160 b9bb
000001d0: 1646 393e 8fc0 103e 3043 d23c 885b 173e
000001e0: 0133 f0bd fdb0 023e c709 6f3e e482 7c3e
000001f0: 5ceb 1abd 0f3a 953e c808 3b3e 38d3 8c3a
00000200: b466 fcbd c14f e4bc eb4a 3ebe 21f3 9abd
00000210: 2efd 28bd aeba 43bd 0de3 103d f15b 6b3d
00000220: 2c40 7b3d de7e 58bd 6218 a73d f8c7 003e
00000230: 15f0 85bd 3f19 03bd 7307 95bd 6103 2fbe
00000240: b96d 95be e423 4bbe 823e 96bd cbf5 18bd
00000250: 020a f23e f01d 27bd a927 5cbe 9ea8 aebe
00000260: 8f6f a03d 9079 04be 46a1 e3bd fa6d b33e
00000270: 0737 e93b 9f74 7ebe 6a1f 84be 06d7 93be
00000280: 767a 35be fd69 d03d 1dfc f53e 786a b03d
00000290: e58d d5be fc09 a8bc 2f48 97bc 5b9f 893e
000002a0: 7f64 d8be 9cce 0d3e 7d51 8abd c484 9dba
000002b0: 004f 21be e616 d43e e14b fd3d 25d7 cf3c
000002c0: 6d49 5fbe 78e1 443c cf88 96be 289e 43be
000002d0: f313 37be 3103 f1bd 3344 4b3e ca4f 2cbe
000002e0: ba96 c1be 1bc4 103e a990 03be 315e 21bd
000002f0: d0c8 1bbe b532 dbbe 5278 ecbd 45dc 233e

encoder.model.bias_hh_l0 f4 [192]
-0.12394775 -0.30095193 -0.22989945 0.01838889 0.25165582 -0.27248216 -0.2774624 -0.01875432
0.4530337 -0.17014389 -0.1545382 0.10873629 -0.5311929 -0.5261959 -0.7186407 -0.4017738
0.03167588 0.11685441 0.116257854 0.24583827 -0.4628033 -0.2174825 -0.4119855 0.09525098
-0.40402547 -0.35402355 -0.024608329 -0.14734411 -0.35935456 -0.005358859 -0.11149949 -0.2638797
-0.29622608 -0.10119704 -0.1480044 -0.2924447 0.019837275 -0.28895134 -0.014655631 -0.45641518
-0.30253708 -0.09402667 0.065181784 -0.24543679 -0.061196677 -0.52689755 -0.26566973 -0.0037914424
-0.10497741 -0.21469675 0.43970442 0.51137626 0.4896694 -0.07310429 0.22621243 0.36662638
0.4856698 0.08803847 0.35352612 0.03409244 0.04339329 0.013854724 0.14858541 -0.021117996
0.0063567827 -0.09591698 0.56639874 0.27067834 -0.36301938 0.43472132 0.23352343 0.23445705
-0.22704972 0.5424888 0.0074413535 -0.14058731 0.08549004 0.23861122 0.35468277 0.52535874
0.16068709 0.04738937 -0.2425027 -0.32259724 0.08170014 0.526839 -0.060678534 0.2330878
-0.06584025 0.29380125 -0.32522523 -0.229305 0.17357393 0.02306731 0.43810278 0.2437185
0.026718505 0.025456563 -0.022365814 0.05563742 -0.15827909 -0.06758223 -0.03881004 0.07652367
-0.0078002727 -0.1470805 0.016343271 -0.018685631 0.19826032 -0.076445825 0.08022611 -0.037449002
0.13477002 0.049069997 0.016297743 0.07067217 -0.03378785 -0.0074970117 0.04281817 0.114691816
-0.046955142 0.020682348 0.19255206 0.284577 -0.07563438 0.20256765 0.042110324 -0.120456815
-0.0633407 0.046888754 -0.24432297 0.09573344 0.10268826 0.13647662 -0.0028771714 -0.13987279
0.12664936 -0.094610885 0.06043588 -0.0700305 0.1626477 -0.062942706 0.099556625 -0.1338062
-0.41940612 -0.11293437 -0.012618972 -0.07622886 0.35559887 -0.10774604 -0.3761581 -0.22970314
0.126918 -0.15190284 -0.10905499 0.2645354 0.0706924 -0.09504725 -0.074365035 -0.29668638
-0.17608525 0.044559605 0.33500454 0.0406005 -0.21590112 0.022872465 0.061922107 0.34251797
-0.29958013 0.19179697 -0.01770784 0.03267035 -0.2758571 0.4899969 0.21477455 -0.10140337
-0.19830433 -0.25808606 -0.28545833 -0.13651471 -0.0066105607 -0.10844661 0.101750195 -0.08534605
-0.42963707 -0.006953496 -0.13518043 0.010225495 -0.1789103 -0.3597867 -0.043163545 0.33626658
00000000: 51d8 fdbd 5f16 9abe c36a 6bbe 4ca4 963c
00000010: 08d9 803e c882 8bbe 8d0f 8ebe a9a2 99bc
00000020: 08f4 e73e 333a 2ebe 433f 1ebe 22b1 de3d
00000030: 42fc 07bf c6b4 06bf d6f8 37bf 4cb5 cdbe
00000040: 91be 013d 5d51 ef3d 9918 ee3d 07bd 7b3e
00000050: 8ef4 ecbe bcb3 5ebe c3ef d2be f212 c33d
00000060: 6ddc cebe 9342 b5be 6897 c9bc 60e1 16be
00000070: 52fd b7be 5e99 afbb d859 e4bd 3d1b 87be
00000080: f2aa 97be 6540 cfbd 778e 17be 50bb 95be
00000090: c881 a23c 6ef1 93be 2c1e 70bc 40af e9be
000000a0: 24e6 9abe 0e91 c0bd 077e 853d c853 7bbe
000000b0: 5ea9 7abd c2e2 06bf dd05 88be d979 78bb
000000c0: 65fe d6bd 77d9 5bbe f020 e13e 8ee9 023f
000000d0: f3b5 fa3e b4b7 95bd 3ba4 673e 74b6 bb3e
000000e0: b6a9 f83e 834d b43d 6001 b53e 84a4 0b3d
000000f0: 2abd 313d edfe 623c c626 183e a6ff acbc
00000100: 8f4c d03b 1f70 c4bd 82ff 103f 5a96 8a3e
00000110: addd b9be cb93 de3e c420 6f3e 8215 703e
00000120: b97f 68be 8ce0 0a3f 99d6 f33b 1ff6 0fbe
00000130: 6715 af3d 8056 743e fb98 b53e e97d 063f
00000140: 288b 243e 5b1b 423d a152 78be 772b a5be
00000150: 6752 a73d ecde 063f 0e8a 78bd 91ae 6e3e
00000160: 41d7 86bd 1e6d 963e ec83 a6be eece 6abe
00000170: 5dbd 313e a8f7 bc3c 024f e03e 5891 793e
00000180: c4e0 da3c 488a d03c 8338 b7bc 10e4 633d
00000190: ea13 22be 8d68 8abd 47f7 1ebd 71b8 9c3d
000001a0: 6e99 ffbb 459c 16be 53e2 853c 9c12 99bc
000001b0: c104 4b3e a18f 9cbd 964d a43d 2064 19bd
000001c0: 2701 0a3e 9ffd 483d d882 853c 92bc 903d
000001d0: 2165 0abd 7ea9 f5bb 1b62 2f3d 8be3 ea3d
000001e0: 0954 40bd 076e a93c 5e2c 453e 14b4 913e
000001f0: 33e6 9abd e56d 4f3e e07b 2c3d 10b2 f6bd
00000200: c5b8 81bd 6c0e 403d cd2f 7abe e50f c43d
00000210: 394e d23d 87c0 0b3e ed8e 3cbb d03a 0fbe
00000220: 5fb0 013e 5ac3 c1bd 9d8b 773d 276c 8fbd
00000230: 1e8d 263e 1be8 80bd 58e4 cb3d 7e04 09be
00000240: 66bc d6be 234a e7bd cebf 4ebc e01d 9cbd
00000250: 0e11 b63e f5a9 dcbd cb97 c0be 4d37 6bbe
00000260: cbf6 013e 6b8c 1bbe 3958 dfbd 2f71 873e
00000270: 2dc7 903d 22a8 c2bd b24c 98bd 47e7 97be
00000280: b14f 34be 2284 363d b785 ab3e b64c 263d
00000290: 2f15 5dbe 095f bb3c 09a2 7d3d 845e af3e
000002a0: 9162 99be 6d66 443e 0810 91bc 58d1 053d
000002b0: 243d 8dbe e0e0 fa3e dced 5b3e 92ac cfbd
000002c0: 4a10 4bbe db23 84be 9827 92be 83ca 0bbe
000002d0: 679d d8bb 4219 debd 6862 d03d e9c9 aebd
000002e0: 64f9 dbbe 27da e3bb bd6c 0abe d688 273c
000002f0: 4334 37be f635 b8be 42cc 30bd 222b ac3e

encoder.model.weight_ih_l1 f4 [192, 48]
-0.0674627 0.07369609 -0.023318635 -0.12864418 0.08131955 -0.14255433 0.021833844 0.033349264
0.044367112 0.1414288 -0.035666484 0.07721156 -0.110885374 -0.084637485 -0.10176062 -0.09531076
0.0038177858 -0.07499173 0.05179056 -0.12330588 -0.07956463 -0.01742853 -0.13102522 -0.07674382
0.03501228 0.021101559 -0.12480039 -0.03210681 -0.078455545 0.0063141217 0.108879745 -0.06909185
0.040720806 0.12147607 -0.08852215 0.13108933 0.077149585 -0.015769646 0.070502296 0.10863546
-0.07539295 0.057857137 -0.12350191 0.067142434 0.040389564 -0.020515183 0.034151804 -0.036195856
-0.08881511 0.008237434 0.106119685 0.094273865 -0.022417571 -0.07553817 -0.047101222 0.050232764
-0.10509524 -0.07678298 -0.05896504 -0.07408688 0.05428614 -0.11321021 0.1277968 0.056561135
-0.12001382 -0.0016432091 0.09176157 -0.12754533 0.11096393 0.10548441 -0.034047447 -0.00011659042
-0.039095405 -0.12083098 0.12791933 -0.12953503 0.08685154 0.085927226 0.06789673 0.09220618
-0.10150667 0.09384803 0.024266431 0.106581025 -0.1176228 -0.020387873 -0.11979504 0.112516016
0.12493099 -0.039880514 0.10499465 0.08524737 0.04147458 0.11807158 0.10304547 0.06069414
-0.10753999 -0.13576986 -0.11343001 0.12520608 -0.007877201 -0.03685866 -0.11576486 0.10624385
0.03476695 -0.094376266 0.13376437 -0.08157642 -0.070417225 0.08496391 -0.026260082 -0.12219984
-0.01891074 -0.0561865 -0.089923546 0.06358385 -0.057402458 0.054493442 0.05641271 -0.090443626
0.075660385 -0.08449163 0.04954513 0.119160965 0.123724736 0.01800011 -0.075970136 0.081681795
0.00018446958 -0.10890084 -0.019063825 0.05643792 0.11743231 -0.11923463 0.07278267 -0.04542902
0.034302104 -0.038531758 -0.14076063 -0.08863869 -0.06552526 0.016232515 -0.10179084 -0.087396465
-0.019787783 -0.040506534 -0.09248237 0.025505273 0.04676494 0.087006494 0.09767631 -0.12219817
-0.14431085 -0.1388164 -0.05236448 0.061671343 -0.13200381 -0.09251407 0.041858766 -0.13714316
0.029478054 -0.13733922 0.0505022 0.03590412 0.04148038 0.09355337 -0.03610232 0.07795197
0.13122982 0.12513095 -0.112260886 0.05260432 -0.03387349 -0.06468358 -0.055984654 -0.0021297538
0.025903583 0.10285343 -0.11370023 -0.018692803 -0.02940288 -0.10180959 0.043411866 -0.0024063122
0.09228574 -0.07513422 0.11820126 -0.089967094 -0.12788561 -0.06479683 -0.12803547 -0.013707152
-0.109390445 -0.051064834 -0.102534786 -0.035334554 -0.0833312 -0.030616995 0.019487016 -0.009582215
-0.00032520056 -0.055930175 -0.07364017 -0.03840474 0.07471629 -0.043453902 0.08674799 0.06441874
-0.019648738 -0.05350659 0.054542225 0.11653788 0.13865487 -0.11501174 0.051176347 0.039634842
0.03428865 -0.10990381 0.12136222 -0.094370656 0.135898 0.1138794 0.00011755398 -0.012142301
-0.058257975 -0.0693903 0.097178474 0.11323666 0.05329514 0.12228418 0.045954898 0.004806017
0.123031214 0.12590118 -0.06435948 -0.041978385 -0.011614443 0.11456008 0.08283068 0.04497178
0.052110825 -0.03475334 0.019462341 0.0043220185 0.12061826 -0.031573944 -0.057774287 -0.116067916
-0.09838635 0.09591032 0.049966585 0.14397009 -0.10316217 0.11529165 -0.11219915 0.1298793
00000000: e229 8abd faed 963d b906 bfbc 4dbb 03be
00000010: dd8a a63d c3f9 11be e4dc b23c 3d99 083d
00000020: 4aba 353d b6d2 103e 0517 12bd 1821 9e3d
00000030: df17 e3bd 6b56 adbd df67 d0bd 4a32 c3bd
00000040: d133 7a3b 4495 99bd 5722 543d cb87 fcbd
00000050: c8f2 a2bd 47c6 8ebc 7a2b 06be dd2b 9dbd
00000060: 0969 0f3d 2ddd ac3c 5997 ffbd 6e82 03bd
00000070: 4dad a0bd b1e6 ce3b 58fc de3d 0780 8dbd
00000080: dcca 263d 72c8 f83d 1a4b b5bd 483c 063e
00000090: 9a00 9e3d 582f 81bc 8263 903d 457c de3d
000000a0: 9e67 9abd 9bfb 6c3d 92ee fcbd f981 893d
000000b0: 876f 253d 750f a8bc c3e2 0b3d 1b42 14bd
000000c0: b2e4 b5bd 4df6 063c 4755 d93d a812 c13d
000000d0: 0ea5 b7bc c2b3 9abd 36ed 40bd dfc0 4d3d
000000e0: 2c3c d7bd 6540 9dbd 5385 71bd ddba 97bd
000000f0: 255b 5e3d c1da e7bd 2add 023e a6ac 673d
00000100: cec9 f5bd f360 d7ba 7ded bb3d 3e9b 02be
00000110: 0f41 e33d 3608 d83d 5675 0bbd 0182 f4b8
00000120: 8122 20bd 3c76 f7bd 49fd 023e d5a4 04be
00000130: 38df b13d 9dfa af3d 710d 8b3d 98d6 bc3d
00000140: bbe2 cfbd 6533 c03d 65ca c63c 2747 da3d
00000150: 39e4 f0bd 7804 a7bc 1a57 f5bd cc6e e63d
00000160: d2db ff3d c059 23bd 6f07 d73d 2c96 ae3d
00000170: 40e1 293d 83cf f13d 8109 d33d 6b9a 783d
00000180: ed3d dcbd 4107 0bbe fe4d e8bd 0636 003e
00000190: 600f 01bc 1bf9 16bd 2016 edbd 6096 d93d
000001a0: ca67 0e3d 5848 c1bd 87f9 083e 8a11 a7bd
000001b0: e836 90bd 8f01 ae3d 621f d7bc e943 fabd
000001c0: b2ea 9abc d123 66bd d629 b8bd 4038 823d
000001d0: d71e 6bbd 8434 5f3d 0411 673d 823a b9bd
000001e0: d5f3 9a3d f309 adbd d6ef 4a3d aa0a f43d
000001f0: 6563 fd3d f774 933c 3b96 9bbd c948 a73d
00000200: 2d6e 4139 6707 dfbd bd2b 9cbc 732b 673d
00000210: 5a80 f03d 4931 f4bd 150f 953d c813 3abd
00000220: 5d80 0c3d 7ad3 1dbd 8e23 10be 3488 b5bd
00000230: 1c32 86bd 0dfa 843c b777 d0bd ebfc b2bd
00000240: fd19 a2bc 2eea 25bd 6667 bdbd 6ff0 d03c
00000250: 988c 3f3d 7630 b23d 840a c83d 0943 fabd
00000260: 39c6 13be e325 0ebe 237c 56bd 179b 7c3d
00000270: 022c 07be 0478 bdbd 1974 2b3d 426f 0cbe
00000280: f67b f13c a7a2 0cbe 65db 4e3d 3310 133d
00000290: 55e7 293d e998 bf3d 07e0 13bd 48a5 9f3d
000002a0: 1c61 063e 5422 003e 09e9 e5bd a177 573d
000002b0: eebe 0abd d378 84bd 2a50 65bd 5793 0bbb
000002c0: c033 d43c d2a4 d23d abdb e8bd a621 99bc
000002d0: 4fde f0bc 8c81 d0bd a4d0 313d 38b3 1dbb
000002e0: 4e00 bd3d f8df 99bd 8113 f23d ab40 b8bd
000002f0: 72f4 02be 33b4 84bd bb1b 03be f693 60bc
00000300: 1908 e0bd 5c29 51bd c2fd d1bd f7ba 10bd
00000310: 8ca9 aabd 7ed0 fabc 3ca3 9f3c b9fe 1cbc
00000320: ae7f aab9 0a17 65bd a8d0 96bd 4a4e 1dbd
00000330: db04 993d b8fc 31bd eea8 b13d f9ed 833d
00000340: 64f6 a0bc ba29 5bbd ab67 5f3d 69ab ee3d
00000350: 8bfb 0d3e 468b ebbd 4a9e 513d 2558 223d
00000360: 4172 0c3d 4015 e1bd c18c f83d 6745 c1bd
00000370: d828 0b3e 9a39 e93d 5087 f638 80f0 46bc
00000380: ea9f 6ebd 801c 8ebd 8205 c73d 9fe8 e73d
00000390: 014c 5a3d 2170 fa3d 343b 3c3d cb7b 9d3b
000003a0: caf7 fb3d 3dec 003e e7ce 83bd 87f1 2bbd
000003b0: 814a 3ebc 7a9e ea3d 22a3 a93d 5434 383d
000003c0: 2972 553d 8559 0ebd 7d6f 9f3c b89f 8d3b
000003d0: b506 f73d ae53 01bd bba4 6cbd 04b5 edbd
000003e0: c87e c9bd a16c c43d c3a9 4c3d e56c 133e
000003f0: b046 d3bd 071e ec3d abc8 e5bd 14ff 043e

encoder.model.weight_hh_l1 f4 [192, 48]
-0.008021614 0.039665263 0.072220765 0.023118628 0.054555766 -0.0239546 -0.08930821 -0.1289897
0.0020465783 0.0022261785 -0.11153589 0.08173864 0.028374746 0.092217945 0.08753836 -0.051032588
0.09649062 -0.107902505 -0.07164812 -0.10799898 0.025999509 0.006672823 0.14010538 -0.096163355
-0.1256863 0.13975444 -0.027646659 -0.035519883 0.09573304 0.11895609 0.12052743 -0.10260367
0.0687119 -0.036715984 0.0669628 -0.04634798 0.0036782075 -0.023057632 0.023501314 -0.054482777
-0.07381318 0.046865407 0.14105813 0.06273048 0.10002978 -0.10462528 -0.056153018 -0.14072812
0.066081166 0.14231704 -0.004696137 0.0762102 -0.022970859 -0.1075728 0.14378409 0.07955309
-0.0417833 -0.052607726 -0.09219186 0.019744113 -0.088360466 -0.010531543 0.13028604 0.13431399
-0.08838972 -0.12506281 -0.06003235 -0.12113256 -0.061813552 -0.009162552 -0.13592924 0.02802945
-0.11982842 0.09020193 -0.053997833 -0.014002929 0.054766577 0.12741008 0.008949141 -0.030589448
-0.025216997 -0.056515984 -0.09109644 -0.054993547 0.050795466 0.013886563 0.10221862 0.14278686
-0.009469961 -0.09930763 -0.101281404 0.14030577 0.026924834 -0.05561332 -0.032922495 -0.12421042
-0.109663084 0.1318098 0.11882288 0.056216974 -0.040226344 -0.037664883 0.14289843 -0.1334492
0.041075256 0.044221856 -0.0012017279 -0.0063588237 0.050417338 -0.016524369 -0.0300061 0.03875611
0.01416522 0.1344609 -0.0068965056 -0.043522418 0.1232624 0.022225875 0.11205372 0.12039059
-0.014082733 0.09817056 -0.080787234 -0.09382829 -0.1431171 -0.042317145 0.11740205 -0.1348746
-0.07449851 0.021647122 0.0009510998 -0.024332607 -0.13026643 -0.11139401 -0.13980162 0.040116914
0.09334268 0.05145817 0.113139614 -0.13696273 -0.059370212 -0.12108586 0.115391605 -0.12934163
0.1300991 -0.1419559 -0.10079777 0.033783417 0.12824495 0.03104399 -0.1374616 0.027925573
0.012603191 0.001151382 -0.08969587 -0.086708345 0.124294505 0.059218556 0.056998022 0.021264141
-0.04241498 0.112139165 0.06767991 0.0077012824 -0.047436938 -0.10408684 -0.04502111 0.0159712
0.10900294 -0.0035337943 -0.008431332 -0.09267161 -0.030948717 -0.11179555 0.040086407 -0.012998008
-0.108414985 0.13181485 0.03197924 0.103945404 0.010439351 0.093365595 -0.06302598 0.1401863
0.13480349 -0.048254654 0.088715 0.12203882 0.026813043 -0.074381076 -0.11658964 -0.03700211
0.012298035 -0.14303578 -0.1323549 -0.030312631 -0.06844866 0.01742127 0.12369011 0.0095956875
0.06489298 0.024596432 0.0064775995 -0.07513413 0.04617698 -0.062344268 0.13339385 0.014779935
0.13822141 0.106583945 0.1278832 0.092946686 0.10874207 0.013892826 0.07645945 0.13370475
0.124767646 -0.1404324 -0.062484533 0.0057475325 0.120737076 0.059785575 0.14308885 0.023323987
0.05735416 0.040569544 0.06647175 -0.012854954 -0.085262805 -0.134933 -0.12945238 0.029177854
-0.002011202 -0.13711013 -0.11135819 0.04949721 -0.10541801 -0.010914831 0.10076374 -0.07895568
-0.033806853 -0.027873868 -0.026632875 -0.042066276 -0.005051294 -0.13542022 -0.017123513 -0.01898877
0.011820179 0.006226059 0.045048777 0.09120241 -0.09818586 0.079173654 0.091041446 -0.024381267
00000000: 166d 03bc 0b78 223d 7be8 933d 4763 bd3c
00000010: de75 5f3d 703c c4bc 39e7 b6bd e015 04be
00000020: e31f 063b 14e5 113b ee6c e4bd 9766 a73d
00000030: 2872 e83c c3dc bc3d 5047 b33d 8c07 51bd
00000040: e09c c53d fdfb dcbd 40bc 92bd 922e ddbd
00000050: ecfc d43c b2a7 da3b c977 0f3e 4bf1 c4bd
00000060: e9b3 00be ca1b 0f3e 3f7b e2bc 4c7d 11bd
00000070: af0f c43d 409f f33d 16d7 f63d df21 d2bd
00000080: d3b8 8c3d 8063 16bd cb23 893d 61d7 3dbd
00000090: 150e 713b 5ce3 bcbc d485 c03c 5529 5fbd
000000a0: 5d2b 97bd f1f5 3f3d 8b71 103e d778 803d
000000b0: 6adc cc3d c745 d6bd b500 66bd 081b 10be
000000c0: 9055 873d 8fbb 113e 0de2 99bb 1814 9c3d
000000d0: 622d bcbc 214f dcbd 233c 133e bbec a23d
000000e0: f724 2bbd 337b 57bd 16cf bcbd 68be a13c
000000f0: 55f6 b4bd 7e8c 2cbc b469 053e 9b89 093e
00000100: ab05 b5bd 7710 00be 7be4 75bd 5914 f8bd
00000110: 3530 7dbd 871e 16bc 0931 0bbe 049e e53c
00000120: 9a68 f5bd cabb b83d d52c 5dbd 8b6c 65bc
00000130: eb52 603d ca77 023e 6b9f 123c b996 fabc
00000140: e093 cebc 4e7d 67bd c590 babd ea40 61bd
00000150: e80e 503d 7784 633c ff57 d13d b836 123e
00000160: e527 1bbc cc61 cbbd a06c cfbd 51ac 0f3e
00000170: 7891 dc3c cbca 63bd bdd9 06bd 0862 febd
00000180: 0a97 e0bd 26f9 063e 6959 f33d c543 663d
00000190: 61c4 24bd 7e46 1abd f753 123e e8a6 08be
000001a0: 873e 283d fa21 353d 4c83 9dba ae5d d0bb
000001b0: 6982 4e3d 1d5e 87bc 5acf f5bc babe 1e3d
000001c0: 3d15 683c 1eb0 093e 15fc e1bb 9044 32bd
000001d0: ff70 fc3d 0a13 b63c 6c7c e53d 578f f63d
000001e0: 43bb 66bc a60d c93d c773 a5bd 0c29 c0bd
000001f0: 4a8d 12be be54 2dbd 7c70 f03d 911c 0abe
00000200: ad92 98bd 4e55 b13c 3a53 793a 2d55 c7bc
00000210: 9064 05be 8b22 e4bd 2828 0fbe a251 243d
00000220: 722a bf3d cdc5 523d beb5 e73d f53f 0cbe
00000230: 2e2e 73bd ddfb f7bd 6f52 ec3d 2272 04be
00000240: b338 053e e35c 11be 106f cebd 7b60 0a3d
00000250: a552 033e f74f fe3c bcc2 0cbe 2cc4 e43c
00000260: 9d7d 4e3c f8e9 963a 78b2 b7bd 2594 b1bd
00000270: 1e8e fe3d 288f 723d c276 693d 2332 ae3c
00000280: 54bb 2dbd 38a9 e53d c49b 8a3d 0a5b fc3b
00000290: 3c4d 42bd 7b2b d5bd 0e68 38bd 09d6 823c
000002a0: ef3c df3d 3b97 67bb 9223 0abc 9dca bdbd
000002b0: 2a88 fdbc 11f5 e4bd a531 243d 99f5 54bc
000002c0: ad08 debd 79fa 063e aafc 023d 54e1 d43d
000002d0: d009 2b3c 7636 bf3d c413 81bd ff8c 0f3e
000002e0: ed09 0a3e aca6 45bd 36b0 b53d 7def f93d
000002f0: 07a7 db3c 1b55 98bd 8dc6 eebd 868f 17bd
00000300: b37d 493c f977 12be 0b88 07be 3252 f8bc
00000310: d02e 8cbd 0db7 8e3c 3e51 fd3d 3b37 1d3c
00000320: 9ce6 843d 757e c93c 0b42 d43b ecdf 99bd
00000330: 1324 3d3d b45c 7fbd 6698 083e 8a27 723c
00000340: ea89 0d3e af48 da3d d0f3 023e d55a be3d
00000350: 2ab4 de3d bc9e 633c c696 9c3d e6e9 083e
00000360: 2e86 ff3d 83cd 0fbe c8ef 7fbd cc55 bc3b
00000370: 0045 f73d b8e1 743d e285 123e f211 bf3c
00000380: 32ec 6a3d 402c 263d 5722 883d 969d 52bc
00000390: 449e aebd e02b 0abe 2a8f 04be 6506 ef3c
000003a0: 5fce 03bb 9966 0cbe c30f e4bd 96bd 4a3d
000003b0: 66e5 d7bd 1fd4 32bc 385d ce3d 84b3 a1bd
000003c0: 0e79 0abd bd57 e4bc 302d dabc b04d 2cbd
000003d0: 5385 a5bb 99ab 0abe 9c46 8cbc 568e 9bbc
000003e0: 6da9 413c f803 cc3b 1185 383d 54c8 ba3d
000003f0: ab15 c9bd cc25 a23d f073 ba3d 39bb c7bc

encoder.model.bias_ih_l1 f4 [192]
-0.041183706 -0.040117946 0.06380685 0.06965892 -0.113649525 0.13840014 -0.094463 0.07026085
-0.0006398192 0.008400085 0.018370114 -0.118570946 0.054158073 -0.063419305 0.057034843 -0.003931038
0.088501215 -0.004046992 0.0039226585 0.07913569 -0.06879759 -0.077178486 0.09160497 0.0022460863
0.01390709 -0.115907915 -0.120939076 -0.09144639 -0.11635342 0.14421786 -0.08631313 -0.13557303
0.022580516 -0.08042542 0.03588163 -0.06449964 0.0848447 0.07532228 0.07692006 -0.036953054
-0.044263855 0.07375805 0.14037019 0.047082055 -0.019624803 -0.09024637 0.09990768 0.11426037
-0.07885578 -0.0034042303 0.060695086 -0.025599737 0.09236167 0.06478621 0.02054593 0.059831
-0.0023447992 0.085690826 0.056097697 0.097139284 0.099900216 -0.12230112 0.05728086 -0.014012565
0.0802335 0.05516967 -0.028799744 -0.14361994 0.04829135 -0.061728057 -0.13407984 0.03686191
-0.024818256 0.02134964 0.07854598 0.11022616 0.14180824 0.04885987 0.017641114 0.010782894
0.056659814 -0.05622618 -0.006209472 0.078201994 0.016642973 0.13363326 -0.04484624 -0.03119021
0.010922885 0.069822796 -0.10231895 0.08911452 -0.030590326 -0.099463604 -0.13043062 0.07185671
0.035141274 -0.12413929 -0.069827594 0.052927166 0.023287784 0.012147496 0.0342515 -0.01605374
-0.14251594 -0.052233472 0.116339795 0.06104799 -0.07331382 -0.018388508 0.08408279 -0.016502311
0.012663258 0.10175532 -0.05110998 -0.0049497415 -0.07610664 -0.09370341 -0.10569503 -0.10487043
-0.046978574 0.13591404 0.14418945 0.123113655 0.07590291 0.078329265 0.05907418 0.0755992
0.03600846 -0.031483404 -0.031681657 -0.059893616 0.12204868 0.12616637 -0.03916349 0.004146806
-0.14100412 -0.089389324 0.041719653 -0.10760012 -0.06812002 -0.030120436 -0.0847876 -0.05002999
-0.016043864 0.06491216 0.03943769 -0.12308187 -0.08144653 -0.066369526 0.1249935 -0.10896323
0.06507547 0.064486444 0.08054648 0.06925487 -0.00500346 -0.085440576 0.112129994 -0.06382804
0.058346745 -0.098286726 -0.02126808 0.09789853 0.008551914 0.040307973 0.024161523 -0.045233693
-0.05224373 -0.06724779 -0.0015416743 0.10681589 -0.02171211 -0.03521929 0.14155304 -0.031865127
-0.04083101 0.00010117351 -0.0984423 -0.03266817 0.006544446 -0.013074129 -0.0214573 0.14269802
0.09824314 -0.019150304 0.13500248 0.07662579 0.023082701 0.017678006 -0.1281603 -0.12509662
00000000: 3fb0 28bd b752 24bd 2aad 823d 56a9 8e3d
00000010: 15c1 e8bd c4b8 0d3e d175 c1bd ece4 8f3d
00000020: 8ab9 27ba 83a0 093c ec7c 963c 53d5 f2bd
00000030: dbd4 5d3d fbe1 81bd 5e9d 693d f0cf 80bb
00000040: 2040 b53d a19c 84bb a589 803b e511 a23d
00000050: c0e5 8cbd c10f 9ebd 639b bb3d 1333 133b
00000060: 90da 633c 2161 edbd e8ae f7bd 3f48 bbbd
00000070: b44a eebd d9ad 133e f0c4 b0bd a8d3 0abe
00000080: c6fa b83c 15b6 a4bd 9ef8 123d 6318 84bd
00000090: 0fc3 ad3d 9142 9a3d 4488 9d3d 165c 17bd
000000a0: 044e 35bd 760e 973d 34bd 0f3e 1dd9 403d
000000b0: 32c4 a0bc 17d3 b8bd 669c cc3d 5701 ea3d
000000c0: 247f a1bd 8219 5fbb 699b 783d 8ab6 d1bc
000000d0: 1e28 bd3d a2ae 843d f04f a83c 5a11 753d
000000e0: 34ab 19bb ac7e af3d b3c6 653d f6f0 c63d
000000f0: 7c98 cc3d 0279 fabd 569f 6a3d f594 65bc
00000100: 7651 a43d 98f9 613d 71ed ebbc 1b11 13be
00000110: 27cd 453d 8fd6 7cbd 3a4c 09be 84fc 163d
00000120: a84f cbbc 71e5 ae3c b7dc a03d 41be e13d
00000130: 2e36 113e 4921 483d 1984 903c bcaa 303c
00000140: 1f14 683d 6c4d 66bd d478 cbbb 5e28 a03d
00000150: d856 883c 28d7 083e b1b0 37bd 9c82 ffbc
00000160: e6f5 323c 41ff 8e3d 998c d1bd ac81 b63d
00000170: 9098 fabc 93b3 cbbd 9b8f 05be 9c29 933d
00000180: 4cf0 0f3d bd3c febd c501 8fbd 28ca 583d
00000190: 06c6 be3c 4b06 473c 4d4b 0c3d 2283 83bc
000001a0: b3ef 11be c4f2 55bd 8f43 ee3d 750d 7a3d
000001b0: 8e25 96bd 7fa3 96bc 9933 ac3d db2f 87bc
000001c0: 8e79 4f3c 1865 d03d b358 51bd 7131 a2bb
000001d0: ccdd 9bbd 93e7 bfbd a376 d8bd 4fc6 d6bd
000001e0: 9b6c 40bd 0d2d 0b3e 66a6 133e 0323 fc3d
000001f0: fc72 9b3d 186b a03d c4f7 713d c1d3 9a3d
00000200: 9b7d 133d bef4 00bd a0c4 01bd 0253 75bd
00000210: a9f4 f93d c231 013e e569 20bd eee1 873b
00000220: 6263 10be c011 b7bd 3ae2 2a3d 745d dcbd
00000230: 8282 8bbd 22bf f6bc 1fa5 adbd 3fec 4cbd
00000240: 6c6e 83bc abf0 843d 6a89 213d 5912 fcbd
00000250: 70cd a6bd bfec 87bd 98fc ff3d 1d28 dfbd
00000260: 4a46 853d 7811 843d 8ef5 a43d 7fd5 8d3d
00000270: 11f4 a3bb 78fb aebd 69a4 e53d 47b8 82bd
00000280: fffc 6e3d 8d4a c9bd 663a aebc 067f c83d
00000290: 541d 0c3c f919 253d 63ee c53c f746 39bd
000002a0: 85fd 55bd 36b9 89bd 0112 caba 4ac2 da3d
000002b0: 98dd b1bc 1a42 10bd 48f3 103e 0285 02bd
000002c0: 6b3e 27bd 1d2d d438 1e9c c9bd 0fcf 05bd
000002d0: cb72 d63b df34 56bc 38c7 afbc 6e1f 123e
000002e0: b333 c93d 19e1 9cbc 173e 0a3e fbed 9c3d
000002f0: ef17 bd3c 77d1 903c 743c 03be 5419 00be

encoder.model.bias_hh_l1 f4 [192]
0.086562455 0.1005325 -0.029213179 -0.059214305 -0.08732781 0.14258578 -0.11654717 0.0019226407
-0.12723887 0.116432756 0.110686414 0.12462349 0.009273773 -0.13030109 0.12814541 0.059621874
0.050723527 -0.011274893 -0.06874325 0.014437425 0.11563283 -0.05840984 -0.00420665 0.025224913
0.04668471 0.008607473 0.04966048 -0.06350418 -0.10602727 -0.059188653 0.12250217 -0.047921296
-0.020332312 0.13726662 -0.11268779 -0.0895023 0.14012216 -0.062469598 -0.06133826 0.12001592
-0.09848812 0.012874466 -0.070240185 -0.044014707 0.011460653 0.13606581 0.04263909 -0.05157075
-0.10819727 0.02187058 -0.06600916 0.14331384 0.10931276 0.12810227 0.059243713 0.0023962806
-0.04545192 0.12130096 -0.13287742 0.04970379 -0.1410974 0.13097963 0.02720836 0.05703357
0.12161695 0.13009949 0.09037912 0.007959895 -0.054999106 0.03913042 0.08980193 0.06806534
0.0030454947 -0.114127725 0.03674553 -0.104871705 0.005620343 -0.0981302 0.04513417 -0.021985227
0.1344088 -0.118862234 -0.08478605 -0.08159838 -0.005123027 0.03931508 -0.14030834 0.11900128
-0.05923081 0.12710948 0.14190242 0.14375824 0.02706221 -0.12753578 0.0388885 -0.09127996
0.046672456 0.051917665 0.14306162 0.056059845 -0.025095038 -0.010011841 -0.030385502 0.06016107
0.096809834 0.1260926 -0.0076462566 -0.058139183 -0.028451366 -0.07101996 0.018748758 0.06763779
-0.06983897 0.13709189 0.14337248 -0.050381135 0.06890802 0.077920735 0.03705003 0.03636666
-0.0986808 -0.038493834 0.053802848 0.10728007 -0.047096267 -0.11803665 -0.061685316 0.12312635
0.04665921 0.10813918 -0.046100758 -0.09466662 -0.026691101 -0.09586334 0.095843606 0.037276674
0.021598788 -0.03280986 0.0102837365 -0.07401203 0.00931734 0.009597976 -0.03264551 -0.07554283
-0.06462885 -0.049286675 0.05691977 0.018217994 -0.073289484 -0.09577115 -0.05239683 -0.058510996
-0.07425521 -0.08756983 0.051732026 -0.016130911 0.05509849 0.13215609 -0.060453285 -0.05326778
-0.09978567 -0.123652846 -0.018587053 0.097020455 -0.13915016 0.07895628 -0.12196215 0.051742885
-0.14113086 -0.11712523 -0.1060207 -0.09818116 0.083478294 -0.07923413 0.14170748 0.05604792
-0.034807574 0.036831215 0.0489794 -0.00426171 0.03708828 0.13653676 -0.10699794 0.037601702
-0.14362839 -0.029820994 -0.021616304 -0.04495058 0.06758015 -0.091662094 0.04964751 0.06010446
00000000: a847 b13d fce3 cd3d 7a50 efbc b38a 72bd
00000010: ecd8 b2bd 0202 123e 48b0 eebd 1e01 fc3a
00000020: e84a 02be 4c74 ee3d 8faf e23d 9a3a ff3d
00000030: 06f1 173c a66d 05be 8d38 033e 1136 743d
00000040: 79c3 4f3d 54ba 38bc 43c9 8cbd f38a 6c3c
00000050: e8d0 ec3d 283f 6fbd f0d7 89bb 7aa4 ce3c
00000060: 7738 3f3d 5c06 0d3c ca68 4b3d 7b0e 82bd
00000070: d324 d9bd cd6f 72bd 6be2 fa3d 1f49 44bd
00000080: f38f a6bc 9f8f 0c3e dbc8 e6bd fb4c b7bd
00000090: 2f7c 0f3e 1fe0 7fbd d43d 7bbd e8ca f53d
000000a0: 24b4 c9bd 6def 523c 16da 8fbd c448 34bd
000000b0: 76c5 3b3c d654 0b3e 54a6 2e3d da3b 53bd
000000c0: 8896 ddbd ee29 b33c cf2f 87bd ddc0 123e
000000d0: 5edf df3d 3e2d 033e 89a9 723d eb0a 1d3b
000000e0: cb2b 3abd a36c f83d 0511 08be 3496 4b3d
000000f0: d67b 10be 861f 063e 11e4 de3c 089c 693d
00000100: 4f12 f93d cd38 053e b018 b93d 386a 023c
00000110: be46 61bd 3847 203d 13ea b73d d765 8b3d
00000120: ec96 473b ccbb e9bd 7b82 163d fac6 d6bd
00000130: db2a b83b 7cf8 c8bd 9cde 383d 5d1a b4bc
00000140: 76a2 093e 0b6e f3bd 4fa4 adbd 0d1d a7bd
00000150: 11df a7bb d908 213d fdac 0fbe f1b6 f33d
00000160: 019c 72bd fd28 023e de4e 113e 5c35 133e
00000170: 91b1 dd3c bd98 02be 8c49 1f3d fdf0 babd
00000180: 9e2b 3f3d 9ea7 543d bf7e 123e 029f 653d
00000190: 1c94 cdbc b408 24bc 04eb f8bc 746b 763d
000001a0: 3c44 c63d 6b1e 013e 738d fabb 5a23 6ebd
000001b0: d712 e9bc ea72 91bd ff96 993c af85 8a3d
000001c0: bc07 8fbd d161 0c3e 3cd0 123e 735c 4ebd
000001d0: a61f 8d3d e894 9f3d c6c1 173d 35f5 143d
000001e0: 2919 cabd b6ab 1dbd 6060 5c3d a7b5 db3d
000001f0: 04e8 40bd 33bd f1bd bea9 7cbd ab29 fc3d
00000200: ba1d 3f3d 1378 dd3d 26d4 3cbd 93e0 c1bd
00000210: 4ca7 dabc 0054 c4bd a749 c43d 6daf 183d
00000220: f1ef b03c a263 06bd 1e7d 283c 9f93 97bd
00000230: c2a7 183c d440 1d3c 4cb7 05bd 33b6 9abd
00000240: 215c 84bd d3e0 49bd b424 693d e73d 953c
00000250: cc18 96bd aa23 c4bd 0f9e 56bd 3aa9 6fbd
00000260: 1e13 98bd d057 b3bd f6e4 533d f924 84bc
00000270: f4ae 613d ed53 073e dd9d 77bd 512f 5abd
00000280: 6e5c ccbd b43d fdbd e043 98bc a9b2 c63d
00000290: 617d 0ebe d5b3 a13d 4bc7 f9bd 59f0 533d
000002a0: 9c84 10be 5adf efbd 6121 d9bd 3413 c9bd
000002b0: abf6 aa3d 8145 a2bd c41b 113e 8192 653d
000002c0: 6392 0ebd 54dc 163d a09e 483d d1a5 8bbb
000002d0: e1e9 173d 4bd0 0b3e bc21 dbbd 3e04 1a3d
000002e0: 5213 13be 284b f4bc ad14 b1bc 191e 38bd
000002f0: 7667 8a3d 56b9 bbbd 305b 4b3d 1830 763d

lmbd.hidden_to_mean.weight f4 [2, 48]
-0.13171221 0.114438444 0.54556054 0.122505575 0.1262277 0.08648071 -0.028384533 0.10248527
0.0031226377 0.088705294 0.08035699 -0.03318022 0.23814389 -0.38708663 -0.7231355 0.08286845
0.1257565 0.06858485 0.08087588 -0.22454347 -0.16239719 -0.32175744 0.4654272 -0.10311362
-0.012441991 -0.33600715 0.05090242 0.15870436 0.74001974 -0.3092693 0.12558803 -0.5688916
0.20295902 0.31581402 0.123007126 0.11662392 -0.07498057 -0.19279176 -0.42021114 -0.45881245
-0.06582033 -0.34021503 0.3091424 -0.044437878 -0.26046106 0.18875855 -0.3434439 0.09261313
0.18458112 0.03402379 -0.14613 -0.13266431 0.2722185 -0.029120505 0.2894578 -1.0814846
0.08735757 -0.09400671 -0.13872956 -0.16014276 1.5691527 -0.016436758 0.10851692 0.3186381
0.5708972 0.58246934 -0.20127039 0.06732694 -0.16550039 -0.15028925 -0.03688386 0.661325
-0.15935393 -0.47265917 0.12784229 0.671758 0.4219601 -0.29769978 -0.40208906 0.4295766
0.064749755 0.011095207 0.0898216 -0.41675413 -0.12198717 -0.33913437 -0.24503157 -0.0143847605
0.057489783 0.5745111 0.19217652 -0.3712028 0.046915714 0.29588598 0.10285154 -0.0025170997
00000000: 91df 06be b45e ea3d dba9 0b3f 34e4 fa3d
00000010: d641 013e cc1c b13d ae86 e8bc cce3 d13d
00000020: 2ba5 4c3b 1fab b53d 3592 a43d fbe7 07bd
00000030: fedb 733e 3830 c6be 681f 39bf efb6 a93d
00000040: 50c6 003e 3776 8c3d 41a2 a53d b9ee 65be
00000050: 734b 26be 64bd a4be 794c ee3e 3c2d d3bd
00000060: 7ed9 4bbc 2109 acbe 0e7f 503d 6583 223e
00000070: ef71 3d3f 8c58 9ebe 269a 003e e1a2 11bf
00000080: 7dd4 4f3e 60b2 a13e 29eb fb3d 86d8 ee3d
00000090: 6a8f 99bd 346b 45be ea25 d7be 77e9 eabe
000000a0: cfcc 86bd aa30 aebe ea47 9e3e 7e04 36bd
000000b0: 275b 85be ec49 413e e1d7 afbe f4ab bd3d
000000c0: d502 3d3e 885c 0b3d 1aa3 15be 27d9 07be
000000d0: 3960 8b3e 208e eebc d033 943e 166e 8abf
000000e0: 87e8 b23d 9786 c0bd 1f0f 0ebe 77fc 23be
000000f0: ffd9 c83f 61a6 86bc 1e3e de3d 8824 a33e
00000100: 5226 123f b61c 153f d319 4ebe b5e2 893d
00000110: ef78 29be 6de5 19be 8813 17bd 984c 293f
00000120: ad2d 23be 6200 f2be 17e9 023e 55f8 2b3f
00000130: 270b d83e 1b6c 98be 9ede cdbe 77f1 db3e
00000140: 859b 843d acc8 353c 63f4 b73d cc60 d5be
00000150: 69d4 f9bd 05a3 adbe 8ee9 7abe 0fae 6bbc
00000160: 687a 6b3d 2913 133f ecc9 443e 4b0e bebe
00000170: b12a 403d 5e7e 973e d4a3 d23d edf5 24bb

lmbd.hidden_to_mean.bias f4 [2]
-0.16773346 -0.15184501
00000000: 52c2 2bbe 427d 1bbe

lmbd.hidden_to_logvar.weight f4 [2, 48]
-1.2872378 -0.10266691 0.7846346 2.098643 0.24460156 0.82959735 -0.72296804 -0.5031488
-1.3060662 -0.83679825 -0.8521637 -0.3573007 1.0268553 0.42518228 -0.7026005 0.33399728
-0.84481364 -0.5874529 -2.095521 0.016182043 0.72420776 1.508215 0.4535432 -0.3987302
-1.3766217 0.5076568 -0.6266554 -0.31746185 0.32759127 -0.20801756 -0.18301313 1.1592573
-0.90421075 0.57214975 0.9422988 0.5189145 0.41621372 -0.46400794 0.8304199 -0.49741355
0.8185647 -0.28037825 1.0027041 0.7565242 0.9143715 -0.92061096 -0.7496915 -1.1054865
-1.3253249 -0.62869215 -1.0042833 2.1511297 -0.15571512 1.5374331 -0.3140412 -0.7227198
-0.9654332 -1.0074458 -0.82193035 -1.4684955 0.17408305 -0.11114166 -0.3859793 0.70930815
-0.56740797 -1.3498647 -1.8956139 1.4901702 0.8904107 1.6984395 1.3241374 0.61594766
-1.0014788 0.51931787 -0.33676195 -1.814943 0.9225688 -0.7275393 0.345031 0.6312087
-1.4333502 0.3697569 0.7975947 -0.22877513 0.29430827 -0.19056275 1.9274144 -0.043843385
0.62631345 0.121376805 1.1425252 0.82044226 1.221048 -0.6735302 -0.5738077 -1.2019612
00000000: 35c4 a4bf 0743 d2bd d0dd 483f 2b50 0640
00000010: d578 7a3e 7e60 543f 6f14 39bf 5cce 00bf
00000020: 2d2d a7bf 6938 56bf 6627 5abf 1ef0 b6be
00000030: ff6f 833f 7eb1 d93e a0dd 33bf b101 ab3e
00000040: b545 58bf 5063 16bf 041d 06c0 3490 843c
00000050: ae65 393f 300d c13f d036 e83e 5d26 ccbe
00000060: 2435 b0bf ccf5 013f 7d6c 20bf 5c8a a2be
00000070: 0bba a73e 8e02 55be cb67 3bbe 8b62 943f
00000080: 5b7a 67bf 6878 123f 7f3a 713f 95d7 043f
00000090: f719 d53e 7392 edbe 6696 543f fdac febe
000000a0: 758d 513f bd8d 8fbe 9c58 803f 92ab 413f
000000b0: 4014 6a3f 29ad 6bbf c8eb 3fbf 9580 8dbf
000000c0: 3fa4 a9bf f8f1 20bf 5b8c 80bf 1cac 0940
000000d0: c973 1fbe 9cca c43f 02ca a0be 2a04 39bf
000000e0: a126 77bf fcf3 80bf 076a 52bf a9f7 bbbf
000000f0: d442 323e 3d9e e3bd 149f c5be 3895 353f
00000100: a641 11bf 5ec8 acbf 7aa3 f2bf e6bd be3f
00000110: f5f1 633f 7766 d93f 567d a93f bfae 1d3f
00000120: 7530 80bf 04f2 043f 106c acbe 0d50 e8bf
00000130: 782d 6c3f 0440 3abf e7a7 b03e e596 213f
00000140: 0578 b7bf c750 bd3e 2b2f 4c3f 0744 6abe
00000150: 93af 963e e222 43be 84b5 f63f 1f95 33bd
00000160: 1456 203f 6794 f83d 443e 923f 8108 523f
00000170: 4d4b 9c3f 7a6c 2cbf 10e5 12bf ddd9 99bf

lmbd.hidden_to_logvar.bias f4 [2]
-1.5881107 -1.8665366
00000000: 3647 cbbf acea eebf
