trajectory_inference/RVAgene/models/microglia_trained_100_epochs.pt (torch, 234887 bytes, 23 tensors)

encoder.model.weight_ih_l0 f4 [192, 1]
00000000: 69ba 80bd ea9d 313e 41d5 c33d 14bb 7dbd
00000010: 1fa5 353e 2113 56bd 23e1 07bd d392 9d3d
00000020: 3b8f 813e da8f 603d 6bca 333e c421 04bd
00000030: bfac f8bd e23c b63d 6de1 42b9 62bb 31be
00000040: e812 803e 903c eebd de61 703e 13e1 2fbe
00000050: 350b 5dbd 0823 1d3e 4556 593e 3284 74bc
00000060: 254e d9bd 87fb 86be 1bae af3d 41a0 733e
00000070: 9a9c 753e b062 093c 57f3 be3d 4973 79bd
00000080: ffaf 2a3d 0007 52be 06a1 b4bd 2045 5f3e
00000090: bdd1 1a3e 5486 c7bc 61da 2bbe 853f 34bc
000000a0: 2b05 0fbd 0f51 743d 0324 83be 8517 3a3e
000000b0: 3b09 c33d 4a92 323e cc6f 16be 6185 cabc
000000c0: cca1 b1bd a3e1 86be 907a 29be 34f2 84be
000000d0: c8f9 bdbd 7803 62be a383 98be 816e 86be
000000e0: aa55 c13d 1abd 8bbe 2a2f e8be 34a0 453e
000000f0: 9b40 e5bd e3e2 7bbd 5267 60be 409d 85bd
00000100: 7d9d c13b 1719 ebbd 80bd a73d 2ba6 4cbe
00000110: ebc4 56be 3c11 f83c da91 4ebd 5357 88be
00000120: e341 ebbd 800d 1ebe 3a8c 9cbd 6127 8d3c
00000130: 257b a9bd 66e7 f93c 8e3d 683d 8c03 9ebe
00000140: 1185 4dbe 5bbd 83be 0455 08bd cde8 0c3d
00000150: e145 2dbd 9eea babd ab1c 1ebe 85c6 ff3d
00000160: 414e c6be 096a 54be c376 e6be 8a57 1ebe
00000170: bca5 233d 05af d43d c911 11be 0b4b 4c3d
00000180: ae8c aabb 5713 523c 0a25 8cbe 42fd fabd
00000190: d78f 9ebe 8545 833e 6e42 10be febd 94be
000001a0: 1b32 30be 565f b33e 26f1 9f3d 9484 85bd
000001b0: ba82 8cbd eb59 febb 846c a13e 44af 59be
000001c0: 5254 61be 3db8 f8bd e2d3 82be 3590 15be
000001d0: 510e 013e 0708 bd3d cbb7 7e3e a201 8fbc
000001e0: 03bb 5abe 5b0b bfbd 8425 873e 9beb 72be
000001f0: 4758 143d 793f a23e 8cb1 f13d e424 1f3e
00000200: 2e87 6f3e 42f0 3ebe 6d36 74be ff85 fa3d
00000210: f10a 92be 04f5 43be 6e3a 9abe 6d66 3abe
00000220: 917c f43d f5f9 4ebe 3c21 51be 3f69 eb3d
00000230: dc15 6ebe f6fe a3be cc84 063b 6c62 373d
00000240: 2931 22be 1da7 b6bc fd0a 543d f176 9ebd
00000250: 21f4 373e 40b7 15be 558c 053d 2fc6 fcbc
00000260: fa01 7b3e 0296 3ebd 991b 063e 6e30 113d
00000270: 99d1 11be 5292 093c 88ca 083e 8380 c53d
00000280: da54 c53a d0f4 2fbe 38b0 083d 7df4 fcbd
00000290: 73da 0dbe f5dd 6b3e b5a9 153b 5f82 f9bc
000002a0: 2abe 07bd 2442 6dbe 2b5d 543e a5c2 953e
000002b0: 769f 08bd eeaa a43c d00d 87bd 41ad d0bd
000002c0: 7f67 93bd ee27 2dbe 3f3e 20be 5683 753d
000002d0: f28d 0d3d 6dd2 17bd 3495 5fbc 8600 133e
000002e0: 8c8d e6bd 21dc 6abe d55a ccbe c72f cabc
000002f0: 00f1 9cbd 41c1 123e ab40 9fbe 48c2 20be
-0.06285555 0.17345396 0.09562159 -0.06194599 0.1773877 -0.052264336 -0.03317369 0.0769402
0.2530459 0.054824688 0.17557685 -0.032258764 -0.12142324 0.08898331 -0.0001858526 -0.17356637
0.25014424 -0.11632645 0.23474833 -0.17175703 -0.053965766 0.15345395 0.21224315 -0.014924096
-0.10610608 -0.26363775 0.0857813 0.23791601 0.2398552 0.008385345 0.09323757 -0.06090096
0.04167175 -0.20510483 -0.08819775 0.21803713 0.15119071 -0.024356045 -0.16782524 -0.011001472
-0.034917038 0.059647616 -0.25613412 0.18173034 0.09523245 0.17438617 -0.14691085 -0.024721803
-0.086734384 -0.26344022 -0.1655066 -0.25966036 -0.092761576 -0.22071636 -0.2978793 -0.26256183
0.09440167 -0.2729271 -0.45348483 0.19299394 -0.11193963 -0.061495673 -0.21914414 -0.06524134
0.0059086666 -0.11479395 0.08190441 -0.19985263 -0.20973556 0.030281655 -0.050432064 -0.26629123
-0.11487176 -0.15434837 -0.076439336 0.017230691 -0.08275441 0.030505847 0.056699328 -0.3086208
-0.20070292 -0.25730404 -0.033284202 0.034401704 -0.04230297 -0.09126781 -0.15440623 0.124890365
-0.38731578 -0.20743574 -0.45012483 -0.15463081 0.03995298 0.10384945 -0.14166941 0.049876254
-0.0052047586 0.012821994 -0.2737201 -0.12255336 -0.30969116 0.25638977 -0.14087841 -0.29051203
-0.17206614 0.35033673 0.07809667 -0.06519428 -0.068608716 -0.007762184 0.31528103 -0.21258265
-0.22004822 -0.12144516 -0.2555228 -0.14605792 0.12603118 0.09230047 0.24874799 -0.017456833
-0.21360402 -0.09328338 0.2639581 -0.23722689 0.036217 0.3168905 0.118014425 0.15541416
0.2339141 -0.18646339 -0.23848887 0.12232589 -0.28523973 -0.19136435 -0.30122703 -0.18203135
0.11937822 -0.20212539 -0.20422834 0.114946835 -0.23250526 -0.32030457 0.002052593 0.044771597
-0.15839066 -0.022296483 0.05176829 -0.0773753 0.17964222 -0.14620686 0.032604534 -0.03085622
0.24512473 -0.046529777 0.13096465 0.035446577 -0.14240111 0.008396702 0.1335851 0.09643652
0.0015055195 -0.17183232 0.03337118 -0.1235132 -0.13852863 0.23033889 0.002283675 -0.030457674
-0.03314034 -0.23169762 0.20738666 0.29250064 -0.0333552 0.020101037 -0.065944314 -0.101892956
-0.07197475 -0.16909763 -0.15648745 0.059939705 0.034559198 -0.037065912 -0.013646413 0.14355668
-0.11257467 -0.22935535 -0.3991305 -0.024680985 -0.076631546 0.14331533 -0.31104025 -0.15699112

encoder.model.weight_hh_l0 f4 [192, 48]
00000000: 7ba7 15bd f11c 1a3e 0853 cc3d c706 a03c
00000010: d310 3f3e 5671 d83d 751f 8c3b d7a4 adbd
00000020: 85f1 e33d 4ee4 053e bda6 383e 275d a4bb
00000030: 0426 9d3d dd27 ebbd 6026 4e3e 6f58 91bd
00000040: adc2 38bd bf31 9b3d e971 99bd 407e f9bb
00000050: 31f1 b43c 3b5e b93c 12b4 83bd 9c17 0abe
00000060: dea0 cfbd 733e 41be 88a3 2a3e 324c 06be
00000070: 0cea 70bc 7414 213e 6986 1ebd c74e 513e
00000080: e8a5 1bbc 0c8d 62be 69d9 eebd bfd6 c8bd
00000090: f6c1 933d b6d7 c1bd 8d92 f6bd 55eb 903c
000000a0: 83a2 493e 45c0 cdbd d660 3d3d fa92 463c
000000b0: 2d08 cebd 9a65 8f3c cd4f 0bbc 1dd5 0a3d
000000c0: b289 233e bad7 75bc a50c 673d d737 0a3d
000000d0: be31 203d fcbe 2ebe 777c 7d3d 1075 3e3e
000000e0: 5b61 4ebd 46c6 423d bbb2 3fbd 49de 013d
000000f0: 7fa2 913a 0779 97bd 4c56 2bbe a1f7 afbd
00000100: e925 93bd dd4f 143e bbb7 b03a 67f8 6c3c
00000110: c692 2e3d 21d0 453a de41 f8bd 3651 2d3e
00000120: 626e a33d 8b50 073e 7c6a d9bd 0c4f cb3c
00000130: 8bf4 2ebd 36e8 37be 663b 47bd 4e60 8d3d
00000140: 5a1a 5abe 122c 43bd 3c4c 203e 6ee3 9abd
00000150: 62ed 8bbc f974 94bd 999a 053e 6e0e 06be
00000160: 6139 b83d 1fae 4bbd 1293 cc3c 0af5 1abe
00000170: 22f2 62bd eb55 0a3d 55ee 723d 961c 213d
00000180: 4548 67bd 584c f4bd e082 d9bd 8dd4 313d
00000190: 915f 70be 2a55 9abd c88f 88bd 332c 383c
000001a0: 7ba8 0fbe 2978 073e fa25 a9bd e319 62be
000001b0: a898 dd3d 5504 9fbb a34e 553d 7aef 82bd
000001c0: 2cf6 5cbe 80f4 0e3d 6028 48be 4f1d 283e
000001d0: 8f28 4d3e 49a7 413e 3d50 893d ec0a 373e
000001e0: 9597 1a3d 389f f73d b68e 0e3e 73a8 5cbe
000001f0: 0786 69bc 6f88 983d 210e fabb 08f3 a0bd
00000200: e9c5 e8bc cfb1 233e 0031 363e a482 373e
00000210: 4dcd 35bd 4714 bebd 9afd 2abc 4c98 59be
00000220: 7549 16bd 6955 7fbe e597 003e fbf3 f03d
00000230: ca39 9f3d 7764 39be 5605 df3c 3932 8d3e
00000240: b15f cebc 0c6e d7bd 7fdc d5bd a357 4ebd
00000250: 128b 243e 1d74 34be 5921 be3d 6fdd fdba
00000260: 04bd 46bd 124c 6cbe 28e0 923d 745a 32be
00000270: 04e9 34bd b2bd 09bd 157d 6bbb 0068 0e3e
00000280: b77a 7dbc 6370 b33d b91b 29bd c49c b93d
00000290: 4c9a bcbc fc86 f83d 3298 8abd 0ff7 ca3b
000002a0: 9d8b 4a3e 1ec4 0b3e 6ebc ebbd 1100 5a3d
000002b0: e8f2 dabc b461 80bd e59c 47be 5856 e93c
000002c0: fc8c 83be 658a 263e fc72 793c c869 2c3c
000002d0: 767e a33c 322e e93d 7119 eebc cd91 4abd
000002e0: c970 153d fedd 28be 9ce7 8b3b 5afb 9bbd
000002f0: a62a 4f3d ff7f e13c fbde 533c 77ce 01bd
00000300: fe29 6fbd 76f6 96be b3ec 17be 9f96 59bd
00000310: c99d db3c 3068 693d c516 953e 97c7 c7bc
00000320: 1e1a 32be 629e b6bd f573 07be 5c62 1bbe
00000330: 9deb 41bd d0a5 92be 1feb 4dbd b3dd 203e
00000340: 0564 38be ca9e 2f3d 2f17 dfbd 89c9 773d
00000350: bfb7 733e 9819 54bd abec a93d ac13 4e3e
00000360: ff1c 4b3c d087 8d3e 9245 c03c 4c3f a2bd
00000370: 8888 0e3e b5ce 1ebe 8d9a 67be 6991 94be
00000380: ae91 49bc 0820 083e fab3 603e 6eaa 053e
00000390: 45dd 3dbe b643 753e 13bf 2e3d cbff ecbd
000003a0: ab5a dc3b 0d13 1b3d 700d 8b3d 25b8 01be
000003b0: 1724 c63d 30b0 3bbe 09bc 6ebc 8b3f f23d
000003c0: 059b 79bd ae8d 5bbe f034 bb3c de39 913e
000003d0: 5e7e df3d 17ac c13c 65e4 3b3d 0fa4 8f3e
000003e0: ecbc 553d 39c5 eabd 76ed 22be b1a3 d3bd
000003f0: f943 623e fb38 2ebe bcd1 4dbe 81ec 483d
-0.036536675 0.15050103 0.099767745 0.019534482 0.18658762 0.10568492 0.004276211 -0.08478706
0.111300506 0.13075373 0.18032356 -0.0050159874 0.076732665 -0.11482213 0.20131826 -0.070969455
-0.045107532 0.07577848 -0.0749243 -0.007613927 0.022087665 0.02262794 -0.0643083 -0.13485569
-0.10138105 -0.18871479 0.16663945 -0.13115004 -0.014704239 0.15730458 -0.038702402 0.20440207
-0.009500004 -0.22124118 -0.116625614 -0.098065846 0.072147295 -0.09464972 -0.12039671 0.01769034
0.196909 -0.10046438 0.046234928 0.012120003 -0.10060153 0.017504502 -0.008502913 0.033894647
0.15970495 -0.0150050465 0.056408543 0.03374466 0.039109938 -0.17065042 0.061886277 0.18599343
-0.050385814 0.04755237 -0.04680131 0.03170613 0.001111105 -0.07396131 -0.16732138 -0.08592153
-0.07184965 0.1448359 0.001348249 0.014463521 0.042620443 0.0007545967 -0.12121938 0.16925511
0.07980038 0.13214318 -0.106160134 0.024817966 -0.042713683 -0.17959675 -0.04864063 0.06903134
-0.21299115 -0.04764945 0.15654081 -0.0756291 -0.017080966 -0.07248873 0.13047256 -0.13091442
0.08995319 -0.0497266 0.024972472 -0.15132537 -0.055406697 0.033773344 0.059309322 0.039333902
-0.056465406 -0.11928624 -0.106206656 0.043415595 -0.23473956 -0.07535775 -0.06668049 0.011241007
-0.14029114 0.13229431 -0.082591966 -0.22080187 0.108201325 -0.0048528113 0.052076947 -0.06393333
-0.21578282 0.034901142 -0.19546652 0.1641743 0.20035003 0.1891147 0.06704757 0.1787526
0.037742216 0.120909154 0.13921627 -0.21548633 -0.014253146 0.07447898 -0.007631079 -0.078588545
-0.028414683 0.15985797 0.1779213 0.17920929 -0.044385243 -0.09281211 -0.01043644 -0.21249503
-0.036691148 -0.24934925 0.12557943 0.117652856 0.07774694 -0.1810473 0.027224224 0.2757738
-0.025192114 -0.10519037 -0.10442447 -0.050376546 0.16068676 -0.17622419 0.09283704 -0.001936836
-0.048520103 -0.23075894 0.07171661 -0.17417318 -0.044167534 -0.033628173 -0.003593271 0.1390686
-0.015471152 0.087616704 -0.041286204 0.09063104 -0.023022793 0.12135121 -0.0676731 0.0061940025
0.1977982 0.13649032 -0.115105495 0.05322272 -0.026727155 -0.062686354 -0.19493444 0.028483555
-0.256935 0.16263731 0.015225168 0.010523267 0.019957762 0.11385764 -0.029064866 -0.049455453
0.036484513 -0.16490933 0.0042695533 -0.07616301 0.050577782 0.027526854 0.012931581 -0.03169104
-0.058389656 -0.2948491 -0.14836387 -0.05312216 0.026808636 0.056984127 0.29118934 -0.024387164
-0.17392775 -0.08916928 -0.13227828 -0.1517424 -0.04734384 -0.2864213 -0.050273057 0.15709572
-0.18006904 0.042876042 -0.10893094 0.060494933 0.23800562 -0.05178222 0.08297094 0.20124692
0.01239705 0.2764268 0.023470674 -0.07922229 0.1391927 -0.1550854 -0.2261755 -0.2901719
-0.012302799 0.13293469 0.21943656 0.13053295 -0.18541439 0.23951611 0.04266269 -0.11572226
0.0067246757 0.037859965 0.067896724 -0.12667902 0.09674852 -0.18328929 -0.014571198 0.11828526
-0.060938854 -0.21440765 0.022852391 0.28364462 0.109127745 0.02364163 0.04587211 0.28054854
0.052182123 -0.114633985 -0.15910897 -0.10333956 0.22096242 -0.17013924 -0.20099539 0.049053673

encoder.model.bias_ih_l0 f4 [192]
00000000: 8d65 27bc 3796 59bd f78d 893e 838e 5f3d
00000010: 1a4c d13d 7a6d 783e e7a6 ec3d 339e 2c3e
00000020: f773 fc3d 64bb 953e ea23 da3d f9f7 23be
00000030: 77a5 503d 0055 20be c978 af3d 570c f0bd
00000040: 2ec7 3b3e 876c d33d 1839 783e 14ba 663e
00000050: c42b 4e3e 7f7f 2cbb 484c 2d3e ba32 b2bd
00000060: fa5d 373e e3cd 66bd 110f 283d f9b1 403e
00000070: 757f 43bd e17c 943e 2e8a e5bd 3c4a 173e
00000080: 56dc 083e d4e6 87bd dd77 ef3b f3f1 853d
00000090: 7c4b 9b3e 89a6 0f3d 6a16 c13d 07bb 903d
000000a0: 90ca b63d 0e11 f6bc 4dae b23d 88b4 3a3e
000000b0: 7ce0 413e 0775 6c3e 774c 20be d5dc 2ebe
000000c0: 9ab2 a4bd 3675 b03c 9a40 353d 8ad9 973d
000000d0: 8301 083e be6e 1abd 662a 253e ebae 163d
000000e0: 13c6 683e 4e6d 343e 0209 bb3d ef5b 13be
000000f0: aecc 7c3d 3099 24bd b6cd 513d b382 05be
00000100: 7450 843e 41d0 abbc fbcc 473c 251b a13d
00000110: 4968 d2bd 01e4 16be d73a 203b 1cbb e0bc
00000120: ac19 81bd 68ac 9bbc e72c a5bc 894c 6b3e
00000130: 53ad d13d 0ddc bc3d fa2c 7cbd 70c4 533c
00000140: fe24 1bbd c773 c63c 9249 dc3d 28b4 243e
00000150: f54b 163e f85a dfbd 55a2 74bd b490 853d
00000160: a752 5d3e efd5 203d 6ae2 293e 14c8 f73d
00000170: b08e 1d3c 19cd 473d 9c7f eabb 54a0 ca3d
00000180: ba4a aabd 7eee 403c 7bb5 e3bd 7fee b13d
00000190: 020d 9fbd 5a91 1c3d d2d2 1f3e 5801 44bd
000001a0: 206c 8abd 33a3 6bbd a7c7 2abd e9c2 0bbe
000001b0: efad 883d 4faf dcbd 3959 b5bc b08e 243e
000001c0: 0021 e8bd d42c 323e 13ac eebd 5d1b 253e
000001d0: 94e6 e73d 9e95 0b3e d7ca ca3d b07d e83d
000001e0: 84b6 183d e1ed 483d f26a b53d 219b a0bc
000001f0: 3fab da3d a11b 08be 0617 b1bd ab89 46bd
00000200: 3486 20be 222b 603e 3201 de3d 1dd9 7d3d
00000210: 6110 fabd 53eb e53c f6fa d0bc a24b 14be
00000220: 9421 303d d82f 1bbe 4d70 8bbc cbcc 9f3c
00000230: 48cf 30bc d268 99bd 9086 91bd 4b2c 263e
00000240: 55eb 30bd 97af 7d3d e5ab 0e3d 5209 223e
00000250: ab05 573e 14e5 763d 350f 203c 6b3d f13c
00000260: b4c6 d3bd ac17 953e a471 1d3e 85c7 e0bd
00000270: 7926 efbd a351 1abe e495 113e 0744 ca3d
00000280: e147 d1bc e01b 82bc a3f5 333e 1a82 733d
00000290: 0789 c0bd 8b13 90bd 1fe2 6f3e 6200 7e3d
000002a0: 8e81 0a3e 013b 843d b723 a2bc 8b0c 8a3d
000002b0: 0d0a b9bd 3492 563d 74ef b3bc 50f9 313e
000002c0: a394 323e 5d29 2b3c cb1f b0bc bc2d fc3b
000002d0: d5ce 1f3e bb9b 50bd 22d2 94bd 5a25 ff3d
000002e0: e89b 3b3e 1137 a83d 8ddf 543e ace5 033d
000002f0: eedb 6cbd cea1 973d 18ee 30be 4bae 22be
-0.010217083 -0.05312177 0.26866123 0.05457927 0.10219593 0.24260512 0.115552716 0.16857223
0.12326806 0.2924453 0.10651381 -0.16012563 0.05093905 -0.15657425 0.0856796 -0.11721104
0.183377 0.10323434 0.2424053 0.2253192 0.20133883 -0.002632111 0.1692363 -0.087010816
0.17906943 -0.056348693 0.041029993 0.18817891 -0.047728974 0.29001525 -0.11207996 0.14774412
0.13365301 -0.06635824 0.00730799 0.06540289 0.30331028 0.03507093 0.09428103 0.07066923
0.089253545 -0.03003743 0.087246515 0.1823293 0.1893329 0.23091517 -0.15654169 -0.17076428
-0.08041878 0.021540266 0.044251062 0.07414539 0.13281827 -0.03770327 0.16129455 0.03678791
0.2273181 0.17619821 0.091325775 -0.14390539 0.061718635 -0.040185153 0.051221572 -0.13038139
0.2584263 -0.020973327 0.012194867 0.078665055 -0.10273797 -0.14735414 0.0024449134 -0.02743297
-0.06303725 -0.019003108 -0.020163013 0.22978415 0.10238137 0.09221659 -0.06156633 0.012925252
-0.037877075 0.024225129 0.1075622 0.16084349 0.14677413 -0.10906023 -0.059725124 0.065217406
0.2161356 0.039266523 0.16590276 0.12098709 0.009616539 0.04877958 -0.0071563255 0.098938614
-0.08315034 0.011775611 -0.11118599 0.08688068 -0.07766153 0.038224556 0.15607765 -0.047852844
-0.067589045 -0.057528686 -0.04169431 -0.13648571 0.066738 -0.10775625 -0.022137271 0.16070056
-0.11334419 0.17399913 -0.11653914 0.1612372 0.11323276 0.13631293 0.0990197 0.11352098
0.037283435 0.049054984 0.08858289 -0.019605221 0.10677194 -0.1329179 -0.086469695 -0.048471134
-0.15676194 0.21891454 0.10840072 0.061974633 -0.12210155 0.028066313 -0.025510293 -0.14481977
0.043000773 -0.1515497 -0.017021323 0.019506833 -0.010791607 -0.07490696 -0.07105744 0.16227834
-0.04319318 0.061935034 0.0348319 0.15823868 0.20998256 0.06027706 0.009769251 0.029448232
-0.10340634 0.29119623 0.15375382 -0.10975555 -0.1167726 -0.15070204 0.14217335 0.098762564
-0.02554697 -0.015882432 0.17574172 0.059450246 -0.09401136 -0.070349775 0.23426102 0.062012084
0.13525984 0.064565666 -0.01979242 0.06740674 -0.0903512 0.052385524 -0.021964766 0.17380261
0.17439513 0.0104468735 -0.021499535 0.0076958816 0.15606244 -0.050929766 -0.07266642 0.12458296
0.18321192 0.08213628 0.20788403 0.032201454 -0.05782693 0.07403909 -0.17278326 -0.158868

encoder.model.bias_hh_l0 f4 [192]
00000000: 5803 17be 0351 83bd 3ae0 693e 562f fc3c
00000010: 0deb ab3d aa90 863e ee72 263e 0102 1e3d
00000020: 4997 54bd d1ae 4a3e 3abd f33d 3a61 28be
00000030: db71 d23d fafc 24be 11e4 523e dc92 c5bd
00000040: 0dbc 8d3d 81cb ddbd e202 133e 1c83 5f3e
00000050: 13e9 a43d d2cb d3bc bd3f 833d 7757 c0bc
00000060: e3d1 fc3c e959 09be 2ba6 073e 2018 823e
00000070: 2ccf 133e 8742 5a3e 4fb7 833d a52a 8fbd
00000080: b76a 1dbd b4dc 863c ab11 c33d ed4b 803c
00000090: e8d8 423e 94b1 13be 9a94 c33d 6384 8fbd
000000a0: b25d edbc 8f5a 193b c45e fd3b 24c1 e13c
000000b0: 52bc d63d 18b0 313e 7634 8ebd 77d2 19be
000000c0: c6a7 d93c 1636 683d 0934 623d b3b2 8c3d
000000d0: 561f 1c3d 8e4b d2bb d52d 143e ab31 3b3d
000000e0: 7140 673e ddcd 203e ca73 2e3c 8230 923d
000000f0: 08b6 a7bd a836 e6bd a19f 2fba bfb1 9a3a
00000100: a5d7 273b 482e 50bc 1c46 fdbc 336c 53bd
00000110: 718b 483c 2ed6 bfbc 4b4b 8c3b 0f63 babd
00000120: 3ade b3bd 053d b73c 1204 b93c b49f fe3d
00000130: 611d 8e3d bd46 043e ce55 43bd 8cfd 9abc
00000140: 136c 9ebb 0183 4ebd 8952 73bd 5f51 2f3c
00000150: fc9d 8e3c c9a4 e7bc 60ca d8bd abc3 8b3d
00000160: 25e5 d63d b99d ab3d 63a8 093e 3277 043d
00000170: d069 353b 18c2 a53c 4476 133e f584 413c
00000180: 244d f9bd 56f5 cbbd fe5b ab3d 8424 0f3d
00000190: a1fc a1bd d7d0 10be 2763 073d 4f1b b03d
000001a0: 15f4 b7bd 8023 c8bd 7fd3 08bd 2faf c33c
000001b0: 42f9 f63d 34e9 8abd 1473 bdbd 61d6 85bd
000001c0: a81e c3bb 399d 943d 47cb d13d 7ba8 1f3e
000001d0: 2b73 9fbc 86bb 193d e253 633d 8a79 183d
000001e0: b907 203e 5131 d13c 439e 66bd a432 93bc
000001f0: 86a0 a03d 234c e0bd b376 d1bd 71b0 46bd
00000200: 75ae a63c 855d d53c cf9a 243e 0c1c 133e
00000210: 6df5 de3c be80 143d 820b 8a3d b48e 5fbd
00000220: 6a24 b0bd 955e f3bd 25fa f63d 60f3 e23d
00000230: 69b1 e33d ad3c f039 c567 313e 07f6 c73d
00000240: d7b0 b03c 4bbf b9bd a7aa 233e 4458 95bd
00000250: 69db 063e bb0e 6c3c e56e a9bd e72d 8f3e
00000260: 3cd2 4cbd 92b2 b93e 42ee 233a 1864 aa3d
00000270: 2c40 37bd e2f5 bd3d 1762 043d c9ef 03bd
00000280: afc4 033e f4eb bebd 9c6a e33d e0dc de3d
00000290: 6efd 25bd d286 0fbe ebe7 aa3d 73c9 cc3d
000002a0: a2ca 0b3e b117 ce3d 4ba5 8dbd f5b6 bf3d
000002b0: b3a0 debd 270c 463e ba8a 9b3d b203 703d
000002c0: 38c9 683c ec39 a0bd 5927 98bd a8e9 293e
000002d0: de59 073e f0ff 813d bdfb 05be ff8f 993d
000002e0: fa80 2f3e e9cd a1bd 1cb0 743e 1da7 273e
000002f0: a3aa 313e ecd9 733e e3f1 8e3c 381b 8cbd
-0.1474737 -0.06411936 0.22839442 0.03078429 0.08394442 0.26282245 0.1625478 0.03857613
-0.05190209 0.1979325 0.119013265 -0.16443339 0.102756225 -0.16112128 0.20594813 -0.09647152
0.069206335 -0.10829831 0.14356568 0.21827358 0.08052268 -0.025854025 0.064086415 -0.023479206
0.0308618 -0.13413204 0.13246982 0.2540903 0.14434499 0.2131444 0.06431448 -0.06990556
-0.03843185 0.016462661 0.09524854 0.015661204 0.19028056 -0.1442321 0.09549828 -0.07007673
-0.028975341 0.0023399924 0.007732244 0.027557917 0.10485138 0.1735233 -0.069436 -0.15021692
0.026569258 0.056692205 0.055225406 0.06870022 0.03811582 -0.006417698 0.14470609 0.045701664
0.22583176 0.1570353 0.010647723 0.071381584 -0.081890166 -0.112408936 -0.0006699507 0.001180224
0.0025610712 -0.012706347 -0.03091722 -0.05161686 0.012240277 -0.023417559 0.0042814366 -0.09100925
-0.08782621 0.022367964 0.022584949 0.12432805 0.06939197 0.1291761 -0.04768925 -0.018919729
-0.004834661 -0.050417904 -0.059404884 0.010700553 0.017409317 -0.028276818 -0.10585475 0.0682443
0.104929246 0.083796926 0.1344314 0.032340236 0.0027681477 0.020234153 0.14400584 0.011811485
-0.121729165 -0.099589035 0.083671555 0.034946933 -0.07909513 -0.14142166 0.033053543 0.08598959
-0.08982102 -0.09772396 -0.033404823 0.023887245 0.12059261 -0.06782761 -0.09250465 -0.0653503
-0.0059545822 0.0725655 0.1024385 0.15591614 -0.019464096 0.037532352 0.05549992 0.037225284
0.15627946 0.025536211 -0.056303274 -0.017968483 0.078431174 -0.10952022 -0.10227718 -0.04850811
0.02034686 0.02604557 0.1607468 0.14366168 0.027216638 0.03625559 0.06740476 -0.05457945
-0.086006954 -0.118832745 0.1205943 0.11081576 0.11117823 0.00045821574 0.17324741 0.09763723
0.021568699 -0.09069689 0.15983067 -0.07292226 0.13169636 0.014407809 -0.082731046 0.27964708
-0.050005183 0.3626905 0.000625346 0.083198726 -0.044738933 0.09275414 0.03232011 -0.0322111
0.12867998 -0.09322348 0.111043185 0.10881972 -0.040524893 -0.14016274 0.08345016 0.09999361
0.13651517 0.100631125 -0.06916293 0.09361068 -0.10870495 0.19340573 0.07594819 0.058597274
0.014208131 -0.07823548 -0.0742938 0.16593039 0.13217875 0.06347644 -0.13084312 0.07498168
0.17139044 -0.07900602 0.23895305 0.16372342 0.17350249 0.238136 0.017449325 -0.06841129

encoder.model.weight_ih_l1 f4 [192, 48]
00000000: f3e9 013e 4826 77bd 285f e5bc 8390 0e3e
00000010: 83b7 873d cef9 bebc 35b3 773d 5fe4 03be
00000020: 671f 043e 3c66 39bc e6a9 853d 076d 0fbe
00000030: 7353 9bbc 17b3 373d d6d9 abbd 19ff 0ebe
00000040: 06be ffbd 77d0 eb3c 5caa 94bd 7405 1fbd
00000050: 886d 2bbd 6b67 e53d fdf8 96bd a045 66bc
00000060: 31ce 4fbd 8f58 3dbd 5e7b d03d f931 ed3d
00000070: 95dd 01be c5d3 00be ddb4 d8bc 7d8e fe3d
00000080: 2db0 5b3d 8717 ff3d 6a58 0dbe 9251 64bc
00000090: af96 9c3d 276e 1f3d 12db e73b e174 35bc
000000a0: ed22 aebd 500c d7bd 7f9a 343d ae30 9cbd
000000b0: aee9 df3c b0b9 fa3c bd0b a63c 405e 7abd
000000c0: 0274 7a3d 8fe5 07bd 9e41 94bd 785e 96bc
000000d0: 1ebf 2bbd 483f 073e b2fd 6b3d a453 5dbc
000000e0: b17a 6bbd 1f86 933d 832c 36bd 1be8 833d
000000f0: f4c5 0fbe e3cf 063d 4ac3 9abc 2f20 0dbe
00000100: 04fe 7f3c 298b 673d f28f 073d 3b0f 363d
00000110: 6beb d039 5f2e 7f3d 2505 363d 9cde 0bbe
00000120: 6bec 59bd fcc2 673d b24a 98bd 6a32 b93b
00000130: ffa2 b73c edd6 223c 3659 97bd eb28 d73d
00000140: c839 f3bb b2bc c13b a05a c9bc 8def 1fbd
00000150: 2603 093d d683 823d 3d3a bc3d 5781 b9bd
00000160: a5a0 163b f296 93bd da66 fe3d 8cc2 2cbc
00000170: 44b5 053e 18c2 c2bd 1435 86bd 943d a23d
00000180: 1b2d 4c3d 07d3 babd 3ea6 cfbd f48a 59bd
00000190: f038 fabc 37f4 0d3e db81 abbd 9ea8 d2bd
000001a0: 84ef eabd cd27 063e 9699 8d3d c5a5 edbd
000001b0: f8ff d0bd 261a bb3d 642e 6a3d aa05 48bd
000001c0: 9f92 d8bd 5c44 46bd 64b2 013e 9efb d9bd
000001d0: 90fb 17bc 88e7 5b3d 1be5 eebd 3e6f d0bd
000001e0: 913a b53b 6f0b acbd 0e86 e3bd 7673 a5bc
000001f0: 8a6c c83d 47aa a93d e41a b03d 9270 10be
00000200: eec3 a73d 3096 c4bd d931 ac3c ded1 f0bd
00000210: ce77 0cbe 823a ac3b 8a5c 823c d2df 52bd
00000220: 1f35 04bd 8454 bc3d 31c5 8cbb f2ea 633d
00000230: 7d91 a93d 9e2c 7d3c 635d e23d a8e5 afbd
00000240: 2e0f eabc 32ed 91bc 0dc0 243d 4078 7d3d
00000250: 9496 bb3d e9ad e63c fdad f03d 3e90 84bd
00000260: 5696 3b3c 9955 fabd fe93 bf3c 86de 573d
00000270: 5584 103e 606e c0bc 51b3 d13d 187c efbd
00000280: 5aa4 aabd 8242 11be cee9 f73c 4b62 653a
00000290: 17bf d23d a3fd b1bb dba1 94bd b3b0 11bd
000002a0: 8a25 11be b9bf 39ba 37be 763d 9938 7d3b
000002b0: 39a2 dcbd a717 febd b07b 04be 3e33 b73d
000002c0: 68ac b83d 2f61 0bbc 3db1 e53d 14fe 56bd
000002d0: 33c9 0cbe 8826 413d 8d01 183c 373a 0fbd
000002e0: be8a bd3d a887 d2bd 13c0 0c3e 13e7 0b3e
000002f0: e35e d1bd 0a0a d33d 15c9 fd3c 84e1 debd
00000300: c7d0 e7bd 445d ed3d 7691 923d 7c80 f93d
00000310: 814a 213c eff8 d3bc bde7 6c3d a5a3 083e
00000320: 848d 5bbd efe0 4b3d 3608 023d cb1e cfbd
00000330: bc60 8cbd 0218 c1bb 7736 28bd ef23 08be
00000340: 9b7b a43d 2891 0abe c58e 19bc 5e2c 07be
00000350: 225f ed3d 9bfc bbbd 27fb d03d d67f ac3d
00000360: 88d2 153c 02c2 c93c f32b 97bd 1d6d d93d
00000370: 993a 2abd 9cb1 b33c cbbb 233d 3d09 4abd
00000380: 5d6a 043d 32aa 1e3d 6dd1 743d f453 36bc
00000390: f39a 03be 3b39 023e ebc3 623c 41e3 e93d
000003a0: 7aac 5cbd 36de 9d3d 991d fcbd 487b 8abd
000003b0: 62f3 a6bd 4113 ff3d f8a5 e43d 6d9b 813d
000003c0: 5f8f 96bd fd13 7c3d e4cf f2bd fc7e 6b3d
000003d0: b23d 6fbd 572c f03c 6859 0a3d 738b f4bd
000003e0: 21c8 a9bd 7e75 cabd bebc 83bd f689 c03d
000003f0: 5b12 13be ef83 033e e317 babd 231f c6bc
0.12686901 -0.060339242 -0.027999476 0.13922314 0.06626799 -0.023312476 0.06047364 -0.12880085
0.12902604 -0.0113158785 0.06526546 -0.14006434 -0.01896069 0.044848528 -0.08391158 -0.139645
-0.12487416 0.028785927 -0.07259056 -0.03882356 -0.041852504 0.11201366 -0.073717095 -0.014054686
-0.05073375 -0.046227034 0.101797804 0.11581797 -0.12682183 -0.12580784 -0.02645343 0.12429521
0.05363481 0.12455659 -0.13803259 -0.0139354635 0.07645928 0.03892341 0.0070756758 -0.011075229
-0.08502755 -0.10500395 0.04409265 -0.076264724 0.027333107 0.03060612 0.02026927 -0.06112504
0.06114579 -0.03317791 -0.07239078 -0.018355593 -0.04193031 0.13207734 0.05761499 -0.013508711
-0.057490055 0.07203316 -0.044476043 0.06440755 -0.14040357 0.0329131 -0.01889195 -0.13781808
0.015624527 0.056529198 0.03309626 0.04444812 0.00039848252 0.062300082 0.0444385 -0.13659137
-0.05320398 0.056582436 -0.07436122 0.005651762 0.02241659 0.009938938 -0.073900625 0.10505851
-0.0074226595 0.005912387 -0.024579346 -0.039046813 0.03345027 0.06372802 0.091907956 -0.09057873
0.0022983935 -0.07206525 0.12421961 -0.01054443 0.13057429 -0.09509677 -0.065530926 0.07921901
0.049847703 -0.091222815 -0.1013913 -0.05311103 -0.030544728 0.13862692 -0.08374377 -0.102860674
-0.11471465 0.1310112 0.0691406 -0.11603884 -0.10205072 0.09135847 0.057173148 -0.048833527
-0.10574841 -0.048405036 0.12665707 -0.10643695 -0.009276286 0.053687602 -0.11664792 -0.10177468
0.0055306633 -0.08400618 -0.11109553 -0.020196658 0.09786327 0.08284431 0.08598879 -0.14105442
0.081916675 -0.095989585 0.021019863 -0.11758779 -0.13717577 0.005255998 0.015913267 -0.051482983
-0.032277223 0.091958076 -0.004295968 0.055643983 0.08279703 0.015452532 0.11052968 -0.08588725
-0.028571691 -0.017813299 0.040222216 0.061882257 0.0915958 0.028159099 0.11751936 -0.064728245
0.011449417 -0.12223358 0.023385998 0.05270245 0.1411298 -0.02349013 0.1023928 -0.11693591
-0.08332129 -0.14185527 0.030262854 0.00087503035 0.10290354 -0.005431847 -0.07257434 -0.035568904
-0.14174476 -0.0007085759 0.060239997 0.003863847 -0.10773129 -0.12406855 -0.12937808 0.089453205
0.09017259 -0.008507057 0.11215446 -0.0524884 -0.13748626 0.047155887 0.0092777135 -0.034967627
0.092549786 -0.102797806 0.13745145 0.13662367 -0.10223176 0.10304649 0.030979672 -0.108828574
-0.11319118 0.11590055 0.07156651 0.121827096 0.009844423 -0.025875537 0.05783819 0.13343675
-0.053601757 0.04977506 0.03174611 -0.10113295 -0.06854388 -0.0058927545 -0.041067567 -0.13294958
0.08031388 -0.13531935 -0.009372418 -0.13200518 0.11590411 -0.0917904 0.102041535 0.0842282
0.009144433 0.024628643 -0.073814295 0.10616515 -0.04155979 0.021935277 0.039974015 -0.049325217
0.032328 0.03873653 0.059770036 -0.011128414 -0.12852077 0.12717144 0.013840656 0.11420298
-0.053875424 0.07708399 -0.12310333 -0.06761795 -0.0815189 0.12454844 0.111644685 0.06328473
-0.073515646 0.0615425 -0.11856058 0.05749415 -0.058408447 0.029318018 0.03377667 -0.1194066
-0.08290125 -0.09885691 -0.06432484 0.09401314 -0.14362471 0.12843297 -0.09086587 -0.024184769

encoder.model.weight_hh_l1 f4 [192, 48]
00000000: bb14 fbbc f203 733c 25a1 9a3d d58d 013d
00000010: c095 8dbd 8426 42bd 7935 763c f0b2 c63d
00000020: 47e8 02be 7daf 733c af27 d53a 989d 933c
00000030: 5102 adbd 2493 eebc eb3f f73b 052d 383d
00000040: af78 173d ec87 8e3d 9aa2 543c 90ed 97bd
00000050: 6226 c7bd 2bdc 30bd 3906 8bbd b1c7 e33d
00000060: 334c 0a3e bf53 043e 1613 863d c35c d53c
00000070: 84b3 c53d b6fe 3e3c 8563 8b3d 226b 2cbd
00000080: 627d b1bd cf0a 353d 15e8 07be ba65 ad3d
00000090: 0200 0ebe 35ec 49bd 6064 f73d 54c2 0dbe
000000a0: 1f5e 0d3e e4c7 68bd fc09 07bd a206 26bd
000000b0: b490 b7bb ea0d 83bd 18dc 91bc 93c0 a73c
000000c0: 26dc 5fbc 694d 00be b40e a4bd b556 eb3d
000000d0: 7a9e 40bc c081 10be 3e7a 87bd fbd4 f3bc
000000e0: e4a6 a6bd 8303 283c 8078 5e3d 8fdd a43d
000000f0: aa6e 74bc 5047 803d c4e7 e8bd 1da0 c9bd
00000100: 7e2d d7bd 4f89 043e 0739 113c e082 0cbe
00000110: 465e 82bd 8c76 d6ba c31b 9d3d 15a8 64bd
00000120: 2aef 613c 427f 0ebe ccc6 d5bd 6cd5 62bd
00000130: f02f f23d 80f5 643d 93ed a73c 6559 0f3c
00000140: b141 7b3d 3d8c b8bd 80da bfbd 14ab 9d3d
00000150: 06c6 3f3d 302f edbd 6717 e4bd 2761 ac3c
00000160: 3b9a a0bd ec04 43bd d5ed b13d 135f a5bc
00000170: 997e 79bc 68ff 9abd ad3a 9c3d cf0b a2bc
00000180: 9295 973d 8460 88bd 8bb2 eb3d a4da e1bd
00000190: ae35 0f3e 1365 f1bd 61e8 793d 6b29 0e3e
000001a0: cd48 7f3c 1d9e 99bd 9f00 c6bd d720 a93d
000001b0: 29df aa3d e148 3c3c aa1e 243d 8267 d8bd
000001c0: 8e2b 0a3e d7f9 d8bd 8b4f 8ebd 0f10 353d
000001d0: b028 9b3b 9c2f 0b3e 399c f43d dbaa e83d
000001e0: 8e7a 0d3d 841a b33d 1a5c fabd 64ee 60bd
000001f0: d7ee 463c fb36 6bbd 2e81 7a3c e0e5 0abe
00000200: b54b cc3d 929a 8ebd af31 46bd 5a0b 4f3c
00000210: 15fe ab3d 3e1b eebd 8587 d03d f9ab 2cbd
00000220: 9fce 05be bb6c 6f3c 6615 09be 6645 ee3d
00000230: fdd3 a4bd f129 5c3c f05b 12bd 7133 833d
00000240: a760 ffbc 45c3 a23d 365a 9abc 04c4 b93d
00000250: 08bc 933d cf98 73bd 709c dcbc 2022 d33c
00000260: 0243 01be 26d9 c0bc 19d5 97bb c60d a3bc
00000270: bb4b d7bc cfa8 12be d926 13be 7ac5 363c
00000280: d053 debd d528 1ebd 180a 03be 857a 9fbd
00000290: 896b 38bd 0bb2 843d 92ef 52bb 50a9 9c3d
000002a0: 8890 2cbc 2776 13be f056 12be b16b 123e
000002b0: f86d cbbd cbfe 8dbd 4361 5ebd 8dd9 873d
000002c0: aab6 92bd de9b cdbd bb05 43bd 2614 773d
000002d0: b83b d83d d1b2 7f3a 6e6b a2bd 43f1 e73d
000002e0: 2719 b3bd 9047 c63d 98c2 983d dc44 f13d
000002f0: 7e6f 253d 8575 fdbd 501a d63c 3072 603b
00000300: 293f 02be c01b 313c d250 723b 9a24 eabd
00000310: 57d9 d03d a11e cc3d fbb6 c8bd 243c 92bd
00000320: b292 823d da23 1bbd 6310 12be 7740 0fbe
00000330: d1d1 85bd d16b e93d a29a 2abd 6e64 d33d
00000340: 163b 003e 1994 a43d 457f cbbd ec67 efbd
00000350: 4345 c8bd d2d8 0d3e d652 51bd 853d 46bc
00000360: a5d7 83bd 163a cabd 4989 9dbc b6a8 07be
00000370: 8697 c5bd dfb1 823d 08e9 493d dda2 ddbd
00000380: 3c7b 083d 3ba5 a43d 5932 583d b469 a7bd
00000390: 69de 1fbd 0344 573c 77c0 803d 909b 013d
000003a0: 93cc 01be 61b2 d2bd 99cc 05be 00d7 d8bc
000003b0: b92e 90bb 38b1 d8bc 11fc 7e3d 6914 b53d
000003c0: 2ded a6bd 75a2 10be a9bd da3d a560 0cbe
000003d0: a23f d43d e32d 6dbd ec2a 973b c6a3 06be
000003e0: 764b ed3c f969 c0bc f3b1 a13d f31d 98bc
000003f0: bec0 fbbb e504 20bd 4200 0ebe ca87 b4bd
-0.030649533 0.014832484 0.07550267 0.031629402 -0.06913328 -0.047400013 0.015027397 0.09702098
-0.1278392 0.014873383 0.0016262437 0.018019482 -0.084477074 -0.029122896 0.0075454614 0.04496481
0.036980327 0.06959519 0.01297822 -0.07418358 -0.09724118 -0.04317872 -0.06788296 0.111220725
0.1350563 0.12922572 0.06546609 0.026045209 0.096533805 0.0116574075 0.06806091 -0.042094357
-0.08666493 0.04419976 -0.13272126 0.084666684 -0.1386719 -0.04929753 0.12079692 -0.13843662
0.13805436 -0.056831256 -0.032968506 -0.04053367 -0.0056019668 -0.06399138 -0.017805144 0.020477569
-0.013663327 -0.1252953 -0.08010617 0.114911474 -0.011756534 -0.14111996 -0.06615113 -0.029764643
-0.081373006 0.0102547435 0.054314137 0.080500714 -0.0149189625 0.06263602 -0.11372331 -0.09844992
-0.10506724 0.12943004 0.008863694 -0.137218 -0.063656375 -0.0016362234 0.07671311 -0.055824358
0.013789931 -0.13915733 -0.10438308 -0.055379316 0.118255496 0.05589819 0.020499026 0.008749341
0.061341945 -0.09011123 -0.093678474 0.07698646 0.04681971 -0.11581266 -0.11137276 0.02104242
-0.07841917 -0.047612116 0.08687941 -0.020186936 -0.015227937 -0.07568246 0.07628379 -0.019781021
0.07401575 -0.06659034 0.11508664 -0.110280305 0.13985321 -0.117868565 0.06101263 0.13882987
0.015581322 -0.07500861 -0.09668087 0.08258217 0.08343346 0.011491985 0.040068306 -0.105666175
0.13493177 -0.10594528 -0.06948765 0.044204768 0.004735075 0.1359238 0.119438596 0.11360713
0.034540705 0.08745292 -0.12224598 -0.054914847 0.012141905 -0.05742548 0.015289588 -0.13564253
0.099753775 -0.06963076 -0.048387226 0.012636984 0.08398072 -0.1162629 0.10182098 -0.042156193
-0.13067101 0.014613326 -0.13387069 0.116343305 -0.08048246 0.013437734 -0.03573221 0.06406296
-0.031174017 0.07947401 -0.018841844 0.0907059 0.072135985 -0.0594719 -0.026930064 0.025773108
-0.12623218 -0.023541044 -0.0046335575 -0.019904029 -0.026281228 -0.14322208 -0.14370288 0.0111554805
-0.1085583 -0.03861316 -0.12796819 -0.077870406 -0.04502443 0.064792715 -0.0032186252 0.07649481
-0.010532506 -0.1440054 -0.14290977 0.14298894 -0.09933084 -0.069333635 -0.054291975 0.066332914
-0.07163747 -0.10039495 -0.047612887 0.06032195 0.105582654 0.0009754124 -0.07930647 0.11325314
-0.08745032 0.09681618 0.07458991 0.11780712 0.04038953 -0.12375931 0.026135594 0.0034247749
-0.12719406 0.010809839 0.0036974442 -0.114327624 0.10197704 0.099667795 -0.09800526 -0.07140377
0.06375636 -0.037875988 -0.14264064 -0.13989435 -0.0653416 0.113975175 -0.041651376 0.1032189
0.1252254 0.0803606 -0.09936384 -0.116897434 -0.097788356 0.13852242 -0.05110439 -0.012099628
-0.06437615 -0.0987436 -0.019230502 -0.13247952 -0.096480414 0.063815825 0.0492945 -0.10822079
0.03332065 0.08039328 0.05278239 -0.08174458 -0.039030466 0.013138774 0.0628671 0.031642497
-0.12675695 -0.10287929 -0.13066329 -0.026469707 -0.004400101 -0.026451692 0.062252108 0.088417836
-0.081507064 -0.14124472 0.10680706 -0.13708742 0.103636995 -0.05790509 0.004613271 -0.13148412
0.028966647 -0.023488032 0.07895269 -0.018568968 -0.007682889 -0.039067168 -0.13867286 -0.08814962

encoder.model.bias_ih_l1 f4 [192]
00000000: 249a 233b 0af4 07be 0867 403d ba73 c23d
00000010: 31d3 b1bd 3bdf 913d a98e 9a3d 80f5 313d
00000020: 06f0 3ebd 0dad fb3d da0a bc3c 8c5d ad3d
00000030: f8f8 06bb da78 d33d 2e54 f3bd 5420 ae3d
00000040: 3ac4 4c3d 3efc 403d 6cda 0b3e f18b eb3c
00000050: 71ca 583c 34ed 34bd c639 a7bd a10c 11be
00000060: 5718 003c d90c 813d 19fd ff3d ad87 63bd
00000070: 9486 8b3d ed4c 5b3d 6f96 7b3d e61e 093e
00000080: ee0c 0dbd 3ec0 f4bd 950e acbd 27c7 67bc
00000090: e103 153d 6ff3 fb3d a833 013d 8f74 0fbe
000000a0: 665e 34bd a6ba 00bc 835c 093d 80ac bebd
000000b0: d49b 7abd 255b abbc d6ff 2fbd be5d c53d
000000c0: 1395 9bbd f384 d0bd 486d bf3d fe39 513d
000000d0: b394 5ebd d13a 963c f07c 06be 7905 d13c
000000e0: 7a2b 5b3d 16e9 7e3d 16f1 87bd 06d3 353d
000000f0: 50c6 d9bd 3a91 083d f482 013d 365f cbbd
00000100: c585 903d 39d3 e73d 47c1 bcbd 737b f73d
00000110: 9f14 153d 9a2c ccbd 5298 0cbe be9a f53c
00000120: ee26 763d 4369 1cbd 2f56 d33d 752c 17bd
00000130: bc1c e93d da96 023d 6d5c dc3c 0bd3 b5bd
00000140: 82a5 d4bd ebd1 ac3b 8edb 603b e7e9 1ebd
00000150: c453 033e 2a52 7f3d 05fb bc3d 3224 67bd
00000160: 3f9a 4fbc b7b2 e03d b3dd 92bd d835 d2bd
00000170: 8e07 2c3c 9b2f a8bd 8f65 4a3d f947 f3bd
00000180: a44c e2bd ad41 66bd 59a2 06be 770c 013e
00000190: 96c2 8cbd 569a 1ebd 03a8 c03d f4b5 af3d
000001a0: 176d 02be 50f1 95bc e004 ce3d a2e0 00be
000001b0: da35 c3bd 19da 52bd 1b9d e7bd e8ef 4a3d
000001c0: cd89 c03d f19b 05be 7fa2 a2bc a21b 593d
000001d0: 8e20 d5bd ad12 b6bc ba46 01be e4a4 013d
000001e0: fb62 f43d bc39 0f3e 6404 07be 915d bcbd
000001f0: ac29 86bd 4e42 ffbc 1985 7d3a 178c c03d
00000200: 2a36 c2bd 66fe 84bd ebef a93c aa23 acbd
00000210: 6241 163a 8f46 093e dedc 113e 97dd de3d
00000220: 6db7 e33d 600f 133e 5558 483c c40b c2bd
00000230: 183b eebb 0d74 f4bd 9a1a 873b 1b94 c6bd
00000240: 019b 9abd 3d83 a3bd c771 abbd 302c 0ebe
00000250: 9ce2 e4bd 911b 083e 69e4 00be 72a2 033e
00000260: f776 853d e624 aabd f6d2 a83d cee9 473d
00000270: 95a4 9c3b 4f00 fdbd 389c 27bd fc32 0fbe
00000280: 3c16 c63d 77c3 5bbd 2f07 ccbd 1732 0ebe
00000290: 3a9c 0f3e 9303 a63d 2f3e 3f3d 125d 58bd
000002a0: 98dd 62bd cb91 b8bd e879 92bd 5b24 01bd
000002b0: c424 ec3d 08f1 86bb 4cf1 a43d 1738 d13d
000002c0: 1729 a3bc c805 a03d 98a7 8d3d 8d2e 4cbc
000002d0: d507 8d3d 48f5 0d3e 451c 48bd 3624 c03d
000002e0: f7cd 11bd 65ec 523c f7fd b7bb 72a4 d43d
000002f0: 17e8 eabd e04f 803c c93b cdbd 276b febd
0.00249637 -0.13276687 0.04697326 0.09494729 -0.0868286 0.07122656 0.075467415 0.043447018
-0.046615623 0.12288866 0.022954393 0.08465108 -0.0020595174 0.10325785 -0.118812904 0.0850226
0.049991824 0.047115557 0.1365754 0.028753253 0.01323186 -0.044171527 -0.08165316 -0.14164974
0.007818303 0.063012786 0.124994464 -0.055549312 0.06812778 0.05354016 0.06142276 0.13390693
-0.03443616 -0.1195073 -0.08401219 -0.014146603 0.036380652 0.12302291 0.031543404 -0.14009307
-0.044035338 -0.007857 0.03353549 -0.093102455 -0.061183766 -0.020917485 -0.042968594 0.096370205
-0.07596793 -0.10181608 0.093470156 0.051080696 -0.05434103 0.018338593 -0.13133597 0.025515305
0.05350826 0.062234007 -0.0663778 0.0443907 -0.10633528 0.033341624 0.031619027 -0.099302694
0.070567645 0.113195844 -0.09216552 0.12084093 0.03639662 -0.099694446 -0.1372998 0.029981013
0.06009572 -0.038186323 0.103191726 -0.036907632 0.11382434 0.031882145 0.02689954 -0.08878144
-0.103831306 0.0052740476 0.0034310552 -0.038797285 0.12824923 0.062334217 0.09227566 -0.056431003
-0.0126710525 0.10971587 -0.07171192 -0.10264176 0.010499848 -0.08212205 0.04941326 -0.11878962
-0.11049774 -0.056214977 -0.13147868 0.12602411 -0.06873052 -0.038721405 0.09407046 0.08579627
-0.12736927 -0.018303543 0.100595236 -0.1258569 -0.09531756 -0.051477525 -0.11309262 0.0495452
0.094012834 -0.13047768 -0.019852875 0.05300487 -0.104066 -0.022225702 -0.12624636 0.031651393
0.119329415 0.13986868 -0.13185269 -0.09197534 -0.06550917 -0.031159546 0.0009671017 0.0940172
-0.09482987 -0.06493835 0.020744285 -0.0840524 0.00057317887 0.13405822 0.1424441 0.10882109
0.1111897 0.14361334 0.012228091 -0.094749 -0.007270228 -0.119361974 0.004123044 -0.096962176
-0.07549096 -0.07984016 -0.08371311 -0.13884044 -0.11176035 0.13291766 -0.12587132 0.12854937
0.06516831 -0.08307819 0.082433626 0.048806958 0.004780362 -0.123535745 -0.040920466 -0.13984293
0.096722096 -0.053653207 -0.09962308 -0.13886295 0.1402444 0.081061505 0.046690162 -0.052823134
-0.05538711 -0.09012183 -0.07152158 -0.031528812 0.1153045 -0.0041180886 0.08053836 0.102157764
-0.019917054 0.07813603 0.069167316 -0.01246227 0.068862595 0.13863099 -0.048855085 0.09381907
-0.035596814 0.012873744 -0.0056149918 0.10382928 -0.11470049 0.015663087 -0.10021169 -0.124227814

encoder.model.bias_hh_l1 f4 [192]
00000000: 477f bd3c e00e 003e 6498 e0bd 8d6d 7bbd
00000010: a163 a4bd 04ec a13c 32ff babd 9a32 433c
00000020: c5ad b7bd dc75 d4bd ddd6 fd3d 8b68 ed3c
00000030: e9cb 09be 6f48 a7bd 7bfd 08bd 41a1 c03d
00000040: bb5c b4bd 5aa5 d1bd b1d5 96bc 6cf5 82bd
00000050: 91bb 80bd 4f9c f23b 27cf 0e3e 3137 ff3d
00000060: be1c 64bd efd3 5b3d 780d bdbc 1919 0c3e
00000070: ca2b e63a 1bd6 d5bd d0a9 623d 9f0b c03d
00000080: 8818 2b3c 0ed4 05bd 768a 20bc 435a f93d
00000090: 7457 cdbc 016b ac3c 9344 083e 78b4 b33d
000000a0: 6d93 f2bd 15ae 273d a65a b53c 9d42 a8bd
000000b0: 4d59 e5bd 6f9e 69bd a135 8b3c 9bfd ecbd
000000c0: 5e03 f3bb 5c6b bb3c 3262 73bc d959 873d
000000d0: 0679 7a3c 8eca 90bd 87db 0abe b444 c6bd
000000e0: 6b67 4bbd 6776 98bd f446 a73d 122d 18bd
000000f0: 32d6 dfbc b8d4 08be c667 823d a84a edbd
00000100: fe3e b0bd 0e9b a33d 55ee f8bc 74d7 08be
00000110: 9565 f5bd 6c9b c9bd 293c 01be 7df8 2a3c
00000120: e2c4 053d 0512 92bd aecd f0bd 9463 1cbd
00000130: 115c a13d 45a8 03be f395 97bc 013f 1abb
00000140: 810b 8ebd 73e0 9fbd 98f4 423d f011 023d
00000150: 8605 1ebd 67d4 cabd 720e 99bd 87e0 71bd
00000160: a6ef 9d3d c21b 71bd f0aa 85bd 953d 92bd
00000170: 9097 e03d 6618 dcbd 9f88 693b 5d0e 01bc
00000180: 1da0 6fbc 4cbb fc3d 097a fbbd b6fe 0a3e
00000190: 6cca 23bc 3bf1 92bd b502 63bc 36cb 993c
000001a0: c1e1 d83d 620f 42bd 54ad 123d 51f6 9c3d
000001b0: b658 78bd 4010 cfbd 6c2a cfbd 5e60 e8bc
000001c0: 24c3 923c 6229 f53d c763 9cb8 c100 9e3d
000001d0: e9ab 35bd 6307 be3d 30bf e73d 433f debd
000001e0: fde6 44bd 148e ba3d 4152 0dbe e4fc aa3d
000001f0: 4227 bdbd ec67 e33d 48b8 f93d aad0 87bd
00000200: 2164 ce3d c231 03be 52bc 94bc 1cc0 ac3d
00000210: 3a91 363c 2018 e53d b12f 6ebb c07e b8bd
00000220: 0750 b43d 2275 1e3c a344 9f3d f9e9 01bd
00000230: e776 e9bd cf2e 093d 928e 67bd b5af 5bbd
00000240: 55a5 0cbd eef4 9f3d 4539 b5bd 43d7 b03c
00000250: b95b c4bd e6c6 0dbe 82e4 d1bc c2b0 fabd
00000260: 8f5f bc3d d6ae c53d a557 f63c 12e4 bc3d
00000270: c71d 87bc 3a9b f23c c40a dabc 401f bd3d
00000280: 28b3 e2bd 4d84 d43d 3c80 803d f62a 8cbd
00000290: d115 aa3d a384 edbd 3b43 903d 9311 67bb
000002a0: 1aa7 dc3d 823a 0bbe d46f 693d f38f cc3d
000002b0: c636 613d 08b7 41bd 8ccb 2cbd 226a c83d
000002c0: c106 f73d 982a de3d ebf4 453b 358b e6bd
000002d0: e669 70bc 9dbe c5bd 4ae1 61bd 846b 9bbd
000002e0: 18fe c4bd 45bf 08be 8ba7 11be 1a0a fabb
000002f0: 5b26 ebbd 9cb9 b03d 8fe6 2c3b 91e3 003d
0.02313198 0.12505674 -0.10966566 -0.061383773 -0.08026815 0.019765861 -0.09130706 0.01191392
-0.08968691 -0.103740424 0.123944975 0.028980514 -0.13456692 -0.081681125 -0.033444863 0.09405757
-0.088067494 -0.102366164 -0.018412443 -0.06394467 -0.062857755 0.0074038873 0.1394621 0.12461699
-0.055691473 0.053668913 -0.023077711 0.13681449 0.0017560658 -0.10441228 0.055337727 0.093772165
0.01044286 -0.032672934 -0.009798637 0.12175419 -0.025066115 0.021047117 0.13307409 0.08774656
-0.118445255 0.040937502 0.022137951 -0.082158305 -0.111986734 -0.05703586 0.016993346 -0.11571809
-0.007416173 0.022878341 -0.014854955 0.06608934 0.015287643 -0.07069884 -0.13560306 -0.09681073
-0.049659174 -0.074444585 0.0816783 -0.037152357 -0.027323816 -0.13362396 0.063674495 -0.11586505
-0.08605765 0.07988559 -0.030387083 -0.13363439 -0.11982266 -0.098440975 -0.12620606 0.010435221
0.032658465 -0.07132343 -0.1175798 -0.038180903 0.078788884 -0.12857158 -0.018504119 -0.0023536088
-0.06935788 -0.07806482 0.047596544 0.031755388 -0.038579486 -0.09903794 -0.07473458 -0.059052017
0.07711725 -0.058864363 -0.06526744 -0.07140652 0.10966408 -0.10746841 0.003563441 -0.00787696
-0.014625576 0.123404115 -0.12279136 0.13573727 -0.009996992 -0.07174917 -0.013855626 0.018773656
0.10589934 -0.04737795 0.03580983 0.076641686 -0.060631476 -0.10110521 -0.10115513 -0.028366264
0.017915316 0.11970784 -7.457245e-05 0.077149875 -0.0443534 0.09278753 0.11315763 -0.1085191
-0.04807185 0.091091305 -0.13800909 0.08349016 -0.092360035 0.11103806 0.12193352 -0.066315964
0.10077692 -0.1281195 -0.018156204 0.084350795 0.011143023 0.11186242 -0.0036344344 -0.09008551
0.088043265 0.009671481 0.07776763 -0.031717274 -0.11399632 0.033491906 -0.05653245 -0.053634364
-0.03433736 0.078103885 -0.08848814 0.02158702 -0.09587807 -0.13845405 -0.025621656 -0.12240745
0.09197914 0.09652488 0.030071089 0.092231885 -0.016493691 0.029615033 -0.026616462 0.09234476
-0.110693276 0.10376797 0.06274459 -0.06844132 0.083049424 -0.11597564 0.07044073 -0.0035258278
0.107740596 -0.13596538 0.056991413 0.09988394 0.054983877 -0.047293693 -0.042186305 0.09785868
0.12061835 0.10847968 0.0030205797 -0.112570204 -0.014673686 -0.09655497 -0.055146493 -0.07588866
-0.09618777 -0.13354214 -0.14224069 -0.0076305987 -0.11481925 0.08629152 0.002638254 0.031467024

lmbd.hidden_to_mean.weight f4 [2, 48]
00000000: 6f96 903e 88ed 2b3d 73ac 2dbd b963 6fbe
00000010: 4de9 e2be f517 ac3e 80bd 343d e6d1 debe
00000020: 0296 3ebe 702d cb3e 3cf8 a3be 1750 60be
00000030: d6b0 c0bd c356 3dbe b430 413e 53ea 32be
00000040: 822c c1be 8b86 85be 3588 8ebe 6d1f d0be
00000050: 79a7 ba3e 6964 853c 4050 c83e bc40 15be
00000060: f10f 91be 7ae2 413e 57df 453d 7977 a3bd
00000070: 0d84 ba3e ed9c d13e 00a9 4dbd f6a6 69be
00000080: 8fef 3b3e 246b 09be 97a9 af3d ad35 813d
00000090: fd2a c8be 6b44 4a3e 2b8c d93d 2e69 2f3e
000000a0: 305e a0be 89ce af3e 5d9c e4be 54c8 8c3c
000000b0: 3076 15be 0908 8ebe 811a 073d 24d7 99bc
000000c0: 4847 433e 2547 6f3e 07d2 5b3e f88d ff3d
000000d0: cebc 7c3d 71c8 be3d ca9d 613e 0708 163e
000000e0: 7678 893d 18ed d23d 726c 70be 9a12 a63d
000000f0: c25a a43e 7526 2b3e cfce 123e 1625 7ebe
00000100: 8450 44be af66 3dbe 31cf 54be d76a 773e
00000110: 7f78 ddbd 2c8e e2bd 770e a3bd f453 2d3e
00000120: 1b97 cebd 91db bb3e 5534 3fbe de7f 4abd
00000130: 21ae 0d3e 372b adbe a847 4dbd 3417 173d
00000140: f519 b8be 480f 10bd 7559 263e 37e0 53bb
00000150: 8b49 293e e86f 5fbe 97f1 f53d d2ee 193c
00000160: 93b5 a93e 5137 733d fbe6 013e 8b89 49be
00000170: 2af2 993e d464 9a3d 93d9 613e 6222 853e
0.28239772 0.041974574 -0.04240079 -0.23377885 -0.4431862 0.33612028 0.044126034 -0.43519515
-0.18611911 0.39683104 -0.32025325 -0.21905552 -0.09408729 -0.18490128 0.18866235 -0.174722
-0.3772927 -0.2607921 -0.27838293 -0.40648976 0.36455896 0.01628323 0.39123726 -0.14575475
-0.28332475 0.1893405 0.048308697 -0.07981772 0.36428872 0.40940037 -0.05021 -0.22817597
0.18353103 -0.13419777 0.085772686 0.06309066 -0.39095297 0.19752662 0.10622438 0.17129967
-0.3132186 0.3433726 -0.44650546 0.017185368 -0.14595866 -0.27740505 0.03298426 -0.018779345
0.1907016 0.23366983 0.21466838 0.1247825 0.061703496 0.09315575 0.22032848 0.146515
0.06712429 0.10299128 -0.23478869 0.08109017 0.32100493 0.16713889 0.14336704 -0.24818835
-0.1917134 -0.18496202 -0.20782162 0.2416185 -0.108139984 -0.110622734 -0.07961743 0.16926557
-0.10087415 0.36690953 -0.18672307 -0.04943835 0.13835956 -0.33822033 -0.050117165 0.036887363
-0.35957304 -0.035170823 0.16245063 -0.0032329687 0.1653196 -0.21820033 0.1200897 0.009395318
0.33146343 0.059378926 0.12685768 -0.19681375 0.3006757 0.07538763 0.22055654 0.26002795

lmbd.hidden_to_mean.bias f4 [2]
00000000: 01f0 8cbc 0c65 5b3d
-0.017204287 0.053563163

lmbd.hidden_to_logvar.weight f4 [2, 48]
00000000: 0981 303e cfa3 33bd c92f da3e b11e e8bd
00000010: 8148 473c abd0 c63d 612a 583e f65a 9a3e
00000020: 808b 073f a76c 2fbe 53cf c7bc e32f 32be
00000030: 42e5 cbbd 802d 8f3e b923 8cbe bda3 96be
00000040: c02f 17be 4b7f 00bf 8355 9f3e 9b8e f6be
00000050: 6b32 60bc cfc7 c13d 79c0 73be 89e8 05bf
00000060: 1d22 12be cfbe 413d 5026 4ebe dfef 093f
00000070: 0b59 da3e 30f0 e0bd 4fb6 a3bd a316 bdbe
00000080: a054 30be 10f9 8ebe ee53 24be 68eb dabe
00000090: e094 2b3e 539c 8f3e a373 133e 4729 be3e
000000a0: ec0b cfbe 20fa de3e 5c94 90be 57dc 11bf
000000b0: 4851 4d3e c2dd eb3e 85ce 0ebd 8138 73be
000000c0: 2b24 d83d 55f3 2fbe 214c 2a3e d562 683e
000000d0: c567 d0bd 7af5 993e 17bf 9ebe bfb7 323e
000000e0: 49cc 93be 0969 d3bc d192 2dbe c4cc 253e
000000f0: 7c54 673e 7cb3 98be 1398 df3d 2da9 843e
00000100: 5155 74be 131c 96be e2f0 5bbd 8ed2 aabe
00000110: 3dd0 ac3e ad41 5cbd b395 7abe 6255 c1bd
00000120: 2d0b 733d 29ec 00bb 2777 053e 78c7 ecbd
00000130: 0110 8a3e a981 ef3d 615b a33e 2c2c 883d
00000140: 3b76 433e 925d 6cbe 16e5 363e a2ab 45be
00000150: 7483 5b3e 3e6b 723e 2d1c 9abe 0fa3 963d
00000160: 0e1e 173e ad1b b83c 1b5a 7ebe 4bc7 833d
00000170: c519 d03d 0389 4abe 0eda a03d 441d 1a3e
0.17236723 -0.043857392 0.42614582 -0.11333979 0.012163282 0.09707769 0.21109916 0.30147523
0.52947235 -0.17131291 -0.024390852 -0.1740108 -0.09955837 0.279644 -0.27371004 -0.29421797
-0.14764309 -0.50194234 0.31119928 -0.48155674 -0.013683896 0.094619386 -0.23803891 -0.52307945
-0.14270826 0.04730111 -0.20131803 0.5388164 0.4264606 -0.10983312 -0.07993757 -0.36931333
-0.17219782 -0.27924395 -0.16047642 -0.42757726 0.1675601 0.28048953 0.1439958 0.37140867
-0.40438783 0.43550205 -0.2823819 -0.56976837 0.20050538 0.46067625 -0.03486492 -0.23752023
0.105537735 -0.17182668 0.16630603 0.22693951 -0.101760425 0.30070096 -0.31005165 0.17452906
-0.28866795 -0.02580692 -0.16950537 0.16191393 0.22590822 -0.29824436 0.10917678 0.2591032
-0.2386067 -0.29318294 -0.05369652 -0.33363765 0.33752623 -0.05377357 -0.24471168 -0.094401136
0.05933683 -0.0019672012 0.13033734 -0.11561483 0.26965335 0.116946526 0.31905654 0.0664905
0.1908807 -0.23082569 0.17860827 -0.19303754 0.21436864 0.23673722 -0.3009962 0.0735532
0.14757559 0.022474134 -0.2483906 0.064344965 0.10161165 -0.19778828 0.07854091 0.15050226

lmbd.hidden_to_logvar.bias f4 [2]
00000000: 393b 4fbe 7c7a 1ebe
-0.20237435 -0.15476412
