trajectory_inference/RVAgene/models/microglia_2_trained_100_epochs.pt (torch, 234887 bytes, 23 tensors)

encoder.model.weight_ih_l0 f4 [192, 1]
0	0x3dc2f187	0.09518724
1	0x3ceca7e7	0.028888656
2	0xbdc867fa	-0.09785457
3	0xbd53bb99	-0.05169258
4	0xbe1e4661	-0.15456535
5	0x3e41dd44	0.18932062
6	0xbe801fda	-0.250243
7	0xbd4cd731	-0.05000991
8	0xbdf1ae50	-0.118008256
9	0xbd5d696c	-0.054055616
10	0xbe18ccb8	-0.14921844
11	0xbde55b25	-0.11199025
12	0xbd50b692	-0.050955363
13	0xbde14db1	-0.110011466
14	0xbe2ed2a1	-0.17072536
15	0x3d34e916	0.0441676
16	0x3d85adb5	0.065272726
17	0x3d8b7113	0.068086766
18	0xbe3436ec	-0.17599076
19	0xbe28b8ef	-0.16476797
20	0x3eab082f	0.3340468
21	0x3e6f9e1d	0.23400159
22	0x3e06abde	0.131515
23	0xbe2b9f09	-0.16759886
24	0xbe0456f9	-0.12923802
25	0xbd81e2fd	-0.06342123
26	0xbe851d59	-0.25998953
27	0x3c0025ae	0.007821484
28	0x3d7cbd35	0.06170388
29	0x3e29403b	0.16528408
30	0xbc758c43	-0.014987054
31	0x3da8e5f0	0.08246982
32	0x3e61e510	0.22060037
33	0x3df88a7f	0.12135791
34	0x3e0c30ab	0.1369044
35	0xbdd1bb96	-0.10240857
36	0x3e40d729	0.18832077
37	0xbe26b2e6	-0.16279182
38	0x3d854c90	0.06508744
39	0x3cd7931d	0.026315266
40	0xb8c79d1c	-9.518323e-05
41	0xbe2e086f	-0.16995405
42	0x3d69176a	0.056907095
43	0xbdbf4698	-0.093396366
44	0x3e2e24d1	0.17006232
45	0x3dcd6f1e	0.100309595
46	0x3e84489a	0.2583664
47	0xbda184f0	-0.07886684
48	0xbe056997	-0.1302856
49	0xbadab457	-0.0016685826
50	0xbd0f9b05	-0.035059948
51	0xbe699fc5	-0.22814853
52	0xbe9eac10	-0.30990648
53	0x3e38f046	0.18060407
54	0xbc99b5cc	-0.018763445
55	0xbd2dc471	-0.04242367
56	0xbe2f98ee	-0.17148182
57	0xbe822aa6	-0.25423163
58	0xbe8c32a7	-0.27382395
59	0xbdd3c923	-0.10341098
60	0xbc3f96d8	-0.011693679
61	0xbeb2144d	-0.34781113
62	0xbe809ffc	-0.25122058
63	0x3de07f6b	0.10961803
64	0xbad33489	-0.0016113679
65	0x3dd0be7d	0.10192583
66	0xbe54a18d	-0.20764752
67	0xbeb44fc9	-0.3521712
68	0x3e15aba3	0.14616255
69	0x3cd03945	0.025417933
70	0x3e68a374	0.22718602
71	0xbe849e34	-0.2590195
72	0x3d148973	0.036263894
73	0xbe111442	-0.14167884
74	0xbdef21a8	-0.11676341
75	0xbcbebf4b	-0.023284575
76	0xbe244555	-0.16042073
77	0xbd67d8ac	-0.05660312
78	0xbe0312ab	-0.1280009
79	0xbdee1300	-0.11624718
80	0x3e140f27	0.14458905
81	0x3d3085ac	0.04309623
82	0x3c6e2cc4	0.01453704
83	0xbe644b21	-0.22294284
84	0xbe08aa1e	-0.13346145
85	0xbe6d4e6b	-0.23174445
86	0xbe6d0a00	-0.23148346
87	0xbdc27c0d	-0.09496317
88	0xbe45a23a	-0.19300166
89	0xbe271a1e	-0.16318557
90	0xbe264fc0	-0.1624136
91	0xbd3fbcdd	-0.046810973
92	0xbea499c4	-0.32148564
93	0xbead0e73	-0.33800086
94	0x3e400584	0.18752104
95	0xbe850d98	-0.25986934
96	0xbe379419	-0.17927589
97	0xbe06bbc2	-0.13157561
98	0xbd8f6293	-0.070012234
99	0xbd9d0f84	-0.07668975
100	0x3dcd1918	0.10014552
101	0x3ced8333	0.028993225
102	0xbe4ab7d3	-0.19796686
103	0xbdb97ca2	-0.09056975
104	0xbe0cb4f2	-0.137409
105	0x3e4e772a	0.20162645
106	0x3eb794d9	0.3585575
107	0x3e3c116e	0.18366024
108	0xbe3bfc0f	-0.18357871
109	0x3d93f313	0.07224097
110	0x3e74d1c6	0.23908147
111	0x3c999ab7	0.018750532
112	0xbe6fcf02	-0.23418811
113	0x3e545cf2	0.20738581
114	0xbdac335b	-0.08408233
115	0xbe7d0583	-0.24709134
116	0x3cda0f47	0.026618613
117	0xbe828e51	-0.25499204
118	0x3cf846ac	0.030307136
119	0x3da04231	0.07825125
120	0x3e2a0add	0.16605707
121	0xbe503ee3	-0.2033649
122	0x3e92e45d	0.28689852
123	0xbeb89b7d	-0.36056128
124	0x3e0bb3c0	0.13642788
125	0x3d582c59	0.05277667
126	0xbe814be6	-0.25253218
127	0x3e2bc144	0.16772944
128	0x3d887cb5	0.06664411
129	0x3e835ba4	0.25655854
130	0x3e6b30cc	0.22967833
131	0xbddd83ee	-0.10816179
132	0x3d51c881	0.051216606
133	0xbe13259f	-0.1436982
134	0xbcda88df	-0.026676593
135	0x3e8e5603	0.27799997
136	0xbe861ecf	-0.2619538
137	0x3d84d295	0.06485478
138	0xbe585060	-0.2112441
139	0xbe309da2	-0.17247632
140	0x3d849ed9	0.0647561
141	0xbda617c9	-0.081100054
142	0x3c86e26b	0.016465386
143	0xbe66e41a	-0.22547951
144	0xbdc3dd14	-0.09563652
145	0xbe59f6e0	-0.21285582
146	0xbe278d45	-0.16362484
147	0xbe2ca9ea	-0.16861692
148	0xbe5a8aa1	-0.21341945
149	0x3e91b00e	0.28454632
150	0xbe24fb14	-0.16111404
151	0x3d44a409	0.048008
152	0xbdefcfde	-0.117095694
153	0xbdf57605	-0.11985401
154	0x3d707b01	0.058711056
155	0xbe516d22	-0.20451787
156	0xbe5cab95	-0.21549828
157	0xbea9e485	-0.3318216
158	0xbd07b439	-0.033130858
159	0x3d0a4061	0.033752803
160	0x3ba2c069	0.0049667847
161	0x3df1be22	0.11803843
162	0xbde43c87	-0.11144357
163	0xbe2692d4	-0.16266948
164	0x3e4f5cd1	0.2025025
165	0x3e035443	0.12825112
166	0x3e28169f	0.1641488
167	0xbe2b37b1	-0.16720463
168	0x3e281ae2	0.16416505
169	0x3c55f2d9	0.013058388
170	0xbd4dc165	-0.050233264
171	0x3d5422ad	0.051790882
172	0xbdfe7968	-0.124255
173	0x3dd44f57	0.103666954
174	0x3e04f752	0.1298497
175	0x3c19c5b5	0.009385516
176	0x3d8256be	0.06364201
177	0xbde3f469	-0.11130602
178	0x3da4f94d	0.08055363
179	0xbd4cf169	-0.050034914
180	0x3d11bae5	0.035578627
181	0xbd9d4f72	-0.076811686
182	0xbdc4ce86	-0.09609704
183	0xbd8fbadf	-0.07018065
184	0xbdbbc056	-0.091675445
185	0xbe20dea6	-0.15709934
186	0x3cd566f1	0.026050063
187	0xbe05e3f5	-0.1307524
188	0xbd0706a9	-0.032965336
189	0xbe3308a1	-0.1748376
190	0x3dd0aba1	0.101889856
191	0x3cf77a0c	0.030209564

encoder.model.weight_hh_l0 f4 [192, 48]
0	0xbe106f91	-0.14105059
1	0xbdc90770	-0.09815872
2	0x3e169ddf	0.1470866
3	0xbd99ca1e	-0.07509254
4	0x3cc5fa3f	0.024167178
5	0x3b99e196	0.0046960814
6	0xbdf3ff3b	-0.11913916
7	0x3d8db082	0.06918432
8	0xbda09bdc	-0.07842228
9	0x3d587d05	0.052853603
10	0xbcb0de02	-0.021590237
11	0x3cdc108b	0.026863357
12	0xbd53993c	-0.051659808
13	0xbd9721c5	-0.07379488
14	0xbe007ba9	-0.12547173
15	0xbcabeb2e	-0.020986166
16	0xbdd91ece	-0.10601579
17	0x3dcb260a	0.09919365
18	0x3d904ab5	0.07045499
19	0x3dad2185	0.08453659
20	0x3b603f0d	0.0034217269
21	0x3d7bcccb	0.061474603
22	0xbe0a3fa3	-0.13500838
23	0x3cfc7556	0.030817669
24	0xbd296f80	-0.0413661
25	0xbdedec54	-0.11617342
26	0xbd958019	-0.07299823
27	0x3db7e42e	0.08979069
28	0x3e313df4	0.1730879
29	0xbe4a0eb0	-0.19732165
30	0xbc472700	-0.012155294
31	0x3e11a561	0.14223243
32	0x3dfb1b8b	0.12261113
33	0x3e36eb5b	0.17863218
34	0xbdba9261	-0.09109951
35	0xbdf7e515	-0.12104241
36	0x3dcba7ab	0.099440895
37	0xbd213d0e	-0.039364867
38	0x3d2eca5c	0.042673454
39	0xbbf496b1	-0.007464253
40	0x3e459ce1	0.19298126
41	0x3de0fb97	0.10985487
42	0x3db64206	0.08899312
43	0x3dd38912	0.103288785
44	0xbc86c85c	-0.01645296
45	0x3e28632a	0.16444078
46	0xbe31955c	-0.17342132
47	0xbe167d45	-0.14696224
48	0xbd404f16	-0.046950422
49	0xbe5caaa4	-0.21549469
50	0xbd6d4247	-0.057924535
51	0xbd89179b	-0.066939555
52	0x3e1d65a7	0.15370809
53	0x3e4034d7	0.18770157
54	0x3d500eff	0.05079555
55	0xbdbad93d	-0.09123466
56	0xbd62b788	-0.05535081
57	0x3df9c3a7	0.12195521
58	0xbddc1438	-0.10746044
59	0xbdcaf541	-0.0991006
60	0x3bc5efd0	0.006040551
61	0x3d73d4cf	0.059529122
62	0x3dbf810a	0.09350784
63	0x3d24491d	0.04010879
64	0x3e2fa8f8	0.171543
65	0xbe2f200b	-0.17102067
66	0xbdf34bb3	-0.11879673
67	0x3cf64e9b	0.030066779
68	0xbce140ff	-0.027496813
69	0xbca8661a	-0.020556498
70	0xbe323dff	-0.17406462
71	0xbd071c58	-0.032986015
72	0x3d4e57f5	0.05037685
73	0x3cb7cdf6	0.022437077
74	0x3c320cf8	0.01086735
75	0x3e247126	0.16058788
76	0x3dae3eb8	0.085080564
77	0xbbccd0d5	-0.0062504807
78	0xbe22e7ef	-0.15908788
79	0xbd84ac31	-0.064781554
80	0x3db030b0	0.086030364
81	0x3d15020a	0.036378898
82	0xbd868eef	-0.06570231
83	0x3e4e2c41	0.20134069
84	0x3d03999a	0.032128908
85	0xbe184512	-0.14870098
86	0xbd6d5a85	-0.057947654
87	0x3d39fdd8	0.0454081
88	0xbda0b707	-0.0784741
89	0xbd75f8e3	-0.06005181
90	0xbc82b8b2	-0.01595721
91	0xbdcdbd10	-0.100458264
92	0x3e1d5f71	0.1536844
93	0x3d60baf0	0.054865777
94	0xbd5cef81	-0.053939346
95	0xbd605763	-0.05477084
96	0xbd48bb84	-0.049006954
97	0xbcc6e768	-0.024280265
98	0xbc8fd3a8	-0.01755698
99	0xbd761803	-0.060081493
100	0x3ddfb5c9	0.10923345
101	0x3dc3e4cc	0.09565124
102	0x3d2bae33	0.041914176
103	0x3e2dcf39	0.1697358
104	0xbd458eb2	-0.048231788
105	0x3ddf2cca	0.10897215
106	0x3d903459	0.070412345
107	0xbb45eb4a	-0.0030200058
108	0xbcc2a413	-0.023759877
109	0xbda06fba	-0.0783381
110	0x3d3f7f23	0.046752106
111	0xbd8ace6e	-0.067776546
112	0xbdde1047	-0.108429484
113	0x3c126072	0.008934127
114	0x3e45d54f	0.19319652
115	0xbe230385	-0.15919311
116	0x3d3e2452	0.046421356
117	0xbd5b349b	-0.053516965
118	0xbdf6b3ca	-0.12046011
119	0xbde3a963	-0.11116292
120	0xbdb34601	-0.087535866
121	0xbd633576	-0.055470906
122	0x3d900f2e	0.07034145
123	0x3cbfe03e	0.023422357
124	0x3c59027b	0.01324522
125	0xbcec7511	-0.028864415
126	0x3cac6a09	0.021046655
127	0xbd99ee6a	-0.07516177
128	0xbde762b0	-0.1129812
129	0xbdd64c5e	-0.10463785
130	0xbd755ca5	-0.059902806
131	0xbe139e63	-0.14415888
132	0x3dcafc60	0.09911418
133	0x3e68cbb6	0.2273396
134	0xbdd39901	-0.103319176
135	0xbd422d03	-0.047406208
136	0x3d9d05b5	0.07667104
137	0x3b7a0668	0.003815079
138	0x3db99cdf	0.09063124
139	0x3dc563c4	0.096381694
140	0xbe09bc5b	-0.13450758
141	0xbe1f2c83	-0.15544324
142	0xbe092d2f	-0.13396142
143	0x3c972c76	0.018453818
144	0xbdaf51db	-0.085605346
145	0xbdf9432a	-0.12171014
146	0x3b3daf52	0.002894361
147	0xbe112a5b	-0.14176314
148	0x3d9c727b	0.07639023
149	0x3dd71667	0.1050232
150	0xbe0d87ea	-0.13821378
151	0xbd9df318	-0.07712382
152	0x3ca86b60	0.020559013
153	0x3e249386	0.160719
154	0xbda095b8	-0.078410566
155	0x3d08dbc8	0.033412725
156	0x3e0d221b	0.13782541
157	0x3d0df560	0.034657836
158	0x3e1f90fa	0.15582648
159	0x3c10e43b	0.008843477
160	0xbbd012ac	-0.006349882
161	0x3d5123f9	0.051059697
162	0xbd0647a1	-0.032783154
163	0x3e09f40c	0.13472003
164	0xbdd39d3f	-0.10332727
165	0x3debeb75	0.11519519
166	0xbd69b110	-0.057053626
167	0xbd836181	-0.06415082
168	0x3cc2bd5b	0.023771932
169	0x3e000a5c	0.12503952
170	0x3cc5d2b4	0.024148323
171	0x3e22b900	0.15890884
172	0xbc91c24d	-0.017792845
173	0x3d9590cc	0.073030084
174	0x3df6e36a	0.120550945
175	0xbd9799c9	-0.07402379
176	0xbd251400	-0.040302277
177	0xbdc1d02c	-0.09463534
178	0x3da5d818	0.08097857
179	0x3ddf243d	0.10895584
180	0x3dfd154e	0.12357579
181	0xbdcc3b17	-0.09972208
182	0x3d6fca56	0.058542572
183	0x3d3fa432	0.04678745
184	0x3e1c4971	0.1526239
185	0x3cccf5fb	0.025019636
186	0x3ada9d3a	0.0016678937
187	0xbe28bae6	-0.16477546
188	0x3df75df8	0.1207847
189	0x3e2ee84b	0.170808
190	0xbdb08172	-0.0861844
191	0xbdbe8323	-0.09302356
192	0x3b126a71	0.0022341276
193	0x3c03dcc3	0.008048239
194	0xbd2f3990	-0.042779505
195	0xbe1dfd56	-0.15428671
196	0xbd75b84c	-0.059990212
197	0xbe7aea95	-0.24503548
198	0x3e4b095b	0.19827788
199	0x3c634a52	0.0138727
200	0x3e1ff0f2	0.15619257
201	0xbd8c220f	-0.06842434
202	0xbe0c0d1e	-0.13676879
203	0xbccc5f3b	-0.024947753
204	0xbdd0b234	-0.101902395
205	0x3e2aa8a9	0.16665901
206	0xbdcdd146	-0.10049681
207	0x3d19b58d	0.037526656
208	0xbe12565b	-0.14290754
209	0x3dfad890	0.12248337
210	0x3d97ed9f	0.074183695
211	0x3dfce6a1	0.123486765
212	0xbb8c5902	-0.0042830715
213	0xbd986f1a	-0.07443066
214	0x3e1dabf4	0.15397626
215	0x3dbc8544	0.09205106
216	0xbd89a599	-0.06721038
217	0x3e0137b3	0.12618904
218	0xbe03ee01	-0.1288376
219	0x3d6123e9	0.054965887
220	0xbe12f35f	-0.14350651
221	0x3c8eaeac	0.017417274
222	0x3de7c05b	0.11315986
223	0xbe3a87af	-0.18215822
224	0x3c385d22	0.011252673
225	0xbe145197	-0.14484249
226	0x3d6c30b4	0.057663634
227	0x3c8486bf	0.016177533
228	0xbe2c9674	-0.16854268
229	0x3d3fa39f	0.0467869
230	0xbe586a71	-0.21134354
231	0xbdb63c4c	-0.088982195
232	0x3e359a07	0.17734538
233	0xbd4fcfec	-0.0507354
234	0xbd2de827	-0.042457726
235	0x3e6d7f5e	0.23193118
236	0x3e2e4cbd	0.17021461
237	0xbe01bf4c	-0.1267063
238	0x3c90643f	0.017625926
239	0xbd19bc88	-0.037533313
240	0x3d544603	0.05182458
241	0x3d404164	0.04693736
242	0x3dcebbc3	0.100944065
243	0xbca18da6	-0.019720864
244	0x3e114d4f	0.14189647
245	0x3d9630b2	0.07333507
246	0xbcfe594b	-0.031048438
247	0xbd9c06dd	-0.076184966
248	0xbd40afe1	-0.04704273
249	0x3d95607d	0.07293794
250	0x3cbe4801	0.023227694
251	0x3df84d55	0.12124125
252	0x3dcc71c4	0.099826366
253	0x3dfbfca8	0.1230405
254	0x3dfc5c23	0.12322261
255	0x3e255e93	0.16149358

encoder.model.bias_ih_l0 f4 [192]
0	0xbd787853	-0.060661625
1	0x3da6e0b1	0.08148325
2	0x3d062c64	0.032757178
3	0xbda24954	-0.079241425
4	0x3e1a54fc	0.15071481
5	0xbd3be849	-0.04587582
6	0xbd9ce62b	-0.076610886
7	0xbcc51c5d	-0.024061376
8	0x3e3e6eb3	0.18596916
9	0x3e2e8974	0.17044622
10	0x3d9e0237	0.07715266
11	0x3d1192c4	0.035540357
12	0xbaafd0a2	-0.0013413618
13	0x3e0992a2	0.13434842
14	0x3d172740	0.036902666
15	0xbcd4431d	-0.025910908
16	0x3e34e2ce	0.17664644
17	0x3e1e2119	0.15442313
18	0x3e46726f	0.1937959
19	0xbbd1c172	-0.0064012343
20	0x3e0e28ee	0.13882801
21	0xbd7da43f	-0.061924215
22	0xbdbebf87	-0.09313875
23	0x3e553398	0.20820463
24	0x3e577318	0.21039999
25	0x3e224d6f	0.15849851
26	0x3ddfe337	0.1093201
27	0xbce55297	-0.027993483
28	0x3e42b4f3	0.19014339
29	0xbdd9926d	-0.106236316
30	0x3e81c43a	0.2534502
31	0x3e2d58bc	0.1692838
32	0x3d5463d7	0.051853027
33	0x3bfc767c	0.007704554
34	0x3d9edbb4	0.07756749
35	0x3dfd3fca	0.123656824
36	0x3d52c2fc	0.051455483
37	0x3dd19167	0.102328114
38	0xbd774c7a	-0.060375668
39	0x3e59f44b	0.21284597
40	0x3e1b018d	0.1513731
41	0x3e3692ab	0.17829387
42	0x3de21fe7	0.11041241
43	0xbc88c010	-0.016693145
44	0x3c734d1b	0.014849926
45	0x3e1d78e5	0.15378149
46	0x3c2534ec	0.010083418
47	0x3d69ea60	0.057108283
48	0x3d94d872	0.07267846
49	0x3e268a67	0.16263734
50	0x3d4f8028	0.05065933
51	0x3d8dca7c	0.069233865
52	0x3db2469b	0.08704873
53	0xbdb86f64	-0.09005621
54	0x3d43167f	0.047628876
55	0x3db5c240	0.08874941
56	0xbdf3014c	-0.11865482
57	0x3c9513e6	0.018197965
58	0x3e3a2c75	0.18181022
59	0x3e5388bf	0.20657633
60	0x3d9c8b4e	0.07643758
61	0xbe06616b	-0.131231
62	0xbcfc5843	-0.030803805
63	0x3cedee75	0.02904437
64	0x3e21fff7	0.15820299
65	0xbc6236e5	-0.013807033
66	0x3e15920e	0.14606497
67	0xbd758bb7	-0.059947696
68	0xbd841d2e	-0.06450878
69	0x3e1fb976	0.15598091
70	0x3e1b9cf9	0.15196599
71	0xbcb781fa	-0.022400845
72	0xbd062a16	-0.03275498
73	0xbd22e315	-0.039767344
74	0x3e074b1d	0.13212247
75	0x3d42978f	0.04750782
76	0x3d983a47	0.074329905
77	0x39f935b7	0.00047533002
78	0x3d8dca26	0.069233224
79	0xbd9ec41b	-0.07752248
80	0x3e392ea6	0.18084201
81	0x3dc7a5b2	0.09748401
82	0x3e0427fc	0.12905878
83	0x3e615217	0.22003971
84	0x3d295d3c	0.04134868
85	0x3e003381	0.12519647
86	0x3e2d257d	0.16908832
87	0x3e81df7c	0.25365818
88	0x3deafa24	0.11473492
89	0x3e1321c2	0.14368346
90	0xbd809ae1	-0.06279541
91	0x3de5fa74	0.11229411
92	0x3e5c3697	0.215052
93	0x3e4e1f6c	0.20129174
94	0xbe131925	-0.1436506
95	0x3e0f2eff	0.13982771
96	0x3d14ad10	0.036297858
97	0xbe27445a	-0.16334668
98	0x3d98045e	0.07422708
99	0xbdc65255	-0.09683672
100	0x3d937d07	0.072015814
101	0x3ca37a48	0.01995577
102	0x3df4cc2b	0.119530044
103	0xbe3d002c	-0.18457097
104	0x3d905b91	0.07048715
105	0x3c97f96d	0.018551553
106	0xbe2e24a4	-0.17006165
107	0x3ca57b3a	0.02020036
108	0x3c49e311	0.012322203
109	0x3d117575	0.035512406
110	0xbe079ed6	-0.13244185
111	0x3dfb35b4	0.122661024
112	0xbe05d7d3	-0.13070612
113	0x3d898feb	0.06716903
114	0xbe0669f2	-0.13126352
115	0xbbd66fca	-0.006544088
116	0x3da3f9d9	0.08006639
117	0x3ce7b9a9	0.028286772
118	0x3cc49281	0.02399564
119	0xbe2be298	-0.16785657
120	0xbd826ec4	-0.06368783
121	0x3d0d896c	0.034554884
122	0xbd09e6e2	-0.033667453
123	0x3d1001a5	0.03515782
124	0x3de32761	0.11091495
125	0xbdb38446	-0.087654635
126	0xbdc9b435	-0.09848825
127	0x3d314197	0.043275442
128	0x3dc73e9e	0.0972874
129	0xbcbdad4f	-0.023153929
130	0x3e26145e	0.16218707
131	0x3e5a33a5	0.21308763
132	0x3cf49535	0.029856304
133	0xbdc4504f	-0.0958563
134	0xbe126da6	-0.1429964
135	0x3d389f78	0.045073956
136	0x3d82a0f3	0.06378355
137	0xbdd91cbf	-0.10601186
138	0xbdfddcc2	-0.12395622
139	0x3d020cc2	0.031750448
140	0x3e08eec1	0.13372327
141	0xbdb9841d	-0.09058402
142	0x3d0c2ff2	0.03422541
143	0x3d465ca6	0.0484282
144	0xbca7a61d	-0.020464951
145	0x3e05f060	0.13079977
146	0xbde1ef63	-0.110319875
147	0x3c303738	0.010755353
148	0x3d94c046	0.07263236
149	0xbe225750	-0.1585362
150	0x3e1085cc	0.1411354
151	0xbd610b4f	-0.054942425
152	0xbc10e1d8	-0.008842908
153	0xbd2ff0cc	-0.04295425
154	0x3e4b1f81	0.19836237
155	0x3dcbdf9d	0.0995476
156	0x3dd745ed	0.10511384
157	0x3ca53154	0.020165123
158	0x3e5a6847	0.21328841
159	0x3ccbfe89	0.024901645
160	0x3e026caa	0.12736765
161	0x3e4736ba	0.1945447
162	0x3cdd17ac	0.026988827
163	0xba3ddea4	-0.0007242954
164	0xbdb08abe	-0.08620213
165	0x3de57dc8	0.112056315
166	0xbd9921bc	-0.074771374
167	0x3d81d36e	0.06339155
168	0x3dd91c52	0.10601105
169	0x3e24d820	0.1609807
170	0x3d5e725e	0.054308288
171	0x3cd8ea17	0.02647881
172	0x3de96b9d	0.11397479
173	0xbd590af6	-0.05298897
174	0x3deee340	0.11664438
175	0x3cfbbf72	0.030730937
176	0x3ddc634b	0.10761126
177	0x3e1906db	0.14944021
178	0x3db30fad	0.08743224
179	0x3dedbc29	0.11608154
180	0xbd49c6e2	-0.049261935
181	0xbd3809ad	-0.044931103
182	0xbe1fffed	-0.15624972
183	0x3de529da	0.11189623
184	0x3df9e7bf	0.12202405
185	0xbcb3a0bb	-0.021927228
186	0xbcbfd3d3	-0.023416435
187	0xbc080a2f	-0.008303209
188	0xbc8518f7	-0.016247256
189	0x3deead5e	0.11654161
190	0xbbbb2b56	-0.005711953
191	0x3e22cc3b	0.1589822

encoder.model.bias_hh_l0 f4 [192]
0	0x3db1b6c6	0.086774394
1	0x3e1ad23d	0.15119262
2	0x3daca21b	0.08429357
3	0x3b6fdf22	0.0036601503
4	0x3e145244	0.14484507
5	0xbdc21370	-0.09476364
6	0xbd05ccfd	-0.032666195
7	0xbd981c0e	-0.07427226
8	0x3e02dbdc	0.12779182
9	0x3e40f76d	0.18844385
10	0x3da57b26	0.08080129
11	0x3e0a4a05	0.13504799
12	0x3e4013da	0.18757573
13	0x3e0a056b	0.1347863
14	0x3e63361d	0.22188611
15	0xbd819089	-0.06326396
16	0xbcaee9aa	-0.021351654
17	0xbd13f1a8	-0.036119133
18	0x3df423bf	0.119208805
19	0x3d4da1d7	0.05020317
20	0xbda4ea4a	-0.080524996
21	0x3e3a8041	0.18212987
22	0x3da58975	0.080828585
23	0x3e12a65d	0.14321275
24	0x3cb1cba0	0.021703541
25	0xbd1889e8	-0.037240893
26	0x3e794fe7	0.24346887
27	0xbd1fee57	-0.039045658
28	0x3c6c36a3	0.014417323
29	0xbaf1d47c	-0.0018450166
30	0x3e12f9fa	0.14353171
31	0xbdbb501a	-0.091461375
32	0x3dc1e3ed	0.094673015
33	0x3e0534c7	0.13008414
34	0x3e086cf2	0.1332281
35	0x3e4e4919	0.20145072
36	0x3dcbb360	0.099463224
37	0x3d71b683	0.059011947
38	0x3dcacf46	0.099028155
39	0x3e9ba76c	0.3040117
40	0x3e85c5c9	0.2612746
41	0x3dc55299	0.09634895
42	0x3e426c4c	0.18986624
43	0x3e3c3c96	0.18382487
44	0x3e351e24	0.17687279
45	0xbd1b2da4	-0.037885323
46	0xbe176d0c	-0.14787692
47	0x3e2f4688	0.1711675
48	0xbd707f8b	-0.058715384
49	0xba79281e	-0.0009504574
50	0xbe047210	-0.12934136
51	0x3e3ed2e8	0.18635142
52	0x3e07bf06	0.13256463
53	0x3d111312	0.035418577
54	0x3d9bf202	0.07614519
55	0x3e2d100f	0.16900657
56	0xbd8fd885	-0.0702372
57	0x3cd92aa9	0.0265096
58	0x3e54f1ac	0.20795316
59	0xbd40aa5f	-0.04703748
60	0xbd941eb5	-0.072324194
61	0x3dfb5087	0.12271219
62	0x3e2c0724	0.16799599
63	0x3e2944f8	0.16530216
64	0x3e1c49e2	0.15262559
65	0x3d42cc1b	0.04755793
66	0x3e031483	0.12800793
67	0x3e237c55	0.15965398
68	0x3e21a7e7	0.15786706
69	0x3d2c0396	0.041995607
70	0x3cbf5069	0.023353772
71	0x3e1ab371	0.15107514
72	0x3e2115e0	0.15731001
73	0xbdabeb49	-0.083944865
74	0x3dcdf51b	0.10056516
75	0x3c98e062	0.018661682
76	0x3d7ce3bf	0.061740633
77	0xbb00db7a	-0.0019662068
78	0x3cc98445	0.024599204
79	0xbd28a6b8	-0.04117462
80	0xbc95d758	-0.01829116
81	0x3e687db2	0.22704199
82	0x3e27d605	0.16390236
83	0x3dd35e82	0.1032076
84	0xbdb322f4	-0.08746901
85	0x3deb870c	0.115003675
86	0x3cd3c615	0.025851289
87	0x3dd44289	0.10364253
88	0x3e36f0ff	0.1786537
89	0x3e4ae82e	0.19815132
90	0x3e27f06c	0.16400307
91	0x3d82df6e	0.06390272
92	0x3e512a45	0.20426281
93	0x3e507225	0.20356043
94	0x3cfdba54	0.030972637
95	0xbd936d82	-0.07198621
96	0xbde851ec	-0.1134375
97	0x3d96961d	0.073528506
98	0xbcb3db32	-0.021955106
99	0x3d8dcf44	0.069242984
100	0xbe2275ee	-0.15865299
101	0xbd8d541c	-0.06900808
102	0x3e14515e	0.14484164
103	0xbe02d073	-0.1277483
104	0x3e0d1fbf	0.13781641
105	0xbb8cd32b	-0.004297634
106	0xb88dcb69	-6.761292e-05
107	0xbe1cedfc	-0.15325159
108	0x3d922c2f	0.071373336
109	0x3de75a97	0.112965755
110	0x3d365161	0.044511203
111	0x3de8a9d5	0.11360518
112	0xbdd64f63	-0.104643606
113	0x3de3c74a	0.11121996
114	0xbdee4025	-0.11633328
115	0x3d5e3eb5	0.05425902
116	0x3dcbd591	0.09952844
117	0xbbcac0d7	-0.006187539
118	0x3e012202	0.12610629
119	0xbe7113b3	-0.23542671
120	0x3d376fec	0.04478447
121	0x3b29e977	0.002592651
122	0xbdfa0806	-0.122085616
123	0xbe062521	-0.13100101
124	0xbe187311	-0.14887644
125	0xbd09644d	-0.03354292
126	0x3dc56bef	0.09639727
127	0xbda5322e	-0.08066212
128	0x3e2f88e6	0.17142066
129	0x3d32bf89	0.043639693
130	0x3d420db7	0.04737636
131	0x3e31ab69	0.17350544
132	0xbe095566	-0.13411483
133	0x3db65b92	0.089041844
134	0xbe15c7c9	-0.14626993
135	0xbd854872	-0.065079585
136	0x3dd96d6d	0.106165744
137	0xbdb27348	-0.087133944
138	0xbe552080	-0.20813179
139	0x3e05f741	0.13082601
140	0x3e0763f4	0.13221723
141	0x3d0b8695	0.034063894
142	0x3e119910	0.14218545
143	0x3cefe98d	0.02928617
144	0x3e0b5171	0.13605286
145	0xbcc830b5	-0.024437288
146	0x3da140ac	0.07873663
147	0x3dbe4556	0.092905685
148	0x3db52710	0.08845341
149	0xbde9b0db	-0.11410686
150	0xbd357c15	-0.044307787
151	0x3daa9aec	0.0833033
152	0xbd168b0f	-0.03675371
153	0xbd3a447a	-0.04547546
154	0x3dd41f30	0.10357511
155	0xbdbbff08	-0.09179503
156	0xbd54c9ba	-0.051950194
157	0xbe0ddfd5	-0.13854916
158	0xbd728bce	-0.05921536
159	0x3e561600	0.2090683
160	0x3e813ccd	0.252417
161	0x3e09a85d	0.13443132
162	0xbd896a70	-0.067097545
163	0xbc33c9db	-0.010973419
164	0x3cf6c418	0.030122802
165	0xbca2b038	-0.019859418
166	0xbd196247	-0.03744724
167	0x3d857917	0.06517237
168	0x3d87b522	0.06626345
169	0x3e3dfa3b	0.18552487
170	0x3d6ba1c6	0.057527326
171	0xbd236117	-0.039887514
172	0x3e338d59	0.17534389
173	0x3d401b24	0.046900883
174	0x3db8bd9d	0.09020541
175	0x3dc9e416	0.09857957
176	0xb84a68f6	-4.8258305e-05
177	0x3c2f1f22	0.010688575
178	0x3e86d5e9	0.26335075
179	0x3d26d05b	0.040726047
180	0x3e12dd95	0.1434234
181	0x3d2f2424	0.042759076
182	0xbdf125c8	-0.11774784
183	0x3e3bec57	0.18351875
184	0x3e1d59d9	0.15366305
185	0x3d85814f	0.06518804
186	0x3d12051c	0.035649404
187	0x3c25adef	0.01011227
188	0x3e6e2458	0.23256052
189	0x3d6cf20e	0.05784803
190	0xbb82c1eb	-0.003990402
191	0x3e1e6c36	0.15470967

encoder.model.weight_ih_l1 f4 [192, 48]
0	0xbd4a76cf	-0.04942971
1	0xbdadc289	-0.0848437
2	0x3db98268	0.09058076
3	0xbc99ba53	-0.018765604
4	0xbd5cd7a3	-0.053916585
5	0x3b3b6cfb	0.0028598893
6	0xbcd137f4	-0.025539376
7	0x3e10990c	0.14120883
8	0xbd989641	-0.07450534
9	0xbdb9a57f	-0.09064769
10	0x3dd16ca1	0.102257974
11	0xbc976fe1	-0.018485965
12	0x3da3de37	0.080013685
13	0x3b38e127	0.0028210373
14	0x3dfe6646	0.12421851
15	0x3df2d1a7	0.11856394
16	0x3db107e7	0.086440854
17	0x3dbde34c	0.09271869
18	0x3dbf47c4	0.0933986
19	0x3e04ecdb	0.12980978
20	0xbd7bff1e	-0.061522596
21	0xbcbe838e	-0.02325609
22	0xbdb1793c	-0.08665702
23	0x3e0e56c7	0.1390029
24	0x3da47106	0.0802937
25	0x3d9c56ad	0.076337196
26	0xbcbf2a72	-0.02333567
27	0x3cbbc2f9	0.022920119
28	0x3d8f5427	0.06998473
29	0x3d73aea4	0.059492722
30	0x3d932e34	0.07186547
31	0x3e01946d	0.12654276
32	0x3dfa41f8	0.12219614
33	0xbd87e984	-0.066363364
34	0xbdecd24e	-0.1156355
35	0xbdf9e09b	-0.12201043
36	0x3d8192de	0.06326841
37	0xbdcd1077	-0.10012906
38	0xbddc60ca	-0.107606485
39	0xbd730182	-0.05932761
40	0x3dcbd40d	0.09952555
41	0x3b957c82	0.0045619616
42	0xbdc98588	-0.09839922
43	0xbe046956	-0.12930807
44	0xbdba9339	-0.09110112
45	0x3b332de7	0.0027340592
46	0xbd4efd3e	-0.05053448
47	0x3d575010	0.052566588
48	0xbded9279	-0.11600203
49	0xbbf3d20f	-0.0074408124
50	0xbdd05db7	-0.10174125
51	0xbbaafa14	-0.0052178
52	0x3d304a35	0.04303952
53	0x3d899c0e	0.06719218
54	0x3dc43255	0.095799126
55	0x3db43ef1	0.088010676
56	0xbd9e8a13	-0.07741179
57	0x3ddc48c9	0.1075607
58	0xbe0c207b	-0.13684265
59	0x3dcc4f5e	0.099760756
60	0xbd123cac	-0.035702392
61	0x3d966e1f	0.07345223
62	0x3d5ab78e	0.053397708
63	0x3e0dcc24	0.13847405
64	0x3ddba3e4	0.10724619
65	0x3d236417	0.039890375
66	0x3db03f6d	0.086058475
67	0x3de9d824	0.11418179
68	0x3e05c1aa	0.13062158
69	0x3b2b837d	0.0026170902
70	0x3e00f467	0.12593232
71	0xbe026ab2	-0.12736014
72	0xbda3c92b	-0.07997354
73	0x3acd28fa	0.0015652471
74	0x3c535f25	0.012901102
75	0x3de23979	0.11046118
76	0x3d1c6f37	0.038192
77	0x3d3d76ed	0.046255995
78	0x3d783bd3	0.060603928
79	0xbd95fb1e	-0.073232874
80	0x3ce505e2	0.027956907
81	0x3de291b3	0.11062946
82	0xbd3ba7cd	-0.045814324
83	0x3d4c8f79	0.049941514
84	0x3d50dd70	0.05099243
85	0xbdea811d	-0.11450408
86	0x3d8d456b	0.06898006
87	0xbc845189	-0.01615216
88	0xbca976a4	-0.020686455
89	0x3df2168e	0.11820708
90	0x3c5e8ff4	0.013584126
91	0xbce427a4	-0.027850933
92	0x3dda0375	0.106451906
93	0x3d33f77c	0.04393719
94	0x3d8b0539	0.067881055
95	0x3d404521	0.046940926
96	0xbe0a63d6	-0.13514647
97	0x3d9effdf	0.07763647
98	0x3dbe09ff	0.0927925
99	0x3df7d601	0.12101365
100	0x3dd92c27	0.106041245
101	0x3dd6d7db	0.1049039
102	0x39e1d33c	0.00043072726
103	0x3c993af2	0.018704865
104	0x3d911ee4	0.0708597
105	0xbd8c5cd6	-0.068536445
106	0xbe0fa49a	-0.14027634
107	0xbddaa179	-0.1067533
108	0xbd8923c0	-0.06696272
109	0xbc7f98d6	-0.015600404
110	0x3dfd8afd	0.123800255
111	0x3e0539f9	0.13010396
112	0xbdb492fe	-0.08817099
113	0x3c9f7465	0.01946468
114	0xbd54d905	-0.05196478
115	0xbde9c30a	-0.11414154
116	0x3dcf2dc4	0.10116151
117	0xbd46f2b8	-0.04857132
118	0xbc6cb2a4	-0.014446888
119	0xbdb5caf3	-0.088766
120	0xbdbf810c	-0.093507856
121	0xbdfbd065	-0.122956075
122	0x3dab70e7	0.08371144
123	0x3dd76d33	0.10518875
124	0x3dccdee3	0.1000345
125	0x3e1246b4	0.14284784
126	0x3cbb1ec9	0.022841828
127	0x3d36bf12	0.044615813
128	0xbdae5685	-0.08512596
129	0xbdf76a97	-0.12080877
130	0x3c87f48d	0.016596103
131	0xbd7e5369	-0.062091265
132	0xbd02b66d	-0.031912256
133	0x3e126643	0.14296822
134	0xbe02345c	-0.12715286
135	0x3d2428bb	0.040077906
136	0xbc150876	-0.0090962555
137	0xbcccbe18	-0.024992988
138	0xbd8d4850	-0.06898558
139	0x3e05fa0b	0.13083665
140	0xbdc851fb	-0.097812615
141	0x3d4666fb	0.048438054
142	0x3e116bc6	0.14201269
143	0xbcf6461b	-0.030062726
144	0x3df57ca4	0.11986664
145	0xbdee675d	-0.11640809
146	0x3dd4c90d	0.1038991
147	0xbdb2905b	-0.0871894
148	0x3c78fedc	0.015197482
149	0x3e086e4a	0.13323322
150	0xbdd6691d	-0.104692675
151	0x3e008ead	0.12554426
152	0x3cf8dcd5	0.030378738
153	0xbda43fae	-0.080199584
154	0xbdd0be47	-0.101925425
155	0xbdb14ac7	-0.08656841
156	0xbdb4900b	-0.088165365
157	0x3d23ffa6	0.040038727
158	0x3df6f1a5	0.12057809
159	0xbdc66c16	-0.096885845
160	0x3da71a4f	0.08159315
161	0x3dd237cb	0.10264548
162	0x3cbdc3f2	0.023164723
163	0x3db6e538	0.08930439
164	0xbd19f26f	-0.03758472
165	0xbda75b32	-0.08171691
166	0xbdbc81bd	-0.09204433
167	0xbbdbfce9	-0.006713499
168	0x3d81a40f	0.0633012
169	0x3e135d0d	0.14390965
170	0xbc97c02b	-0.01852425
171	0x3df7a136	0.120912954
172	0x3d9b88d8	0.0759446
173	0xbd9d0a12	-0.076679364
174	0xbd133ee0	-0.035948634
175	0x3d674a11	0.05646712
176	0xbdfb6f9c	-0.12277147
177	0xbda14c2e	-0.07875858
178	0x3cf8cfe1	0.030372562
179	0x3e0c0270	0.13672805
180	0xbd01744d	-0.031605054
181	0x3d59510e	0.053055815
182	0x3dae1f79	0.08502097
183	0x3db87094	0.090058476
184	0xbcf75d9e	-0.030196007
185	0xbcdab998	-0.026699826
186	0x3dade4cd	0.08490906
187	0xbe0d622c	-0.13806981
188	0x3d2244f2	0.039616533
189	0x3d3dae1e	0.04630863
190	0x3d915615	0.07096497
191	0x3cc53bf3	0.024076438
192	0xbe00d02a	-0.12579408
193	0x3cd62891	0.02614239
194	0x3e08e3ef	0.133682
195	0xbd2b7bbf	-0.04186606
196	0xbdffaf54	-0.12484613
197	0x3d2dd3e2	0.042438395
198	0x3c8ef091	0.017448695
199	0xbe132e97	-0.14373241
200	0xbc9d4635	-0.019198516
201	0x3d876e88	0.06612879
202	0x3e09981c	0.13436931
203	0x3d3ebf2f	0.046569046
204	0xbd394a29	-0.04523674
205	0xbde1c9ba	-0.110248044
206	0x3dee009a	0.116212085
207	0x3d2c3e22	0.042051442
208	0x3cfe4458	0.031038448
209	0xbcb8fc53	-0.022581255
210	0xbccad0f7	-0.024757845
211	0xbdd0bd69	-0.10192377
212	0x3dd17fbc	0.102294415
213	0x3d33a184	0.043855205
214	0xbdd508ab	-0.10402044
215	0x3e10e67e	0.14150426
216	0xbd59ec58	-0.05320391
217	0x3d09881a	0.033577062
218	0xbd76a2d8	-0.060213894
219	0x3d9e52c8	0.07730633
220	0xbdc21bff	-0.09477996
221	0xbcbdd740	-0.023173928
222	0x3e07c5f7	0.13259111
223	0x3c9a5ede	0.018844064
224	0xbdce013b	-0.100588284
225	0x3dc0129f	0.09378552
226	0x3e0e778a	0.13912788
227	0xbd79c774	-0.06098123
228	0xbdd38614	-0.10328308
229	0x3d5899a4	0.052880898
230	0xbdabfe21	-0.083980806
231	0xbd0421b5	-0.032258708
232	0x3db3c6f8	0.08778185
233	0x3c5b5748	0.013387509
234	0xbe0e4835	-0.13894732
235	0xbe058512	-0.13039044
236	0xbde7d322	-0.11319567
237	0xbd0560b1	-0.032562915
238	0x3d61d8d9	0.055138443
239	0x3dbdd002	0.0926819
240	0x3c2c7578	0.010526054
241	0x3da76368	0.08173257
242	0xbdb878c8	-0.09007412
243	0x3da66260	0.08124232
244	0x3d1e2b8f	0.03861576
245	0x3d42ec01	0.047588352
246	0xbdb1acd3	-0.08675542
247	0x3de87c27	0.11351805
248	0xbe000565	-0.12502058
249	0xbdc4436e	-0.09583174
250	0xbe0f6564	-0.14003521
251	0xbdb4d1a7	-0.088290505
252	0xbdfc6754	-0.12324396
253	0x3df0cc3f	0.11757707
254	0xbd526ce4	-0.051373377
255	0xbe10958e	-0.1411955

encoder.model.weight_hh_l1 f4 [192, 48]
0	0x3d3d064e	0.04614859
1	0x3db2df87	0.08734041
2	0xbdf32966	-0.118731305
3	0xbc3ef8f0	-0.011656031
4	0xbe0cbb5d	-0.13743348
5	0x3cc292c0	0.023751616
6	0x3d44d11f	0.048050996
7	0xbde1efc7	-0.11032062
8	0x3e052fbb	0.13006489
9	0x3cb22f6f	0.021751134
10	0xbd8ccda5	-0.06875161
11	0x3df29da7	0.11846476
12	0x3db11bc2	0.086478725
13	0x3e0ae8b3	0.1356533
14	0xbdcc55b1	-0.09977282
15	0xbc804606	-0.01565839
16	0xbe01d87d	-0.1268024
17	0x3e06f655	0.13179906
18	0xbdc39f63	-0.09551885
19	0x3d698052	0.05700714
20	0x3dd68970	0.10475433
21	0x3d6f954a	0.058491983
22	0x3e08bb47	0.1335269
23	0xbccb914b	-0.024849555
24	0x3dcb9c3f	0.09941911
25	0x3dbc2ed1	0.09188617
26	0xbd8fad0e	-0.070154294
27	0xbcb96e19	-0.022635506
28	0x3bab16a8	0.0052212067
29	0x3d66b23e	0.05632233
30	0xbd828862	-0.06373669
31	0x3bbe6535	0.0058104047
32	0x3d600781	0.054694656
33	0xbda00e59	-0.078152366
34	0x3e07f1f1	0.13275887
35	0xbc918c74	-0.017767169
36	0xbd1c8cee	-0.03822034
37	0xbd72bcdc	-0.05926214
38	0xbd7bedf0	-0.06150621
39	0xbc6b65ba	-0.014367515
40	0x3c4a38e8	0.012342669
41	0x3ddf9db2	0.1091875
42	0xbda03aac	-0.07823691
43	0xbd268a8e	-0.04065948
44	0xbb92d566	-0.0044810055
45	0xbd28f0bb	-0.041245203
46	0xbdf6c79b	-0.120497905
47	0x3dbe34fb	0.09287449
48	0x3e11afdd	0.14227243
49	0x3df47017	0.11935442
50	0x3be8c305	0.0071033263
51	0x3c902a1b	0.017598202
52	0x3da7d3dd	0.081947066
53	0x3e0dbb49	0.13840975
54	0x3df970dc	0.12179729
55	0xbdb3c14e	-0.08777104
56	0x3dd6b2b7	0.10483306
57	0x3dc52764	0.09626654
58	0x3d2283ef	0.039676603
59	0xbe0d4dda	-0.1379923
60	0x3d9955f7	0.074870996
61	0x3d8d4afc	0.06899068
62	0xbdf04a17	-0.117328815
63	0xbcd99767	-0.026561452
64	0x3d62c33c	0.05536197
65	0xbd2cdd16	-0.04220303
66	0x3d64cc26	0.055858754
67	0xbdfed3dc	-0.12442753
68	0x3c01c9c9	0.0079216445
69	0x3aff8818	0.0019495515
70	0x3d834a64	0.06410673
71	0x3dabf9ed	0.08397279
72	0xbcafaf39	-0.021445857
73	0xbdefdab0	-0.11711633
74	0x3da30f71	0.079619296
75	0xbde5dc86	-0.11223702
76	0x3dbc24ab	0.09186681
77	0x3de91f81	0.11382962
78	0x3e08c670	0.13356948
79	0xbe037269	-0.12836613
80	0xbe01611c	-0.126347
81	0x3da50f0a	0.08059509
82	0xbd765c1e	-0.060146444
83	0xbdd65102	-0.1046467
84	0x3d88f81d	0.06687949
85	0xbd348113	-0.044068407
86	0xbe094a54	-0.1340726
87	0x3c80e46f	0.015733926
88	0x3cf78611	0.030215295
89	0x3d1c8024	0.038208142
90	0x3e10dcca	0.14146724
91	0xbcc2d836	-0.023784738
92	0xbdf4c130	-0.1195091
93	0xbc5d093c	-0.013490971
94	0xbd30d382	-0.04317046
95	0xbd3e4652	-0.04645378
96	0x3cf4e7c3	0.029895669
97	0x3da2c9fb	0.07948681
98	0xbd2d5621	-0.042318467
99	0xbdf01a8a	-0.11723812
100	0xbdafbfcc	-0.08581504
101	0x3d48e387	0.049045112
102	0xbe11d23f	-0.14240359
103	0xbe000af2	-0.12504175
104	0x3e0dc621	0.13845111
105	0xbdc76d43	-0.09737637
106	0x3df1cddf	0.11806845
107	0xbdd077de	-0.10179113
108	0xbdb8256f	-0.08991515
109	0x3dee96c9	0.11649854
110	0xbbcd7a18	-0.006270658
111	0x3d9ed7d8	0.07756013
112	0xbdc7f13b	-0.09762808
113	0x399bc6bd	0.00029711975
114	0x3df34219	0.118778415
115	0x3d7b7d64	0.06139888
116	0xbde6f9e5	-0.11278132
117	0x3e0bf2a0	0.13666773
118	0x3daf0a95	0.0854694
119	0xbd8e822b	-0.06958421
120	0x3d09f484	0.033680454
121	0x3d482198	0.048860162
122	0x3d84c2d1	0.06482471
123	0xbda02ce3	-0.078210615
124	0x3daf54fc	0.08561131
125	0xbdb5da53	-0.08879533
126	0xbd8458ca	-0.06462248
127	0x3e0272c7	0.12739097
128	0xbd0d91cb	-0.034562867
129	0x3cb6764e	0.022273209
130	0x3c0562ce	0.008141233
131	0x3cee970a	0.029124755
132	0xbe0d9d60	-0.13829565
133	0xbd345d2c	-0.044034168
134	0xbdb9fa7a	-0.09080978
135	0xbcfdabd1	-0.030965718
136	0xbd14daec	-0.036341593
137	0xbda56872	-0.08076562
138	0xbe0e3d96	-0.1389068
139	0xbc590aac	-0.013247173
140	0xbd0fa199	-0.03506622
141	0xbde122d4	-0.10992971
142	0x3d8f5103	0.06997874
143	0xbdf8407d	-0.12121675
144	0x3df3f1c2	0.11911346
145	0x3cdfa75b	0.027301481
146	0xbd77f5f7	-0.060537305
147	0xbd408689	-0.047003303
148	0x3db08ff1	0.08621205
149	0xbd459cbf	-0.048245188
150	0xbdc4e7f4	-0.09614554
151	0x3e0dec98	0.13859785
152	0x3e0705c3	0.13185792
153	0xbcbb72c1	-0.022881867
154	0xbddc23cf	-0.107490174
155	0x3dacdc5f	0.0844047
156	0xbd0583c0	-0.03259635
157	0x3c35d5e0	0.011098355
158	0xbd4d8b40	-0.050181627
159	0x3d290b20	0.041270375
160	0xbe02ef97	-0.12786709
161	0xbd051f1c	-0.03250037
162	0x3c5710b3	0.01312654
163	0xbd3e943a	-0.04652808
164	0x3d75030b	0.059817355
165	0xbdbdd0c4	-0.092683345
166	0x3de13225	0.109958924
167	0xbd746a51	-0.059671704
168	0x3cfb678b	0.030689022
169	0xbce71f9d	-0.028213317
170	0xbd4d86f0	-0.050177515
171	0x3d1f3eaa	0.03887812
172	0x3dd67e24	0.10473278
173	0x3e07fa8a	0.13279167
174	0xbdf6e76c	-0.12055859
175	0xbdd0b3c9	-0.10190541
176	0x3da3a54d	0.07990513
177	0xbda157dd	-0.07878087
178	0xbcd631a9	-0.026146727
179	0x3d18083a	0.03711722
180	0x3de89717	0.11356943
181	0x3db286a9	0.08717091
182	0xbbc96131	-0.0061456193
183	0x3d9c5dc5	0.076350726
184	0x3d891324	0.06693104
185	0x3c2d86fd	0.010591266
186	0xbe0a0e3d	-0.13481994
187	0xbd803398	-0.06259841
188	0xbd1a4f3a	-0.037673213
189	0x3dce9730	0.100874305
190	0xbd7a2070	-0.06106609
191	0xbd2e4d41	-0.042554144
192	0x3b8afa33	0.004241252
193	0x3e03da03	0.12876134
194	0xbd5af09b	-0.053452116
195	0x3d57b576	0.05266329
196	0xbdbd6bd0	-0.09249079
197	0x3aaa8857	0.0013010603
198	0x3d634772	0.055488057
199	0x3caca08e	0.021072652
200	0xbdde07aa	-0.108413056
201	0x3e11f814	0.1425479
202	0xbd7c8166	-0.06164684
203	0x3e0e155e	0.13875338
204	0x3ced0b60	0.028936088
205	0x3bd02134	0.0063516144
206	0x3d0d68f6	0.034523927
207	0x3e0cf8e5	0.1376682
208	0xbbcffcf9	-0.0063472954
209	0xbded2008	-0.11578375
210	0xbd0e1f7f	-0.034698006
211	0xbdde433d	-0.108526684
212	0xbcb31c2f	-0.021864025
213	0xbdeee0a0	-0.116639376
214	0x3d3113c6	0.043231748
215	0x3e0dc31a	0.13843957
216	0x3d56623f	0.05233979
217	0xbd2117c5	-0.03932931
218	0x3c423d28	0.011855401
219	0x3da50844	0.08058217
220	0xbd078281	-0.033083443
221	0x3d392307	0.04519942
222	0xbc8747ec	-0.016513787
223	0xbd652620	-0.055944562
224	0x3dbe26f9	0.09284777
225	0x3bb6374e	0.005560792
226	0xbd016574	-0.031590894
227	0xbc9496e7	-0.018138362
228	0x3a674f5a	0.0008823775
229	0xbde704f2	-0.1128024
230	0xbd31d2e5	-0.043414015
231	0xbe0bdb75	-0.13657935
232	0x3d40c1c4	0.04705979
233	0x3d7b8019	0.06140146
234	0x3df567cd	0.11982689
235	0xbdfc3908	-0.12315565
236	0xbb8d43c7	-0.004311058
237	0xbdf37da8	-0.118892014
238	0xbdb66d7c	-0.08907601
239	0xbe083687	-0.1330205
240	0xbcfa8489	-0.030580776
241	0x3d557db1	0.05212182
242	0xbc9683c7	-0.018373383
243	0x3d52595a	0.051354744
244	0xbd58a158	-0.052888244
245	0x3d7ae6cb	0.061255258
246	0x3dfb5e8a	0.12273891
247	0x3e0d8214	0.13819152
248	0x3db65319	0.08902568
249	0x3c7f3fda	0.015579188
250	0xbdb25acc	-0.087087244
251	0xbd504c8a	-0.050854243
252	0x3dac897f	0.08424663
253	0xbdb08ecb	-0.086209856
254	0xbc522b33	-0.012827682
255	0xbdfa9a8e	-0.1223651

encoder.model.bias_ih_l1 f4 [192]
0	0x3d80857f	0.06275462
1	0x3dac78cf	0.0842148
2	0x3dcd7524	0.100321084
3	0xbce16ebe	-0.027518626
4	0xbbce7dc2	-0.0063016126
5	0xbd7a39ae	-0.061090164
6	0xbdd3f455	-0.10349337
7	0x38ae5c1a	8.314122e-05
8	0xbcc6f42e	-0.024286356
9	0xbdb0b5ad	-0.08628402
10	0xbdf1e7c5	-0.11811785
11	0xbdadc08b	-0.0848399
12	0xbde9c91a	-0.1141531
13	0x3d18c611	0.037298266
14	0xbd040cd5	-0.0322388
15	0xbe040136	-0.12891087
16	0xbdc8816f	-0.097903125
17	0x3dee0569	0.11622126
18	0x3e0237d9	0.12716617
19	0xbdcfc8b9	-0.10145707
20	0x3bf6f0f7	0.0075360495
21	0xbdda7088	-0.10665995
22	0x3da86e85	0.08224205
23	0x3dfddeb4	0.12395993
24	0xbd9104c7	-0.07080989
25	0x3afe3780	0.0019395202
26	0xbdb61325	-0.0889037
27	0x3d2fb696	0.042898737
28	0xbd9d9b85	-0.076956786
29	0xbc74ff94	-0.014953513
30	0xbe0bf6ba	-0.13668337
31	0xbc13716e	-0.008999212
32	0xbd49be6b	-0.049253862
33	0x3dfc3487	0.12314706
34	0x3b002194	0.0019551264
35	0xbcd16a1c	-0.025563292
36	0x3db3ecd3	0.08785405
37	0xbcfd3c3e	-0.030912515
38	0xbe1284ed	-0.1430852
39	0xbda56969	-0.08076746
40	0x3cac7ab4	0.021054603
41	0xbd1171a9	-0.035508785
42	0xbdd15e36	-0.102230474
43	0x3dd3ce36	0.10342066
44	0x3dc60004	0.09667972
45	0x3c7ea3e5	0.015542005
46	0x3cd9e3af	0.026597826
47	0xbdba4f03	-0.090971015
48	0x3e1234a6	0.14277896
49	0x3ddf53f7	0.10904687
50	0x3c334029	0.01094059
51	0xbd67c54b	-0.056584638
52	0x3dd7762b	0.105205856
53	0xbddd5dff	-0.10808944
54	0xbe06998b	-0.1314451
55	0x3da7867f	0.0817995
56	0xbd5e6418	-0.054294676
57	0x3de7f084	0.113251716
58	0xbc75fc07	-0.015013701
59	0xbd21b117	-0.039475527
60	0x3df79683	0.12089255
61	0x3e0cb3bf	0.13740443
62	0xbe0b5559	-0.13606776
63	0x3e108aff	0.14115523
64	0x3b6ce934	0.0036149742
65	0xbe0f4f13	-0.13995008
66	0x3d3b23d2	0.045688458
67	0x3804ca62	3.1659736e-05
68	0xbd9c77c9	-0.07640035
69	0xbd8a3de5	-0.06750087
70	0xbdb6ac02	-0.08919527
71	0x3dd5235f	0.10407137
72	0x3da1cf16	0.07900827
73	0x3d09b4e1	0.033619765
74	0xbe13037c	-0.14356798
75	0x3dee1fa3	0.11627128
76	0x3dae3dd6	0.08507888
77	0xbcbc3a0d	-0.0229769
78	0xbcf97b9b	-0.030454447
79	0xbde2139c	-0.110388964
80	0xbd4e7100	-0.050400734
81	0x3d5b1237	0.053484168
82	0xbd3c1bf5	-0.0459251
83	0xbdd0c989	-0.1019469
84	0x3deb6717	0.11494272
85	0xbe002eef	-0.12517904
86	0xbdebaac2	-0.11507179
87	0xbe003db1	-0.12523533
88	0xbd829d70	-0.06377685
89	0xbda72d12	-0.08162893
90	0xbd46669a	-0.048437692
91	0x3d99189c	0.07475397
92	0x3dcbe97e	0.099566445
93	0x3db5da29	0.088795014
94	0xbdcd8fdc	-0.100372046
95	0x3dbb4e69	0.09145815
96	0xbdb8a53a	-0.090158895
97	0x3dbc18c8	0.09184414
98	0x3cf4cd5a	0.029883076
99	0x3da26d17	0.079309635
100	0xbd35a316	-0.044344984
101	0x3c54d261	0.012989611
102	0x3db64068	0.08899003
103	0xbd9fece6	-0.07808857
104	0x3de5fb62	0.11229588
105	0x3dab367e	0.08360003
106	0xbddf6b01	-0.10909081
107	0x3dca86d9	0.098890014
108	0x3e011696	0.12606272
109	0x3d22048e	0.039555125
110	0xbdb9e36b	-0.0907658
111	0x3cc40fcd	0.023933316
112	0x3e01bef7	0.12670504
113	0xbd832ff6	-0.06405632
114	0xbcae1f8e	-0.02125528
115	0xbe0ecfe6	-0.13946494
116	0x3e065660	0.13118887
117	0x3d84fabf	0.064931385
118	0x3d931bb1	0.07183016
119	0x3e06bf92	0.13159016
120	0xbcf4c4b1	-0.029878946
121	0xbe08ed90	-0.13371873
122	0x3c4f4c3b	0.012652452
123	0x3c909d81	0.017653229
124	0xbd517731	-0.05113906
125	0xbdde91e0	-0.10867667
126	0xbd904f1a	-0.070463374
127	0xbd16193d	-0.036645163
128	0x3dfbae91	0.12289155
129	0xbc817a5d	-0.015805418
130	0xbd878a76	-0.06618206
131	0x3cae03bc	0.021242015
132	0x3e0d7ea4	0.13817841
133	0xbdab959a	-0.083781436
134	0x3d6b85f8	0.05750081
135	0xbdfb2ba9	-0.12264187
136	0xbd6f603f	-0.058441397
137	0xbdeb5b56	-0.1149203
138	0x3d2fb2b5	0.042895038
139	0x3c01047a	0.007874602
140	0x3cb515d5	0.022105137
141	0xba652768	-0.0008741529
142	0x3d892986	0.06697373
143	0x3dade215	0.08490387
144	0xbd84356d	-0.06455503
145	0x3e07e08b	0.1326925
146	0x3d96ea37	0.07368892
147	0xbd0f9526	-0.03505435
148	0x3d950dad	0.07277999
149	0xbdda6441	-0.10663653
150	0x3d8b97ef	0.068160884
151	0xbdab2d9b	-0.08358308
152	0xbdd42d67	-0.10360222
153	0xbd72a7ad	-0.05924194
154	0x3be186e2	0.0068825344
155	0x3dded18e	0.10879813
156	0xbc367eae	-0.011138601
157	0xbc00487a	-0.00782978
158	0x3d86a912	0.06575216
159	0x3deb9d5a	0.11504622
160	0x3ca87b3d	0.020566577
161	0xbcdbf32b	-0.02684935
162	0x3bbf103f	0.005830794
163	0x3e0c7670	0.13717055
164	0x3e0aae82	0.13543132
165	0xbc83c61b	-0.016085675
166	0x3b9b26ab	0.004734834
167	0xbe093b93	-0.13401632
168	0xbdcc0b0b	-0.09963044
169	0xbdcc6330	-0.09979856
170	0x3d2b512f	0.04182547
171	0xbda558fc	-0.08073613
172	0x3ca3d5ef	0.019999472
173	0x3c1c4ed9	0.009540283
174	0x3db22e73	0.08700266
175	0x3d864fd1	0.065581925
176	0xbd916394	-0.07099071
177	0x3c78d88a	0.015188346
178	0xbd493d20	-0.04913056
179	0x3d420473	0.047367524
180	0x3d8eff3c	0.06982276
181	0xbcf6f5cd	-0.030146504
182	0x3e027ae4	0.12742192
183	0xbd5c9452	-0.053852387
184	0xbdd479d6	-0.10374801
185	0x3dca6121	0.09881807
186	0x3e07e5eb	0.132713
187	0x3dc3a950	0.09553778
188	0xba82d417	-0.0009981421
189	0xbe045099	-0.1292137
190	0x3dadd767	0.0848835
191	0xbe05fa09	-0.13083662

encoder.model.bias_hh_l1 f4 [192]
0	0xbd8cca94	-0.06874576
1	0x3d4b581e	0.049644582
2	0x3dfafeda	0.1225564
3	0xbe0fc6aa	-0.14040628
4	0xbdee76e1	-0.11643768
5	0xbd9896a0	-0.074506044
6	0x3cd4b27b	0.025964012
7	0xbdb10e43	-0.08645298
8	0xbdeed2a4	-0.1166127
9	0xbdbe8944	-0.09303525
10	0x3d046b69	0.032328997
11	0xbbc71856	-0.006075899
12	0xbd7fd94d	-0.062463094
13	0xbde1453e	-0.10999535
14	0x3df9fdff	0.12206649
15	0x3d80a878	0.06282133
16	0x3ce25589	0.027628677
17	0x3cf93014	0.030418433
18	0x3d1965ec	0.037450716
19	0x3d6c5ff4	0.057708696
20	0x3dab9a90	0.0837909
21	0x3cb4c9ea	0.022068936
22	0x3d116446	0.03549602
23	0x3df7c99e	0.12099002
24	0x3e130c46	0.1436015
25	0x3d8fb819	0.07017536
26	0x3d45a82f	0.048256095
27	0x3db3861c	0.08765814
28	0x3d8c49a4	0.06849983
29	0xbd61cb68	-0.055125624
30	0x3d6952a3	0.056963574
31	0xbd95bcb8	-0.07311386
32	0xbca6d218	-0.020363852
33	0xbe040d33	-0.1289566
34	0x3c0dfdaf	0.00866644
35	0x3a1b3b05	0.00059215754
36	0x3db69af8	0.08916277
37	0xbdf16099	-0.11786003
38	0x3db4987a	0.08818145
39	0xbd301415	-0.0429879
40	0x3d9f34fa	0.07773776
41	0xbdfaf746	-0.12254195
42	0xbd36dad2	-0.044642277
43	0x3b83f47a	0.0040269466
44	0x3d989cab	0.07451757
45	0xbc783256	-0.01514872
46	0x3d06983a	0.03286002
47	0xbd89c79e	-0.06727527
48	0xbdd69128	-0.10476905
49	0xbaf9fd8b	-0.0019072754
50	0xbd63df25	-0.05563273
51	0xbcf6ce41	-0.030127646
52	0xbd7b5945	-0.06136443
53	0xbc9af72e	-0.018916693
54	0xbda4be03	-0.08044054
55	0x3e026765	0.12734754
56	0x3cc5c9d6	0.024144094
57	0x3dd98e01	0.10622788
58	0x3d439b85	0.047755737
59	0xbcab9d78	-0.02094911
60	0x3e1323c7	0.14369117
61	0xbddffb41	-0.10936595
62	0xbe033609	-0.12813582
63	0x3dd10e8c	0.10207853
64	0x3d229393	0.03969152
65	0xbdc19b18	-0.0945341
66	0x3dc5d92c	0.09660563
67	0x3cf6f8f1	0.030148001
68	0xbdad3612	-0.08457579
69	0x3dcb8598	0.0993759
70	0xbd5a8f60	-0.05335939
71	0x3dfdbb9a	0.12389298
72	0x3dd58c9c	0.1042721
73	0xbdf5a5db	-0.11994525
74	0xbd4accbe	-0.049511664
75	0xbc8cac39	-0.017171966
76	0xbd24f963	-0.040276896
77	0x3dc43cc8	0.095819056
78	0x3e03a02c	0.1285407
79	0xbdee9ad4	-0.11650625
80	0xbc522772	-0.012826787
81	0xbdd93af4	-0.106069475
82	0x3e07c7b8	0.1325978
83	0x3a663b61	0.0008782652
84	0xbd361de2	-0.044462092
85	0x3dc71b8f	0.09722053
86	0x3d010d64	0.03150691
87	0x3d642923	0.055703294
88	0xbdfc2ca5	-0.12313203
89	0xbda470b6	-0.080293104
90	0x3cbe8c2e	0.023260202
91	0x3d1436b8	0.036184996
92	0xbc6a227c	-0.014290448
93	0xbd07d98a	-0.033166446
94	0x3e1369b7	0.14395796
95	0x3de610ff	0.112337105
96	0x3da5f26a	0.081028774
97	0x3d0f4fc2	0.034988172
98	0xbda63bd7	-0.08116882
99	0xbd8da31a	-0.06915875
100	0xbdca8f2a	-0.09890588
101	0xbe062196	-0.1309875
102	0xbd855a71	-0.06511391
103	0x3cbe6e3b	0.023245921
104	0xbe0b55ae	-0.13606903
105	0x3e0a44ff	0.13502882
106	0xbd3e789f	-0.046501752
107	0x3d399868	0.04531136
108	0xbd919a11	-0.07109464
109	0x3dee44d0	0.11634219
110	0xbd188874	-0.037239507
111	0x3d920613	0.07130065
112	0x3d3a3db6	0.04546901
113	0xbcf01dfa	-0.029311169
114	0x3c755236	0.014973214
115	0x3da7a4c1	0.08185721
116	0x3cda242b	0.026628574
117	0xbc18999d	-0.009313968
118	0xbe0577bc	-0.13033956
119	0x3d34f504	0.044178978
120	0xbd25e0a2	-0.04049743
121	0x3d64cb03	0.05585767
122	0x3df0015d	0.1171901
123	0xbcb77eea	-0.022399385
124	0x3d1e9630	0.03871745
125	0xbdf2b5fa	-0.118511155
126	0x3e0e59a4	0.13901383
127	0xbd87bcfb	-0.06627842
128	0xbcf356f9	-0.029704558
129	0xbdc1ce04	-0.094631225
130	0xbdb2a559	-0.08722944
131	0x3e0c983a	0.13729945
132	0x3db3a21c	0.08771154
133	0xbdffc93c	-0.12489554
134	0xbd99ba27	-0.07506209
135	0xbca96ed8	-0.020682737
136	0xbdbdcd52	-0.09267677
137	0xbd24cae9	-0.040232573
138	0x3d5e3919	0.05425367
139	0xbd94fd28	-0.07274848
140	0xbdca3274	-0.098729044
141	0xbe0a906e	-0.13531658
142	0x3c4d8457	0.012543759
143	0xbb9cf5d9	-0.0047900495
144	0x3b88c011	0.0041732867
145	0xbddf25f5	-0.108959116
146	0x3ca42822	0.020038668
147	0xbe0dd7c5	-0.13851841
148	0x3df26427	0.11835509
149	0x3ced07d6	0.0289344
150	0xbe096dff	-0.13420866
151	0x3de1178d	0.1099082
152	0x3cb49da3	0.022047823
153	0x3c50f79d	0.012754348
154	0xbda15d5e	-0.078791365
155	0x3c1d19b7	0.00958865
156	0x3da73b35	0.0816559
157	0xbcd7737f	-0.02630019
158	0xbdcf76bf	-0.10130071
159	0x3dfcef6e	0.12350355
160	0x3a132942	0.0005613753
161	0x3dbb5567	0.091471486
162	0xbdf3c0bf	-0.11901998
163	0x3dad12fd	0.08450887
164	0x3e05ec9a	0.13078538
165	0x3dc0c771	0.094130404
166	0xbdc4951b	-0.09598752
167	0x3d3ed9cc	0.046594426
168	0xbda6f616	-0.08152406
169	0xbd740e89	-0.059584174
170	0xbdf448db	-0.119279586
171	0xbd8ae09e	-0.067811236
172	0xbe00cecb	-0.12578885
173	0xbdfc4155	-0.123171486
174	0xbd10e428	-0.035373837
175	0x3e01577a	0.12631026
176	0xbe0a25e4	-0.13491017
177	0xbd3a082e	-0.045417957
178	0x3d52d847	0.05147579
179	0xbdeeacdc	-0.11654064
180	0xbdbb1465	-0.09134749
181	0xbc30f8f7	-0.010801545
182	0xbdba099f	-0.09083866
183	0x3e084055	0.1330579
184	0xbd4fe0ca	-0.050751485
185	0x3df611e5	0.12015132
186	0xbd9cd8ac	-0.076585144
187	0xbd5c857d	-0.05383824
188	0x3d83ee5a	0.06441946
189	0xbcc17da8	-0.023619488
190	0xbdcdaba8	-0.100425065
191	0xbd7c9a8c	-0.061670825

lmbd.hidden_to_mean.weight f4 [2, 48]
0	0x3eb3cca1	0.35117057
1	0x3e96c8ab	0.29449973
2	0xbe944b6b	-0.2896379
3	0xbe6f108b	-0.23346154
4	0xbe9419a4	-0.28925812
5	0x3e123013	0.14276151
6	0x3e801b0e	0.2502064
7	0xbd9940e0	-0.07483077
8	0x3ec6d2c8	0.38832688
9	0xbe472728	-0.1944853
10	0xbe023713	-0.12716322
11	0x3e3ba272	0.18323687
12	0x3e385438	0.18000877
13	0xbe600029	-0.21875061
14	0xbeaddfe9	-0.33959892
15	0xbdf35b5b	-0.11882659
16	0x3d7c45cc	0.06159
17	0xbe9541fc	-0.29151905
18	0x3c8c8b83	0.017156368
19	0x3eb573da	0.3543995
20	0xbe554e40	-0.20830631
21	0x3e9e3eab	0.30907187
22	0xbe9e913f	-0.3097019
23	0xbe7b3884	-0.24533278
24	0xbdee46a0	-0.116345644
25	0x3e9db893	0.3080488
26	0xbc952a7e	-0.018208738
27	0x3cc377a9	0.02386077
28	0x3c6bec26	0.014399564
29	0xbe616de9	-0.22014584
30	0x3dd063d1	0.101752885
31	0x3e171d88	0.14757359
32	0xbe318a9e	-0.17338035
33	0xbec942fa	-0.39308912
34	0xbe81c4b1	-0.25345376
35	0x3ea8f440	0.32998848
36	0xbe873293	-0.26405773
37	0x3eb551c2	0.3541394
38	0xbe97dc47	-0.29660246
39	0xbe7b7460	-0.24556112
40	0x3eb2f7de	0.34954733
41	0xbeaa50ac	-0.33264673
42	0x3e8454b9	0.25845888
43	0xbe29bba6	-0.16575488
44	0xbe2da9ab	-0.16959254
45	0x3d840424	0.06446102
46	0xbd0447ed	-0.032295156
47	0x3eb6d76e	0.35711235
48	0xbe606a5e	-0.21915576
49	0x3e7f4551	0.24928786
50	0xbe9f17d1	-0.31072858
51	0xbee491e9	-0.4464257
52	0x3e1c58ef	0.152683
53	0xbe78b604	-0.24288183
54	0x3e5d5fdd	0.216186
55	0x3e3d00bc	0.18457311
56	0x3e35526b	0.17707221
57	0x3e89df91	0.2692838
58	0x3d8ce7b7	0.068801336
59	0x3e6285ca	0.22121349
60	0xbd325a3b	-0.04354308
61	0x3eb849e6	0.3599388
62	0x3e8bbadf	0.2729101
63	0x3e466817	0.19375645
64	0xbe2eafa5	-0.1705919
65	0x3e98cb42	0.29842573
66	0x3e56dccf	0.2098267
67	0xbe844173	-0.25831184
68	0x3e20f118	0.1571697
69	0x3e270b6b	0.1631295
70	0x3e0cae48	0.13738358
71	0x3e0ca54b	0.1373493
72	0xbdfac769	-0.12245066
73	0x3d3896b3	0.045065593
74	0x3e94faa7	0.29097483
75	0x3c444cbf	0.011981188
76	0x3ec01488	0.37515664
77	0x3e3f6ca2	0.18693784
78	0xbda858b9	-0.082200475
79	0x3eafb9e1	0.34321502
80	0x3eaa02b3	0.33205184
81	0x3e3f8d52	0.18706253
82	0xba67833a	-0.0008831505
83	0x3ebf91d1	0.37415937
84	0xbe25a833	-0.16177444
85	0x3d975c95	0.073907055
86	0xbc71b0d6	-0.014751634
87	0x3dd9a6e8	0.10627538
88	0x3e6dc684	0.23220259
89	0x3e5ce5c4	0.21572024
90	0x3e43d2f3	0.1912344
91	0xbe90ca76	-0.28279465
92	0x3da8d2a9	0.08243305
93	0x3e262dcf	0.16228412
94	0x3e5f90fa	0.21832648
95	0xbd820da7	-0.0635026

lmbd.hidden_to_mean.bias f4 [2]
0	0x3c8fdc86	0.017561208
1	0xbda97c79	-0.082756944
