trajectory_inference/RVAgene/models/microglia_pseudotime_DEGs_trained_100_epochs.pt (torch, 234887 bytes, 23 tensors)

encoder.model.weight_ih_l0 f4 [192, 1]
0	0x3e27758b	0.16353433
1	0x3f18bdd0	0.5966463
2	0xbddc4d5e	-0.10756944
3	0xbeecf855	-0.46283212
4	0xbe7d58a4	-0.24740845
5	0xbe2cadb8	-0.16863143
6	0xbdd2ec84	-0.10299018
7	0xbe7ab9d3	-0.24484949
8	0xbf8e217d	-1.110397
9	0xbe3d3400	-0.18476868
10	0x3f6c7df5	0.92379695
11	0xbe2ba2f1	-0.16761376
12	0xbee3a53a	-0.44461995
13	0x3c83b470	0.01607725
14	0xbd3e0c9c	-0.046398744
15	0xbd162bfa	-0.036663033
16	0xbe77e742	-0.24209312
17	0xbe86bf84	-0.2631799
18	0xbe8a3a98	-0.26997828
19	0x3f25b114	0.64723325
20	0xbc87b852	-0.016567383
21	0xbf2dd5b7	-0.6790423
22	0xbe05e1d5	-0.1307443
23	0xbe169c6a	-0.14708105
24	0x3dc28684	0.09498313
25	0xbda271d1	-0.07931865
26	0xbe567307	-0.20942317
27	0xbeeec966	-0.4663803
28	0xbea5cf0a	-0.3238452
29	0x3dbbfac4	0.09178689
30	0x3eebc992	0.46052223
31	0xbdf74d0b	-0.12075242
32	0xbef7a990	-0.48371553
33	0x3eb03f81	0.3442345
34	0xbe23440e	-0.1594393
35	0x3f171fca	0.5903288
36	0xbecf792b	-0.4052213
37	0xbdc40b50	-0.0957247
38	0xbc8fe486	-0.017565023
39	0x3f4875a4	0.78304505
40	0x3f009968	0.5023408
41	0x3c1ef5c5	0.009702151
42	0xbd05f15f	-0.032700893
43	0xbdf75c9c	-0.12078211
44	0x3f2f72b1	0.6853438
45	0xbe27f136	-0.16400608
46	0xbe1cd737	-0.15316473
47	0xbe86b4c2	-0.26309782
48	0x3e221b4b	0.15830724
49	0x3ed4eb2d	0.41585675
50	0xbeacaf42	-0.3372746
51	0x3eca7ad9	0.3954685
52	0x3f0ca848	0.54944277
53	0x3e414a91	0.18876101
54	0xbe106962	-0.141027
55	0x3ee4ceb3	0.4468895
56	0x3faae58b	1.3351301
57	0xbe2d9ab7	-0.1695355
58	0x3f28f047	0.65991634
59	0xbf32848f	-0.6973352
60	0x3f0c6883	0.5484697
61	0xbf104eee	-0.5637044
62	0xbb1c31a9	-0.002383331
63	0x3e8da28b	0.27663073
64	0xbe15ce97	-0.14629589
65	0xbe04e405	-0.12977608
66	0xbea011cd	-0.3126358
67	0x3e12aad9	0.14322986
68	0xbf0629c4	-0.5240748
69	0xbf0b0e1d	-0.5431841
70	0xbec8b9f7	-0.3920438
71	0xbeac5fa8	-0.3366673
72	0xbea4c1b3	-0.3217903
73	0xbefe8f5c	-0.4971875
74	0xbf111e72	-0.5668708
75	0xbf201da2	-0.62545216
76	0xbf0f1df3	-0.55905074
77	0x3e06503b	0.13116543
78	0x3f43f243	0.7654154
79	0xbf08a02b	-0.53369397
80	0xbf18cebc	-0.5969045
81	0x3eba0f2f	0.3633971
82	0xbe97cd7d	-0.29648963
83	0xbc24870d	-0.010041964
84	0xbf0dff10	-0.5546732
85	0xbeeffe09	-0.468735
86	0xbeae76af	-0.34074923
87	0x3f79167b	0.9729993
88	0x3e453b40	0.19260883
89	0x3eb525fc	0.35380542
90	0xbe13fdf5	-0.14452346
91	0x3ebfa081	0.37427142
92	0x3f0b2cdf	0.5436534
93	0x3e0ae0c1	0.135623
94	0xbe382419	-0.1798252
95	0xbe14535b	-0.14484923
96	0xbd9e498b	-0.07728871
97	0xbf033a9c	-0.51261306
98	0x3e34dfb9	0.17663468
99	0xbf45ff6e	-0.7734288
100	0x3e47a5ef	0.19496892
101	0x3f5ca9ec	0.8619678
102	0x3ea73a2d	0.32661572
103	0x3e0ebe09	0.1393968
104	0xbf5d2fb9	-0.86400944
105	0x3e9bcfb5	0.30431905
106	0x3e7c6c13	0.24650602
107	0x3e9a8b5b	0.30184445
108	0xbf5fa565	-0.8736175
109	0xbe3a8689	-0.18215384
110	0x3cae2ea4	0.021262474
111	0xbe3c2bec	-0.1837613
112	0xbe935e55	-0.28782907
113	0xbca1660d	-0.019701982
114	0xbe1e2e40	-0.1544733
115	0x3db85c62	0.090019956
116	0x3df6bacd	0.12047348
117	0xbf3662bc	-0.71244407
118	0x3f39a05e	0.72510326
119	0x3f07f352	0.5310565
120	0x3d990104	0.07470897
121	0x3e78c35b	0.24293272
122	0xbd8bc962	-0.0682552
123	0xbeac26ac	-0.33623254
124	0xbd89f178	-0.0673551
125	0x3d03a832	0.032142825
126	0x3ef119a7	0.47089884
127	0x3d99fa1a	0.07518406
128	0xbeefc8b3	-0.4683281
129	0xbddf3cac	-0.10900244
130	0x3ce59224	0.028023787
131	0x3ecc9b16	0.3996207
132	0xbead2c92	-0.33823067
133	0x3ebc769b	0.3680924
134	0x3f106c69	0.5641542
135	0xbf447fde	-0.7675761
136	0x3e802d3c	0.2503451
137	0x3ed92486	0.42410678
138	0xbe47c57a	-0.19508925
139	0xbf662a35	-0.8990815
140	0xbf538aba	-0.82633555
141	0xbe261993	-0.16220693
142	0x3ec9481c	0.39312828
143	0xbe5739ed	-0.2101819
144	0xbdb6adf5	-0.089198984
145	0x3e7138ca	0.2355682
146	0xbded5085	-0.115876235
147	0xbe1ccffd	-0.15313716
148	0x3f29d846	0.6634563
149	0x3e27a67a	0.163721
150	0xbe0ac99d	-0.13553472
151	0x3dd2028a	0.102543905
152	0xbea7267b	-0.32646546
153	0xbe017e3d	-0.12645812
154	0x3f2eaba1	0.68230635
155	0xbe2cd82e	-0.16879341
156	0xbe5f53a1	-0.21809246
157	0xbf9121e2	-1.1338465
158	0x3eb93280	0.3617134
159	0xbda29639	-0.07938809
160	0xbe851eaf	-0.25999972
161	0xbe53f07a	-0.20697203
162	0xbe48607d	-0.19568057
163	0x3e19063c	0.14943784
164	0xbf8695d9	-1.051448
165	0xbeb03c88	-0.34421182
166	0xbec38263	-0.38185415
167	0xbeb0ebce	-0.34554905
168	0xbe573249	-0.21015276
169	0xbed5fdc7	-0.4179518
170	0xbf284f9d	-0.6574648
171	0xbf61a004	-0.8813479
172	0xbf496bfd	-0.786804
173	0x3ee33e96	0.44383687
174	0x3f00e23a	0.50345194
175	0xbf86e59e	-1.0538824
176	0xbf663d96	-0.8993772
177	0x3e049a52	0.12949494
178	0xbed9ce98	-0.4254043
179	0x3ed5ebcf	0.4178147
180	0xbed666f3	-0.4187542
181	0xbeda93a9	-0.4269078
182	0xbec53f53	-0.38524875
183	0x3f5f723c	0.8728368
184	0x3e8f0814	0.2793585
185	0xbe3852d9	-0.18000354
186	0x3bb99cf6	0.005664463
187	0x3f0d3de7	0.5517258
188	0x3e6ac82c	0.22927922
189	0xbe3f1cc4	-0.18663317
190	0x3ea21ddc	0.31663406
191	0xbe653d51	-0.22386672

encoder.model.weight_hh_l0 f4 [192, 48]
0	0x3dd296c7	0.10282665
1	0x3e8a1112	0.2696615
2	0x3cbc3f05	0.022979269
3	0xbef7b8a5	-0.4838306
4	0x3ed4cd95	0.41563097
5	0x3eeb3156	0.45936078
6	0x3e2fed27	0.1718031
7	0xbe15cdc7	-0.14629279
8	0xbeb9fb7e	-0.36324686
9	0x3e955e4b	0.29173502
10	0xbee22231	-0.4416671
11	0x3df14962	0.11781575
12	0xbe9ddd44	-0.30832875
13	0x3e3b4987	0.18289767
14	0x3e219d69	0.15782703
15	0xbe16c53d	-0.14723678
16	0xbe1e5188	-0.15460789
17	0x3e61a903	0.22037129
18	0xbcd66169	-0.026169496
19	0xbdb90649	-0.09034402
20	0x3ea48779	0.32134607
21	0xbc2dc909	-0.010607013
22	0x3ebdf7dd	0.37103167
23	0x3e8f27f4	0.2796017
24	0x3d0e1487	0.034687545
25	0x3dd58294	0.104252964
26	0x3e1f0d35	0.15532382
27	0xbe00e436	-0.12587056
28	0xbe052422	-0.13002065
29	0x3e92ddb4	0.2868477
30	0x3e82a8f3	0.25519523
31	0xbdd155de	-0.10221456
32	0xbcbca7c8	-0.023029223
33	0x3e7a7b64	0.24461132
34	0x3e200732	0.15627745
35	0xbe0b54b0	-0.13606524
36	0xbc031cf0	-0.008002505
37	0xbc75a7eb	-0.014993648
38	0xbd0a7425	-0.03380217
39	0xbe1b38c5	-0.15158375
40	0x3dabed30	0.08394849
41	0x3c205989	0.009786972
42	0x3dcc0a60	0.099629164
43	0xbdf0675a	-0.11738463
44	0xbd3314f0	-0.04372114
45	0xbe439e65	-0.19103391
46	0xbde9c366	-0.114142224
47	0xbe0c54d1	-0.1370423
48	0xbe409680	-0.18807411
49	0xbe7692ee	-0.24079487
50	0x3d270042	0.04077173
51	0x3d6633a0	0.056201577
52	0xbd8e2b28	-0.06941825
53	0x3d8543cb	0.06507071
54	0xbd7e4798	-0.062079996
55	0xbe236833	-0.15957718
56	0x3c1caa9f	0.009562164
57	0xbe100a66	-0.14066467
58	0xbe482dd1	-0.19548728
59	0x3d53041d	0.051517595
60	0x3b3e2b5d	0.0029017546
61	0xbc760554	-0.015015919
62	0xbe0d9565	-0.1382652
63	0xbd8adc8a	-0.06780346
64	0x3dac70f8	0.084199846
65	0x3e099a21	0.13437702
66	0x3e0cfa28	0.13767302
67	0x3c3b5aec	0.011435252
68	0xbe210c33	-0.1572731
69	0x3d04fe30	0.032468975
70	0x3e59ceeb	0.21270339
71	0xbd4af49c	-0.049549684
72	0xbe18580d	-0.14877339
73	0xbd99c95b	-0.07509109
74	0xbc9bd837	-0.019023998
75	0x3ce21349	0.027597087
76	0x3cdc0325	0.026856968
77	0xbb8a6d8d	-0.0042244853
78	0x3a8173cb	0.0009876428
79	0x3d53dcbe	0.051724188
80	0xbe0183df	-0.12647961
81	0x3b9c9476	0.00477844
82	0xbdec5930	-0.11540449
83	0x3e2ab595	0.1667083
84	0x3eb00031	0.34375146
85	0xbe3913b5	-0.18073924
86	0xbe62536c	-0.22102135
87	0xbee05720	-0.4381647
88	0x3ce8aa9b	0.028401664
89	0x3bbd9f23	0.005786793
90	0xbe9a58ad	-0.3014578
91	0x3e2dc8be	0.16971108
92	0x3d4b5a47	0.049646642
93	0xbcef53ce	-0.029214766
94	0xbea7567c	-0.3268317
95	0x3e72f302	0.23725513
96	0x3baf1257	0.0053427625
97	0x3e7496ee	0.238857
98	0xbd9e7c6c	-0.07738575
99	0xbd0fc962	-0.035104163
100	0x3ddedba9	0.108817406
101	0x3e7170de	0.23578212
102	0x3dbabf95	0.091185726
103	0xbd1eea71	-0.0387978
104	0xbd839674	-0.06425181
105	0xbd9f1ab7	-0.07768767
106	0xbe37ceae	-0.17949936
107	0xbde4fa32	-0.111805335
108	0xbe579db5	-0.21056254
109	0xbd20fc76	-0.039303266
110	0xbb8e7f9a	-0.0043487074
111	0xbd20e82e	-0.039283924
112	0x3cf04917	0.029331727
113	0xbdc9ec4d	-0.09859524
114	0x3d3d9a24	0.046289578
115	0xbe9e38a3	-0.30902585
116	0x3e8ea004	0.27856457
117	0x3e2cfbc0	0.1689291
118	0x3e15874f	0.14602397
119	0xbcefc0c4	-0.029266723
120	0xbdae12d9	-0.08499689
121	0x3c035a2d	0.008017105
122	0x3e0c47b7	0.13699232
123	0xbe61f4c1	-0.22066022
124	0xbc0dc5a0	-0.0086530745
125	0x3d48303d	0.04887413
126	0xbe08effc	-0.13372797
127	0x3e9abada	0.3022068
128	0x3e03e89d	0.12881704
129	0x3d1a48d2	0.037667103
130	0xbe11e0b8	-0.1424588
131	0xbd9c1c94	-0.07622638
132	0x3bd1064f	0.006378926
133	0xbe524f2c	-0.20538014
134	0xbe1e336a	-0.154493
135	0x3e7f012a	0.24902788
136	0x3e56e9c6	0.20987615
137	0x3dc17bb8	0.094474256
138	0x3ce33b0d	0.027738119
139	0xbdfdb394	-0.123877674
140	0x3e19276d	0.14956446
141	0xbe0bc734	-0.13650209
142	0x3cf86191	0.03031996
143	0xbe077de5	-0.13231619
144	0xbeab8d04	-0.33506024
145	0xbd9f948f	-0.07792007
146	0xbe27a6a2	-0.16372159
147	0x3e414746	0.18874845
148	0xbe9d73cf	-0.30752417
149	0xbd524488	-0.051334888
150	0xbe6c77e1	-0.23092605
151	0x3cb80dd2	0.022467528
152	0x3f6013fe	0.87530506
153	0xbe30753e	-0.17232224
154	0x3e784597	0.24245296
155	0xbe2e1d50	-0.1700337
156	0x3e387329	0.1801268
157	0x3eb50165	0.35352626
158	0xbd4e729c	-0.05040227
159	0xbdec528b	-0.11539181
160	0xbdad5090	-0.08462632
161	0x3d087f2c	0.033324406
162	0xbe837c13	-0.256806
163	0xbdcb279d	-0.09919665
164	0xbe434173	-0.19067936
165	0x3f0eedf8	0.5583186
166	0xbe56deaa	-0.20983377
167	0x3e7ca30c	0.24671572
168	0x3ea4cd17	0.3218772
169	0x3dce2dbe	0.100673184
170	0xbe258db6	-0.1616734
171	0xbcef871c	-0.02923923
172	0xbeb4c602	-0.35307318
173	0xbd83b2d7	-0.06430595
174	0xbd23fcdd	-0.04003607
175	0xbf05f299	-0.523233
176	0x3e443468	0.19160616
177	0x3b68adbf	0.0035503951
178	0x3ea87546	0.32901973
179	0x3e42d9a7	0.1902834
180	0xbe7ff3c3	-0.24995331
181	0x3e94f176	0.2909047
182	0x3e1afd10	0.15135598
183	0x3d2d6660	0.04233396
184	0x3e17ca5e	0.1482329
185	0x3cd57a37	0.026059253
186	0x3d85e78c	0.06538305
187	0x3eb92133	0.36158141
188	0x3e94b2ba	0.29042608
189	0xbeb00b99	-0.34383848
190	0x3eb0cd97	0.34531853
191	0xbe81552d	-0.25260296
192	0x3f0b7544	0.5447581
193	0x3eae3890	0.3402753
194	0xbef0050f	-0.4687886
195	0xbe5bb7cd	-0.21456833
196	0x3e16a5f6	0.14711747
197	0x3e1952de	0.14973018
198	0x3eb8295d	0.35969058
199	0xbea8daea	-0.32979518
200	0xbef72f14	-0.48278105
201	0x3e38c5e6	0.18044242
202	0xbebae01e	-0.36499113
203	0xbe3d50da	-0.18487874
204	0xbe52c39a	-0.20582429
205	0x3db83ce1	0.08995987
206	0x3e413c37	0.18870626
207	0xbeea646e	-0.45779747
208	0xbe637a7e	-0.22214696
209	0x3ebbfc5b	0.3671597
210	0xbe8aeeba	-0.2713526
211	0x3ea722b0	0.32643652
212	0x3cc0eecb	0.023551365
213	0x3ee89bc0	0.45431328
214	0x3e96661d	0.2937478
215	0x3e177f89	0.14794745
216	0x3f163a6e	0.58682907
217	0x3e462b1c	0.19352382
218	0xbd72adfd	-0.05924796
219	0x3e9b40b9	0.30322817
220	0xbf07d4f1	-0.530593
221	0x3ebdc56b	0.3706468
222	0x3e8fc77a	0.28081876
223	0xbf2478ae	-0.6424664
224	0xbe8df080	-0.2772255
225	0x3ec455b9	0.3834665
226	0x3f0efec8	0.55857515
227	0xbea54a5f	-0.32283303
228	0xbe3cbbf7	-0.18431078
229	0x3ee74e99	0.45177153
230	0xbd8a6221	-0.06756998
231	0xbedd6c7e	-0.43246835
232	0x3e6f1d0c	0.23350924
233	0x3efd196e	0.49433464
234	0x3f027190	0.5095453
235	0xbe147c5b	-0.14500563
236	0x3ea7075c	0.32622802
237	0xbee8d5c2	-0.45475584
238	0x3e89a990	0.26887178
239	0xbe806e8f	-0.2508435
240	0x3df48bca	0.11940725
241	0x3e41e978	0.18936718
242	0xbf073b60	-0.52824974
243	0x3e748348	0.23878205
244	0xbe3f179e	-0.18661353
245	0xbebd5b7f	-0.36983868
246	0x3d87fcde	0.066400275
247	0xbec7555e	-0.38932317
248	0x3f82d988	1.0222635
249	0x3d86ade8	0.06576139
250	0xbba7e1cc	-0.0051233526
251	0xbe8726cd	-0.2639679
252	0x3e9dec4a	0.30844337
253	0x3e1ef8ef	0.15524648
254	0x3d3b32c8	0.045702726
255	0x3d6937bb	0.056937914

encoder.model.bias_ih_l0 f4 [192]
0	0xbd8d7586	-0.069071814
1	0x3debda29	0.1151622
2	0xbe71cc5f	-0.23613118
3	0x3e6252f5	0.22101958
4	0x3e24df4d	0.16100807
5	0x3d2a2da1	0.04154742
6	0xbd92725b	-0.07150718
7	0xbd66d4ad	-0.056355167
8	0x3ec1b5ea	0.37834102
9	0xbe6c7681	-0.2309208
10	0xbcca5815	-0.024700204
11	0xbda10cd4	-0.07863775
12	0x3e950dbe	0.29112047
13	0x3cbce148	0.023056641
14	0x3d2869ef	0.04111665
15	0xbcd7762b	-0.026301464
16	0xbe61ed3c	-0.22063154
17	0xbda3985b	-0.07988044
18	0xbe04816f	-0.1294
19	0xbdfc5d12	-0.12322439
20	0xbb032620	-0.0020011738
21	0xbd58a088	-0.05288747
22	0x3e476f17	0.19475971
23	0x3dedeb43	0.11617138
24	0xbdbdd11f	-0.09268402
25	0xbe1b9840	-0.15194798
26	0xbe81cf88	-0.25353646
27	0x3e1b8f6f	0.15191434
28	0xbe598952	-0.2124379
29	0x3dd32630	0.10310018
30	0xbe8ee970	-0.27912474
31	0xbe22d3db	-0.15901129
32	0x3e89b33b	0.26894554
33	0x3c223225	0.009899651
34	0xbe817579	-0.25284937
35	0xbc20a95f	-0.009806006
36	0xbe5d889f	-0.21634148
37	0xbe8a94cb	-0.27066645
38	0xbded281b	-0.11579915
39	0x3e510c80	0.20414925
40	0x3e47a9c8	0.1949836
41	0xbe8d2cff	-0.27573392
42	0xbe3f1f58	-0.186643
43	0x3d652656	0.055944763
44	0x3cae1eb5	0.021254877
45	0xbc30444c	-0.010758471
46	0xbd9a8c9d	-0.07546351
47	0xbe2fca91	-0.17167117
48	0xbdcc7f0a	-0.09985168
49	0x3e5ad5da	0.2137064
50	0xbd2503b8	-0.04028675
51	0x3e9b47db	0.3032826
52	0x3df7ea22	0.12105204
53	0x3bfa43bd	0.0076374696
54	0x3d3b1508	0.045674354
55	0x3d3b9412	0.045795508
56	0x3e38814c	0.18018073
57	0xbdd2dab7	-0.10295623
58	0x3dbc67f1	0.09199513
59	0x3e0ec0e6	0.13940772
60	0x3e98c175	0.29835096
61	0x3e3db363	0.18525462
62	0x3de617e4	0.112350255
63	0x3e879491	0.26480535
64	0x3e1db8dc	0.1540255
65	0x3dcafbf4	0.099113375
66	0x3d60b2a9	0.054857884
67	0x3dd2ccb2	0.10292949
68	0x3f087652	0.5330554
69	0x3e815699	0.2526138
70	0x3d8d0bac	0.06886992
71	0x3d1e4ad1	0.03864557
72	0x3eee8dee	0.4659266
73	0x3da33c7c	0.07970521
74	0x3e044c61	0.12919761
75	0x3e0cc235	0.13745959
76	0x3db6d47e	0.089272484
77	0x3e638133	0.22217254
78	0x3d9f77ce	0.07786523
79	0x3caf8baa	0.021428902
80	0xbe27356b	-0.16328971
81	0x3ec64f76	0.387325
82	0xbdd5c278	-0.104374826
83	0xbbbbdefb	-0.0057333685
84	0x3de37857	0.111069374
85	0x3e0cfeeb	0.13769118
86	0x3e484d82	0.19560817
87	0x3e262b17	0.16227375
88	0x3f02c1b8	0.5107684
89	0x3e462fd9	0.1935419
90	0x3d3812af	0.044939693
91	0x3dacfd3c	0.08446738
92	0x3e218a44	0.157754
93	0xbdbc4822	-0.09193446
94	0xbc4f6bbe	-0.012659965
95	0x3ecbac07	0.39779684
96	0xbdb92aad	-0.09041343
97	0xbd1d87f8	-0.038459748
98	0xbda499d4	-0.08037153
99	0xbe551cf6	-0.20811829
100	0x3d77f1ae	0.060533218
101	0x3db312dc	0.087438315
102	0x3c30ed63	0.010798785
103	0xbbab5cdc	-0.0052295756
104	0xbe93f7aa	-0.2889989
105	0x3cfcad82	0.030844454
106	0x3de2393b	0.11046072
107	0x3e2b2ff8	0.16717517
108	0xbe85af4d	-0.26110306
109	0x3dd3f7d9	0.103500076
110	0x3d8dcc16	0.06923692
111	0xbe1eef21	-0.15520908
112	0xbb98a095	-0.0046578147
113	0x3c7d75de	0.015469996
114	0x3d9e98c2	0.0774398
115	0x3d601d4d	0.054715443
116	0x3d29f2e8	0.04149142
117	0xbddd2269	-0.10797579
118	0x3e558d51	0.20854689
119	0x3e175e9e	0.14782187
120	0x3d9c124d	0.07620678
121	0xbc76211f	-0.015022545
122	0xbdc14a16	-0.09437959
123	0xbde0d09e	-0.109772906
124	0xbd87c1c4	-0.06628755
125	0xbd5ba1ad	-0.053620983
126	0x3ca44b1b	0.020055344
127	0x3d93c07a	0.07214446
128	0xbe149abc	-0.14512151
129	0xbdbf1588	-0.09330279
130	0xbdcac27b	-0.099003755
131	0xbe0d02b9	-0.1377057
132	0xbd0bbe6b	-0.034117144
133	0x3e4b3d2e	0.19847557
134	0x3e12bbd3	0.14329462
135	0xbe4be309	-0.19910826
136	0x3cce8334	0.025209047
137	0x3c9716cc	0.018443488
138	0x3d436792	0.047706194
139	0xbe028c25	-0.12748773
140	0x3d6de41d	0.058078874
141	0xbd69c3b7	-0.057071414
142	0x3e0b9f28	0.13634932
143	0xbdec146b	-0.11527332
144	0xbe2f3806	-0.17111215
145	0x3e79bc47	0.24388228
146	0xbe9688ee	-0.29401344
147	0x3e283cc9	0.16429438
148	0x3e266d21	0.16252567
149	0xbbe447e2	-0.006966577
150	0xbd9fdd56	-0.07805888
151	0x3da61f66	0.081114575
152	0x3e1635b1	0.14668919
153	0xbe812090	-0.25220156
154	0x3e0546f2	0.13015345
155	0xba7c3ee1	-0.0009622407
156	0x3eac87fb	0.33697495
157	0xbe710f2c	-0.23540944
158	0xbd60fc64	-0.0549282
159	0x3d7cdc87	0.06173375
160	0x3d7069fd	0.05869483
161	0xbbd7dad7	-0.006587367
162	0x3ced8b27	0.028997017
163	0xbe7f516e	-0.24933407
164	0x3e069a4e	0.131448
165	0x3db5f737	0.08885043
166	0xbd4709f7	-0.048593488
167	0xbbc04698	-0.0058677904
168	0x3e1bce9f	0.15215538
169	0xbe6db28c	-0.23212641
170	0xbe1e7e58	-0.15477884
171	0xbe45d02a	-0.1931769
172	0xbdf8b770	-0.12144363
173	0xbd6b3050	-0.05741912
174	0xbdf203fe	-0.11817168
175	0xbdea3fc3	-0.11437943
176	0x3dc82d74	0.097742945
177	0xbc8b5f1b	-0.017013123
178	0xbe8f9990	-0.28046846
179	0x3c96c01d	0.018402154
180	0xbd21bdc5	-0.03948762
181	0xbe20b16c	-0.15692681
182	0xbc526d7f	-0.012843489
183	0x3e7d52c1	0.247386
184	0x3ec3d88f	0.3825116
185	0x3d1ba3b5	0.03799792
186	0xbdb2f914	-0.08738914
187	0xbdb74eb7	-0.089505605
188	0x3e668c29	0.22514404
189	0x3e223d50	0.15843701
190	0xbdc7df88	-0.09759432
191	0x3e018644	0.12648875

encoder.model.bias_hh_l0 f4 [192]
0	0xbe8dcd5c	-0.2769574
1	0x3e290183	0.16504483
2	0xbddfbd6d	-0.10924802
3	0x3e8ebd13	0.27878627
4	0x3e26b772	0.16280916
5	0x3df89ef2	0.121396914
6	0xbd89bba0	-0.0672524
7	0xbc4551cc	-0.012043428
8	0x3e03ac9b	0.12858813
9	0xbd77e1bd	-0.060518015
10	0xbdd758f3	-0.105150126
11	0xbd06dfd7	-0.032928314
12	0x3e82a12b	0.25513586
13	0xbca7c0cf	-0.02047768
14	0x3e42461d	0.18972059
15	0x3c29bd80	0.010360122
16	0x3c96e610	0.01842025
17	0xbdfde97f	-0.123980515
18	0xbe2d6830	-0.16934276
19	0xbdf11c68	-0.11772996
20	0x3d43f2bb	0.047838908
21	0x3dc9f766	0.09861641
22	0x3db6bedf	0.089231245
23	0x3c62a8c0	0.013834178
24	0xbd919673	-0.07108774
25	0xbdb44e48	-0.088039935
26	0xbe8b672f	-0.2722716
27	0xbd8708b2	-0.065934554
28	0xbe279400	-0.16365051
29	0x3e4ba7aa	0.19888178
30	0xbebf1efa	-0.3732832
31	0xbde0d6fb	-0.10978504
32	0x3dce5616	0.10075013
33	0xbe4cf8c5	-0.20016773
34	0xbe9d8fb6	-0.30773705
35	0xbdf7cc4d	-0.12099514
36	0xbeaa8e5a	-0.3331173
37	0xbc2324de	-0.00995752
38	0xbdbc2416	-0.0918657
39	0x3e48fda0	0.19628
40	0x3e84cbd6	0.25936764
41	0xbe7df053	-0.24798708
42	0x3c23728c	0.009976041
43	0x3da1dcb0	0.07903421
44	0x3d2fc5c8	0.04291323
45	0xbcf9e2a2	-0.030503575
46	0x3da204cf	0.079110734
47	0xbdd05c12	-0.10173811
48	0xbe091a79	-0.13389005
49	0x3e97cc7f	0.29648206
50	0x3d984507	0.07435041
51	0x3eb0ac98	0.3450668
52	0x3e6baf73	0.23016147
53	0x3e369ed9	0.17834033
54	0x3da84248	0.08215767
55	0x3deefbca	0.11669119
56	0x3e1dce72	0.15410784
57	0xbd36fb36	-0.044673167
58	0xbdc61e21	-0.096737154
59	0x3e2eef79	0.17083539
60	0x3de9ee6a	0.11422427
61	0x3dcbfbd6	0.09960143
62	0x3e0d3cad	0.13792677
63	0x3d9003f2	0.070320025
64	0x3e233e02	0.15941623
65	0x3e6b78fd	0.22995372
66	0xbd9656ba	-0.073407605
67	0xbc0d0f18	-0.008609556
68	0x3ed4f496	0.41592854
69	0x3e1156e7	0.14193307
70	0xbdc3db64	-0.0956333
71	0x3c237efe	0.009979008
72	0x3ebae3ae	0.3650183
73	0x3d926ac3	0.071492694
74	0x3da1b308	0.078954756
75	0x3dd53c18	0.104118526
76	0x3dc9dbca	0.098563746
77	0x3e9682b6	0.293966
78	0xbdc58292	-0.09644045
79	0x3e543c70	0.2072618
80	0x3babe54b	0.0052458397
81	0x3ec0d46c	0.37662065
82	0xbd700e61	-0.058607463
83	0x3de85929	0.11345131
84	0x3e1e01d6	0.15430388
85	0x3deef4bd	0.11667774
86	0x3dc54659	0.096325584
87	0xbd6b4f7e	-0.057448857
88	0x3ef08850	0.46978998
89	0x3e773082	0.24139598
90	0xbdbd2ea2	-0.0923741
91	0xbd1375e6	-0.03600111
92	0x3e97afbf	0.2962627
93	0xbd0019b0	-0.031274498
94	0x3e321e5f	0.17394398
95	0x3e266875	0.16250785
96	0xbda98122	-0.08276583
97	0xbcd35d6c	-0.025801383
98	0x3e056ecb	0.13030545
99	0xbd323c79	-0.043514702
100	0x3e2a6a42	0.16642097
101	0x3e8823b3	0.26589736
102	0x3ce2c798	0.027683064
103	0x3dbd48f9	0.09242434
104	0xbe734841	-0.23758031
105	0xbc8607a4	-0.016361065
106	0x3e092b56	0.13395438
107	0x3e1a6fc9	0.15081705
108	0xbdee24b6	-0.11628096
109	0x3da46f2f	0.08029019
110	0xbd230264	-0.0397972
111	0xbdd97064	-0.1061714
112	0xbd8c557a	-0.06852241
113	0x3df8de65	0.121517934
114	0xbe3ee1fe	-0.18640897
115	0xbdbad994	-0.09123531
116	0x3d2add2c	0.041714832
117	0xbde6ce2d	-0.11269794
118	0x3ddebb28	0.10875541
119	0x3df15bf4	0.11785117
120	0x3c0d838f	0.008637323
121	0xbd2b7596	-0.041860186
122	0x3dd99826	0.10624723
123	0x3c3bfeeb	0.011474351
124	0xbd0d5c27	-0.03451171
125	0xbd25eb41	-0.04050756
126	0x3d7ba141	0.06143308
127	0xbc8e6a15	-0.017384568
128	0xbdab0b23	-0.083517335
129	0xbc913867	-0.01772709
130	0x3dd2e221	0.10297037
131	0x3d87bf99	0.06628341
132	0xbc57c3d1	-0.013169245
133	0x3ce4517b	0.027870884
134	0x3dda8ed6	0.10671775
135	0xbd82e509	-0.06391341
136	0x3d2181db	0.03943048
137	0x3dc8b3af	0.09799897
138	0xbbd491af	-0.0064870934
139	0xbde97288	-0.11398798
140	0xbde05a6d	-0.10954747
141	0xbdc8941a	-0.09793873
142	0x3d59003b	0.052978735
143	0x3d824c5a	0.06362219
144	0xbe2c1207	-0.16803752
145	0x3d8c083b	0.06837507
146	0xbe86994e	-0.26288837
147	0x3d5e72cc	0.054308698
148	0x3e693a2e	0.227761
149	0x3d0df145	0.03465392
150	0xbe696692	-0.22793034
151	0xbdb71675	-0.0893983
152	0x3c8935cb	0.016749283
153	0xbe58b4f3	-0.21162777
154	0xbda6a0f8	-0.08136171
155	0x3df7d881	0.12101842
156	0x3decebc0	0.11568403
157	0xbe92cde4	-0.28672707
158	0xbd44bab7	-0.048029628
159	0x3c9d3a91	0.019192966
160	0xbe4543f9	-0.19264211
161	0xbdb97191	-0.09054864
162	0xbd3db251	-0.046312634
163	0xbe7d504a	-0.24737659
164	0x3d2431fb	0.040086728
165	0x3e16a68b	0.14711969
166	0xbba76518	-0.005108487
167	0xbe4ce2ef	-0.20008443
168	0x3e0961ec	0.1341626
169	0xbe0cb15b	-0.1373953
170	0xbe9b55fc	-0.30339038
171	0x3d4be2d5	0.04977687
172	0xbe24f4d6	-0.16109022
173	0x3ced81fc	0.028992645
174	0xbdcd97b8	-0.10038704
175	0xbe95baa6	-0.29243964
176	0xbb4286c7	-0.0029682384
177	0x3e187ce3	0.1489139
178	0xbe4d2dd6	-0.20037016
179	0x3d3b4d9d	0.045728315
180	0xbd3a3756	-0.04546293
181	0xbe139d94	-0.1441558
182	0x3e01d251	0.12677886
183	0x3e8458f6	0.25849122
184	0x3eb49ab7	0.35274288
185	0xbd53f7c0	-0.051749945
186	0xbdad3c5d	-0.08458779
187	0x3d686506	0.05673697
188	0x3eb782ac	0.35841882
189	0x3e1bbf7b	0.15209763
190	0x3c0de245	0.008659904
191	0xbdfa247d	-0.12213991

encoder.model.weight_ih_l1 f4 [192, 48]
0	0xbcc869b1	-0.02446446
1	0x3dce3902	0.10069467
2	0xbc9a677e	-0.018848177
3	0xbe0d77e5	-0.13815267
4	0x3d9a0498	0.075204074
5	0xbd9b9454	-0.07596651
6	0xbd979c0c	-0.074028105
7	0x3d83409a	0.06408806
8	0xbda57027	-0.08078032
9	0xbd3134b4	-0.043263152
10	0xbb9efbe0	-0.004851803
11	0x3d28b453	0.041187596
12	0x3d9bb500	0.076028824
13	0xbc99ec1e	-0.018789347
14	0x3b26c4be	0.0025446857
15	0xbd60e223	-0.05490316
16	0xbd83f1dc	-0.064426154
17	0x3c59714c	0.013271641
18	0xbcd9f6aa	-0.026606876
19	0xbcf51a76	-0.029919844
20	0xbcd1ff5b	-0.025634458
21	0x3ddd7bf7	0.1081466
22	0x3d84d4a6	0.06485872
23	0x3b6c5f37	0.0036067495
24	0xb841b376	-4.618192e-05
25	0x3dbc6db7	0.09200614
26	0x3d84b636	0.064800665
27	0xbdd405b3	-0.103526495
28	0xbdfcf907	-0.12352186
29	0x3c8c5048	0.017128125
30	0xbd3fd213	-0.0468312
31	0x3d8cba98	0.068715274
32	0x3c85d8d6	0.016338747
33	0xbd5f96a2	-0.054587014
34	0x3e087a3a	0.13327876
35	0xbe033e3f	-0.12816714
36	0x3dcc7685	0.09983543
37	0x3d4cf47e	0.050037853
38	0x3c835869	0.016033368
39	0xbe005a9f	-0.12534569
40	0xbd3c6ae4	-0.046000376
41	0x3e00aed3	0.1256669
42	0x3e13698d	0.14395733
43	0x3ce3b108	0.027794376
44	0x3e061aeb	0.13096206
45	0xbe084ccd	-0.13310547
46	0xbd05edad	-0.03269737
47	0xbde4f564	-0.11179617
48	0x3cc922cd	0.024552727
49	0xbcc8ec76	-0.024526816
50	0xbdeca35c	-0.11554596
51	0xbdb1151c	-0.086466044
52	0xbd6076bc	-0.054800734
53	0xbe0772b7	-0.13227354
54	0x3e0244ef	0.12721609
55	0xbaad4b98	-0.0013221381
56	0x3cfb6352	0.030687008
57	0xbe100425	-0.14064081
58	0x3d5baca8	0.053631455
59	0xbdf1071e	-0.117689356
60	0x3e12ff1e	0.14355132
61	0x3df47b08	0.11937529
62	0xbdbbc8b5	-0.09169141
63	0xbdf58ff4	-0.119903475
64	0x3e020d34	0.12700349
65	0x3e01bc52	0.12669495
66	0xbd25e782	-0.040503986
67	0x3d2507e5	0.040290732
68	0x3cf2240a	0.0295582
69	0x3e0a44e1	0.13502838
70	0xbddd87ca	-0.10816915
71	0xbd735617	-0.059408274
72	0xbc90466e	-0.017611708
73	0x3c07326a	0.008251766
74	0xbd815b3e	-0.06316231
75	0xbde74e91	-0.11294282
76	0xbd0f9e06	-0.035062812
77	0xbd275b0d	-0.040858317
78	0xbd9b94e5	-0.07596759
79	0x3ddfe6e7	0.10932713
80	0x3cabce2f	0.02097234
81	0xbd31b766	-0.043387793
82	0xbb412b34	-0.0029475214
83	0xbde7c978	-0.11317724
84	0x3cd32e65	0.025778959
85	0xbd5429f9	-0.05179784
86	0x3d52b50a	0.051442184
87	0x3ceef9c4	0.029171832
88	0xbd6a8b17	-0.057261553
89	0xbcc663d8	-0.024217531
90	0xbd89897b	-0.067156754
91	0x3dd7fefb	0.105466805
92	0x3d7fd1da	0.06245599
93	0x3dbac615	0.091198124
94	0xbd99f730	-0.075178504
95	0x3dcc95da	0.099895194
96	0xbd6bde40	-0.057585
97	0x3dd926a1	0.10603071
98	0xbc948cdf	-0.018133579
99	0x3e123813	0.14279203
100	0x3d3a3f15	0.045470316
101	0x3b0c2ca1	0.0021388906
102	0x3e0f4698	0.13991773
103	0x3db2a29d	0.08722422
104	0x3a9378ef	0.0011251251
105	0x3dd13f25	0.10217122
106	0x3dd61038	0.10452312
107	0xb93bb604	-0.00017901516
108	0xbda6b7f3	-0.08140554
109	0xbda9e3d0	-0.08295405
110	0x3c3b4594	0.011430163
111	0x3dc7df1b	0.09759351
112	0xbd727982	-0.05919791
113	0x3d77f437	0.060535636
114	0xbd99885d	-0.07496712
115	0xbd307c74	-0.043087438
116	0x3dd5cc9d	0.104394175
117	0xbbc7350f	-0.006079323
118	0x3d09140d	0.033466388
119	0x3d9f9d65	0.077936925
120	0xbd84d73d	-0.06486366
121	0xbdc419e7	-0.09575253
122	0xbdb92eba	-0.090421155
123	0xbd664c57	-0.056225147
124	0xbdc1e3d7	-0.09467285
125	0x3cdde9dc	0.027089052
126	0xbd921bc1	-0.071342
127	0xbc9d62c9	-0.019212143
128	0xbd26ffab	-0.040771168
129	0xbccd4413	-0.025056874
130	0x3c5f940d	0.013646138
131	0x3db20d41	0.08693934
132	0xbd46b69f	-0.048514005
133	0xbd8ccfb1	-0.068755515
134	0xbd89a44f	-0.067207925
135	0xbe0cdc65	-0.13755949
136	0xbda31870	-0.079636455
137	0x3d2da060	0.042389274
138	0xbded3168	-0.11581689
139	0xbd0aa18f	-0.03384548
140	0x3d2fc402	0.042911537
141	0xbe0f70a7	-0.14007817
142	0x3c628a9e	0.013826994
143	0xbcdef1be	-0.027214881
144	0xbd8513e5	-0.06497935
145	0xbe060203	-0.13086705
146	0xbd8e8c74	-0.06960383
147	0x3e0809b8	0.13284957
148	0xbd1c348b	-0.038136046
149	0x3da83dea	0.08214934
150	0xba77d2b6	-0.00094537006
151	0x3d6b658c	0.05746989
152	0x3e047618	0.12935674
153	0x3dc032aa	0.093846634
154	0x3e006491	0.12538363
155	0x3c0abbfd	0.008467671
156	0xbdd46573	-0.103709124
157	0xbda9b5dc	-0.0828664
158	0xbd92d16c	-0.0716885
159	0xbdf2846a	-0.11841662
160	0x3ddc25b2	0.10749377
161	0xbdf3c6d6	-0.11903159
162	0x3c67a041	0.014137329
163	0xbdbca8a4	-0.09211853
164	0x3d88006a	0.06640704
165	0xbc1924c1	-0.009347142
166	0xbda35d34	-0.079767615
167	0x3da503c5	0.080573596
168	0x3cee653e	0.02910101
169	0x3e131fbe	0.14367577
170	0xbb9a658b	-0.004711812
171	0xbe0e6df0	-0.13909125
172	0x3c5263ff	0.012841224
173	0xbe0b66d8	-0.1361345
174	0x3dd90031	0.1059574
175	0x3c92f23b	0.01793777
176	0xbdb32e7d	-0.08749101
177	0xbdd3134b	-0.10306414
178	0x3ccf8118	0.025330111
179	0x3deee1e5	0.1166418
180	0x3e051adc	0.12998527
181	0x3dd4bbcf	0.10387384
182	0xbc5dc709	-0.013536223
183	0xbe091f2e	-0.133908
184	0x3db88b46	0.09010939
185	0xbda645c1	-0.08118773
186	0xba77f0bc	-0.00094581745
187	0x3d5a9aa7	0.053370144
188	0xbdaf8526	-0.08570318
189	0x3b9b6394	0.0047420952
190	0xbd5161fe	-0.051118843
191	0xbc822d2a	-0.015890677
192	0xbd039cbc	-0.032131895
193	0x3d4450a5	0.04792847
194	0x3d6c9fc5	0.057769556
195	0x3d252b9e	0.0403248
196	0xbde4675f	-0.11152529
197	0xbdfe93ee	-0.12430559
198	0x3d90fe64	0.07079771
199	0xbe13c8f8	-0.14432132
200	0x3dab1868	0.083542645
201	0xbde237a6	-0.1104577
202	0x3d3f4f1b	0.0467063
203	0x3d709f1f	0.0587455
204	0x3d637431	0.05553073
205	0x3c8b1d34	0.016981699
206	0x3dbf291c	0.09334013
207	0xbd9916f8	-0.07475084
208	0x3da1cf5e	0.0790088
209	0x3e0481fe	0.12940213
210	0xbd48f9a6	-0.04906621
211	0x3dfbf9b2	0.12303485
212	0xbe075f3c	-0.13219923
213	0x3c554103	0.013015988
214	0xbc36d2c1	-0.011158646
215	0x3e075289	0.13215078
216	0xbde281fa	-0.11059947
217	0xbd14952c	-0.036275074
218	0xbcd8e684	-0.026477106
219	0xbd837af8	-0.06419939
220	0xbd397e84	-0.04528667
221	0x3cfcf012	0.030876193
222	0x3d7097cc	0.058738515
223	0x3c224332	0.009903716
224	0xbd57355c	-0.05254112
225	0x3de66468	0.1124962
226	0xbd0972c2	-0.033556707
227	0x3c676492	0.014123099
228	0x3dff3867	0.1246193
229	0xbdf9b174	-0.121920496
230	0xbc8086e7	-0.015689326
231	0x3c290f67	0.010318614
232	0x3e09c255	0.13453038
233	0xb9d4a534	-0.00040558877
234	0xbc24e6b2	-0.010064768
235	0x3d906e81	0.07052327
236	0x3d6125f5	0.05496784
237	0x3dc7194d	0.097216226
238	0xbdc55b8b	-0.09636601
239	0xbe1030c9	-0.1408111
240	0x3db31bf7	0.08745568
241	0xbddd1722	-0.10795428
242	0xbdf600d6	-0.12011878
243	0xbd7f10da	-0.06227193
244	0x3db1ef87	0.08688264
245	0xbda6478a	-0.08119114
246	0xbdfb897b	-0.12282082
247	0xbd23c1ff	-0.03997993
248	0xbcb3e0ea	-0.021957833
249	0x3e02d4e0	0.12776518
250	0x3de10b74	0.10988513
251	0xbe10587e	-0.14096257
252	0xbd555d6e	-0.052091055
253	0x3d4d8d4f	0.05018359
254	0x3de0daec	0.10979256
255	0x3d8dd07b	0.0692453

encoder.model.weight_hh_l1 f4 [192, 48]
0	0xbba06f66	-0.004896092
1	0xbd848dce	-0.064723596
2	0x3d1012cb	0.035174172
3	0x3d34a221	0.04409993
4	0x3e01ece8	0.12688029
5	0xbd7f4351	-0.062320057
6	0xbdc40b89	-0.09572513
7	0xbe0751c0	-0.13214779
8	0xbd12eb03	-0.035868656
9	0xbe08d7f1	-0.13363625
10	0xbd40fb6e	-0.047114782
11	0xbe09b84d	-0.13449211
12	0x3e0f29d5	0.13980801
13	0xbd90c27b	-0.07068344
14	0xbd43bbc7	-0.0477865
15	0x3c7900f4	0.015197981
16	0x3e0bdfb1	0.1365955
17	0x3c1145cd	0.008866739
18	0x3c9c6ac7	0.019093884
19	0x3ad9cab7	0.00166162
20	0x3d684e17	0.056715097
21	0x3dacac41	0.08431292
22	0xbe117ac6	-0.1420699
23	0xbcd09892	-0.025463376
24	0x3e06e02c	0.13171452
25	0x3df06cd9	0.11739511
26	0x3d5b899a	0.053598024
27	0xbdcff9ec	-0.10155091
28	0x3d5dbe3b	0.054136496
29	0x3daaae2f	0.08334004
30	0xbd6482ae	-0.05578869
31	0xbdabbcc8	-0.083856165
32	0xbdd02a7c	-0.10164353
33	0xbe00d965	-0.1258293
34	0xbcdf46b9	-0.027255403
35	0xbe066a9f	-0.1312661
36	0x3e0c99e0	0.13730574
37	0xbccbde71	-0.024886342
38	0x3c76908d	0.015049112
39	0xbb565bb3	-0.0032708466
40	0xbdf37110	-0.11886799
41	0xbde11c15	-0.10991684
42	0xbdc167a8	-0.09443599
43	0xbe084e8d	-0.13311215
44	0x3d1341cc	0.03595142
45	0x3c0985cf	0.008393719
46	0xbe0d22e9	-0.13782848
47	0xbde41f9a	-0.1113884
48	0xbdbb9d4f	-0.091608636
49	0x3d64cd5b	0.055859905
50	0x3d958053	0.072998665
51	0xbc0ab57f	-0.008466124
52	0x3c7f3c2c	0.015578311
53	0xbd5cadde	-0.05387675
54	0x3e0d9ddb	0.13829748
55	0x3d0dfc0b	0.034664195
56	0x3dcb227f	0.09918689
57	0x3de12c99	0.109948345
58	0x3d512f18	0.051070303
59	0xbb74cf5f	-0.0037355048
60	0x3ce2237d	0.027604813
61	0x3d301fef	0.042999204
62	0xbe022acf	-0.12711643
63	0xbdf25b57	-0.11833828
64	0xbd879da2	-0.06621863
65	0x3cb8d417	0.02256207
66	0xbe0cfffb	-0.13769524
67	0xbd48e92d	-0.0490505
68	0x3c93c8f8	0.018040165
69	0x3d97bf1a	0.074094966
70	0xbe0687a8	-0.13137686
71	0x3ca2ea57	0.019887133
72	0x3e0ebcf2	0.13939264
73	0xbdb274de	-0.08713697
74	0xbddb6b68	-0.107138455
75	0x3d089d4c	0.033353135
76	0x3dcaf697	0.099103145
77	0x3d8cd691	0.06876863
78	0x3d90eb9e	0.070761904
79	0x3ddf1b9a	0.108939365
80	0xbdaa6ff9	-0.08322138
81	0xbd3b93a5	-0.0457951
82	0x3d918f4e	0.07107411
83	0x3db61ab0	0.08891809
84	0xbd73ff61	-0.05956972
85	0x3daca322	0.084295526
86	0xbd929deb	-0.07159027
87	0x3de9b2eb	0.11411079
88	0xbcb3e68b	-0.021960517
89	0xbbc2c66c	-0.005944064
90	0x3d482202	0.048860557
91	0xbdb026a8	-0.08601123
92	0xbd906714	-0.070509106
93	0x3e094b5c	0.13407654
94	0x3d6063d3	0.0547827
95	0xbd8bc394	-0.06824413
96	0x3e064da8	0.13115561
97	0x3e010cf1	0.12602593
98	0xbd9a4835	-0.07533304
99	0xbdd6c41c	-0.10486624
100	0x3e08c9e2	0.13358262
101	0x3c20b710	0.0098092705
102	0x3d33275f	0.04373872
103	0x3e058d37	0.1304215
104	0xbde356f0	-0.111005664
105	0x3d8a8005	0.06762699
106	0xbd4ae269	-0.049532328
107	0xbdf0a258	-0.117497146
108	0xbe0d38f8	-0.13791263
109	0xbcf84d94	-0.03031043
110	0x3d6de615	0.05808075
111	0xbd7bc79e	-0.061469667
112	0xbdee261a	-0.11628361
113	0x3db50d56	0.08840434
114	0x3e122be8	0.14274561
115	0xbca8c5a5	-0.020602057
116	0xbd852cfa	-0.06502719
117	0x3cc637d2	0.02419654
118	0xbd10a2f4	-0.035311654
119	0x3d07e655	0.033178646
120	0xbca336fc	-0.01992368
121	0xbe0cd4a8	-0.13752997
122	0xbdfbb85d	-0.12291024
123	0x3e0712a6	0.13190708
124	0xbd9591d1	-0.07303203
125	0xbdb43ef8	-0.08801073
126	0x3d3d8414	0.046268538
127	0xbd728688	-0.05921033
128	0xbd95ab2c	-0.07308039
129	0x3e038bf5	0.12846358
130	0x3d2e1892	0.0425039
131	0x3cefbada	0.029263902
132	0xbdccde48	-0.10003334
133	0x3e05372d	0.13009329
134	0x3c587773	0.013212073
135	0xbd902924	-0.07039097
136	0xbdf42645	-0.11921362
137	0x3c6aecd8	0.0143386945
138	0x3e0cd529	0.13753189
139	0x3d9d418d	0.076785184
140	0x3db663f7	0.089057855
141	0x3d4101ec	0.047120973
142	0xbd418a29	-0.0472509
143	0x3d9e8067	0.077393346
144	0xbe0a5f99	-0.1351303
145	0xbdf58728	-0.1198867
146	0xbdd30680	-0.10303974
147	0xbd6e112a	-0.058121838
148	0x3cdb96a5	0.026805231
149	0x3d2711d2	0.04078848
150	0xbc8f2eec	-0.017478429
151	0x3e0433fe	0.12910458
152	0x3d72b2ca	0.059252538
153	0xbd79af67	-0.060958292
154	0x3d1d39f0	0.03838533
155	0xbd7ef0d4	-0.06224139
156	0x3d545680	0.051840305
157	0xbaefc060	-0.0018291585
158	0xbd2eade8	-0.04264632
159	0xbdab7cc9	-0.0837341
160	0x3ddf3091	0.10897935
161	0x3d9729ab	0.073809944
162	0x3ce17919	0.027523564
163	0x3da55954	0.080736786
164	0x3d6e1ea5	0.058134694
165	0xbd36230b	-0.044467013
166	0x3dac1336	0.08402102
167	0x3dd0fd4c	0.102045625
168	0xbe01548b	-0.12629907
169	0xbdef2106	-0.116762206
170	0xbd6179db	-0.05504785
171	0x3d317680	0.0433259
172	0x3d18397c	0.037164196
173	0xbd8fbfe4	-0.07019022
174	0x3dc9e9ba	0.09859033
175	0x3dd10a9f	0.10207104
176	0x3c8cc233	0.017182445
177	0x3c024c7c	0.007952806
178	0x3d8f2eb7	0.06991332
179	0x3d052801	0.032508854
180	0xbdc1cbf6	-0.094627306
181	0xbe0bb177	-0.13641916
182	0x3d3ca52b	0.046055954
183	0xbe04d99b	-0.12973635
184	0xbd012dbd	-0.03153776
185	0x3d9d590d	0.07683001
186	0x3c1071fc	0.0088162385
187	0xbd0fdf24	-0.035124913
188	0xbd43a297	-0.04776248
189	0x3e0e8e8f	0.1392157
190	0xbc8d02dc	-0.017213278
191	0xbded4605	-0.11585621
192	0x3c7d34a1	0.015454442
193	0xbbdd119b	-0.0067464835
194	0x3e07e593	0.1327117
195	0x3c765d18	0.015036844
196	0xbcd7e4c4	-0.026354201
197	0xbd8ae635	-0.0678219
198	0x3d857b91	0.06517709
199	0x3cad25be	0.021136161
200	0x3dfa4621	0.12220407
201	0x3d06258d	0.032750655
202	0x3d5dd3bd	0.054157007
203	0xbc76361f	-0.015027552
204	0xbd67bd28	-0.056576878
205	0xbe098e5c	-0.13433212
206	0xbe0f78fe	-0.14010999
207	0x3cc5132d	0.024056995
208	0xbde90525	-0.11377934
209	0xbdf6d5ec	-0.12052521
210	0xbe129883	-0.14315991
211	0x3e0bad2b	0.13640277
212	0x3de1961e	0.11014961
213	0xbded826f	-0.11597144
214	0x3e12b6bc	0.1432752
215	0xbd3595a5	-0.044332165
216	0x3dfaf8b1	0.12254465
217	0xbd8c124e	-0.06839429
218	0xbd083700	-0.033255577
219	0x3b860759	0.0040902314
220	0xbe097f88	-0.13427556
221	0xbdd9d096	-0.10635488
222	0xbd9b3f55	-0.07580439
223	0xbd0e0d9d	-0.03468095
224	0xbdf1b53e	-0.11802147
225	0xbc99b013	-0.018760717
226	0xbd280f62	-0.041030295
227	0xbd8e406e	-0.06945883
228	0xbcecc6b4	-0.028903343
229	0xbce80eed	-0.02832743
230	0x3e064206	0.13111123
231	0xbe078148	-0.1323291
232	0xbde3d076	-0.11123745
233	0x3d0a4423	0.033756386
234	0x3c4a0d19	0.012332224
235	0x3b9d3819	0.004797947
236	0xbdbd09c0	-0.09230375
237	0x3df064c6	0.11737971
238	0xbdb02cef	-0.086023204
239	0xbd6c48ae	-0.0576865
240	0xbde483f4	-0.111579806
241	0x3db02cbc	0.086022824
242	0x3d9810ea	0.07425101
243	0x3b5ceb80	0.0033709705
244	0xbe130458	-0.14357126
245	0xbd73c1bf	-0.059510943
246	0x3dea273f	0.11433267
247	0x3da565b7	0.08076041
248	0x3c92028f	0.017823486
249	0x3d54b4b8	0.05193016
250	0xbd2436e9	-0.04009143
251	0x3d298983	0.041390907
252	0x3d48ab9e	0.048991792
253	0xbdb1bc5a	-0.08678503
254	0xbe0b5cef	-0.1360967
255	0x3e138360	0.14405584

encoder.model.bias_ih_l1 f4 [192]
0	0xbc2be289	-0.010491022
1	0x3d01eb6b	0.031718653
2	0xbd95c0bc	-0.07312152
3	0x3d6c39b4	0.057672217
4	0x3d154932	0.036446758
5	0x3c0885e6	0.008332705
6	0x3ca66aad	0.020314539
7	0xbd4e1574	-0.050313428
8	0x3c6da9ad	0.014505786
9	0xbb5a89d1	-0.0033346305
10	0xbd48765b	-0.048940998
11	0xbd596d34	-0.05308266
12	0xbdd3f3fb	-0.1034927
13	0x3cbe3180	0.023216963
14	0xbd3840b4	-0.04498358
15	0x3d92e3c5	0.0717235
16	0x3ddf41f1	0.10901249
17	0xbd656239	-0.056001876
18	0xbd6cada5	-0.057782788
19	0xbbf07740	-0.0073384345
20	0xbcb00462	-0.021486465
21	0x3ddf4342	0.109015
22	0x3d97027b	0.0737352
23	0x3bfffb90	0.007811971
24	0x3e0530f6	0.13006958
25	0x3d800277	0.0625047
26	0xbd10d987	-0.0353637
27	0xbd133fec	-0.035949633
28	0xbdb7fc45	-0.089836635
29	0x3d94a819	0.072586246
30	0xbd97ca25	-0.07411603
31	0x3da53e4b	0.08068522
32	0x3df7bbea	0.12096389
33	0xbda45b0d	-0.08025179
34	0x3dc52947	0.09627014
35	0xbde8376b	-0.11338695
36	0x3e0cd2d5	0.13752301
37	0xbddb4cbf	-0.107079975
38	0x3e0761be	0.1322088
39	0x3d476921	0.048684243
40	0xbd2a5f83	-0.041594993
41	0xbd8c8c07	-0.068626456
42	0xbdf45097	-0.11929434
43	0xbcf56d47	-0.029959334
44	0x3d9b84ee	0.07593714
45	0x3dafc410	0.08582318
46	0x3b5e7dea	0.0033949562
47	0xbc905fcc	-0.017623805
48	0x3ddeeb40	0.10884714
49	0x3d976d5f	0.07393908
50	0x3de65931	0.11247481
51	0x3ad64eb5	0.0016350361
52	0x3d9a9b15	0.07549111
53	0xbd519668	-0.05116883
54	0x3db1ea06	0.086872146
55	0xbce265eb	-0.027636489
56	0x3d1089db	0.03528772
57	0xbdf44188	-0.119265616
58	0xbacbf25c	-0.00155599
59	0xbb4079ab	-0.0029369395
60	0x3dc6829d	0.09692881
61	0xbe07f79d	-0.1327805
62	0x3c956d23	0.018240517
63	0x3dee1b5c	0.11626312
64	0x3e005b0e	0.12534735
65	0x3d9fe4ac	0.078072876
66	0x3db2e463	0.087349676
67	0x3de6eb99	0.112754054
68	0x3dcb2819	0.099197574
69	0x3dce7ed5	0.10082785
70	0xbdda7f31	-0.10668791
71	0xbd0c2b8c	-0.034221217
72	0x3dbf4a28	0.09340316
73	0xbde04412	-0.109504834
74	0x3db53db0	0.088496566
75	0x3d8d5700	0.069013596
76	0xbd16f4b9	-0.03685448
77	0x3da12dbe	0.07870053
78	0x3d4efc8a	0.05053381
79	0xbd19dd0e	-0.03756433
80	0x3e1222d7	0.14271103
81	0x3dc921d9	0.09820909
82	0xbe0fd7f2	-0.1404722
83	0x3dc8f795	0.098128475
84	0xbc93b8d7	-0.018032474
85	0xbe120cba	-0.14262667
86	0xbbb2656a	-0.0054442184
87	0x3cd5820a	0.026062984
88	0xbc6d97da	-0.014501536
89	0xbcbcc478	-0.023042902
90	0x3d8b8d43	0.06814053
91	0x3de2c077	0.11071866
92	0xbe01d188	-0.12677586
93	0x3be454d1	0.0069681187
94	0xbd969a04	-0.07353595
95	0xbcf0a02b	-0.029373249
96	0xbc996c33	-0.018728351
97	0x3c2c23a1	0.0105065415
98	0x3cc65ea5	0.024215052
99	0xbdab315a	-0.083590224
100	0xbd6d48aa	-0.057930626
101	0xbd6b895c	-0.057504043
102	0xbd4827b6	-0.048865996
103	0xbdc338c6	-0.09532313
104	0xbd81c258	-0.06335896
105	0x3e0d186a	0.13778844
106	0x3db0bcd6	0.086297676
107	0xbdc5ff5e	-0.09667848
108	0xbdc818ae	-0.09770332
109	0xbde48f74	-0.11160174
110	0x3def285e	0.11677621
111	0x3d179de3	0.037015807
112	0x3cebd0b8	0.028786048
113	0xbe04b327	-0.12958966
114	0x3d936299	0.071965404
115	0x3da32fd4	0.07968107
116	0xbd00cfc6	-0.03144815
117	0x3da3571e	0.07975601
118	0x3d860188	0.06543261
119	0x3dfae477	0.122506075
120	0x3e11b7c6	0.1423026
121	0x3d99bfc1	0.07507277
122	0xbdf62ba8	-0.120200455
123	0xbddbfd45	-0.10741667
124	0xbdebb354	-0.115088135
125	0xbd8f8f54	-0.070097595
126	0x3d3b3bba	0.045711257
127	0xbdf1f32c	-0.118139595
128	0xbcf1654c	-0.029467247
129	0x3cbc2929	0.022968845
130	0x3daceb11	0.08443273
131	0x3db9199e	0.09038089
132	0xbd4c0148	-0.04980591
133	0x3d0c0ab5	0.0341899
134	0xbd83e9f7	-0.0644111
135	0x3c391542	0.011296572
136	0x3d155683	0.036459457
137	0xbbdda440	-0.006763965
138	0x3dc392ea	0.09549506
139	0xbc87eeec	-0.016593419
140	0xbd312ed6	-0.043257557
141	0xbdb921ef	-0.090396754
142	0xbdd73b8a	-0.10509403
143	0x3d18e502	0.037327774
144	0xbd567ec1	-0.052366976
145	0xbdfea065	-0.124329366
146	0xbd8e7a80	-0.06956959
147	0xbd9879cb	-0.07445105
148	0xbe047005	-0.12933357
149	0xbd0c299d	-0.034219373
150	0x3defab2d	0.11702571
151	0x3dd5d7a6	0.10441522
152	0x3de7b566	0.11313896
153	0xbccd8f18	-0.025092646
154	0xbdd12959	-0.102129646
155	0xbd9b03fb	-0.075691186
156	0x3dfc17b5	0.12309209
157	0x3ce5edd5	0.028067509
158	0x3e05119b	0.12994997
159	0xbe10fcdc	-0.14158958
160	0xbc62724c	-0.013821196
161	0x3babcd88	0.005243007
162	0x3e0f4e42	0.13994697
163	0xbdef637c	-0.11688897
164	0xbde0975d	-0.1096637
165	0x3c7742e1	0.015091629
166	0xbde7fab5	-0.113271154
167	0xbe024588	-0.12721837
168	0x3c2bc9ff	0.010485171
169	0xbbcabf80	-0.0061873794
170	0x3daf1f0d	0.08550844
171	0xbd03b207	-0.032152202
172	0xbd7fc5fa	-0.062444665
173	0xbd1a1039	-0.037613127
174	0x3d9a7afa	0.07542987
175	0x3c587bec	0.013213139
176	0xbc049794	-0.00809278
177	0xbd85262f	-0.065014236
178	0xbe089131	-0.13336636
179	0xbdc9eb43	-0.09859326
180	0x3d1c6c3d	0.03818916
181	0xbc988010	-0.018615752
182	0x3d9a0f99	0.07522506
183	0xbba7e829	-0.005124111
184	0xbcf4450f	-0.029818086
185	0x3d9a111d	0.07522795
186	0xbd506378	-0.05087611
187	0xbe068244	-0.1313563
188	0x3aa07a83	0.0012243543
189	0x3e0f4aa4	0.13993317
190	0xbe035495	-0.12825234
191	0x3dbef77c	0.09324548

encoder.model.bias_hh_l1 f4 [192]
0	0xbc822297	-0.015885634
1	0x3c8e612b	0.017380318
2	0x3d00da06	0.031457923
3	0x3d10ed52	0.035382576
4	0x3dd2c5f7	0.10291665
5	0x3de9ec06	0.11421971
6	0x3e1146f3	0.14187221
7	0xbd193a63	-0.037409198
8	0xbda40389	-0.08008487
9	0xbbe13399	-0.006872606
10	0xbd869b0f	-0.06572544
11	0x3d5aa768	0.053382307
12	0x3e07115f	0.1319022
13	0xbcbbfcff	-0.022947786
14	0xbc0e6fa3	-0.008693608
15	0x3e07ca65	0.13260801
16	0xbe0f0c15	-0.13969453
17	0xbdfa30db	-0.1221635
18	0x3dce0b7a	0.10060783
19	0xbdfbc0f1	-0.1229266
20	0xbce3b746	-0.027797353
21	0xbe086128	-0.13318312
22	0xbe12c67f	-0.14333533
23	0x3d3f6eaa	0.046736397
24	0x3d8da838	0.06916851
25	0x3ca53594	0.02016715
26	0xbd5427eb	-0.05179588
27	0x3dee6f6d	0.116423465
28	0xbe115e14	-0.14196044
29	0x3d698dc3	0.05701996
30	0xbdcdb879	-0.10044951
31	0xbd0708d4	-0.032967404
32	0x3d04356d	0.032277513
33	0xbd2f7546	-0.04283645
34	0xbb6e67fc	-0.0036377897
35	0x3bdadba8	0.006679017
36	0x39ff0475	0.0004864071
37	0x3c0bf6b8	0.008542709
38	0x3cb7cece	0.02243748
39	0x3dfbeff3	0.12301626
40	0x3d3ea743	0.046546232
41	0x3db5e95a	0.08882399
42	0x3e138bcb	0.14408796
43	0xbc524c9d	-0.012835649
44	0x3def6e5d	0.11690972
45	0x3df24093	0.11828723
46	0x3d89c365	0.06726722
47	0x3dad3b67	0.08458596
48	0x3ca49cfa	0.020094384
49	0x3d8efc93	0.069817685
50	0x3c830b43	0.015996581
51	0xbc9c72e5	-0.019097755
52	0xbd0e096e	-0.03467696
53	0x3e0c0123	0.13672309
54	0x3d86d3fc	0.065834016
55	0xbdd654dc	-0.104654044
56	0x3dbca3c2	0.09210922
57	0x3dd9a58e	0.1062728
58	0xbd98f6eb	-0.07468971
59	0xbdbd1a14	-0.0923349
60	0x3cd30d73	0.025763249
61	0x3ca93f2e	0.02066001
62	0xbe114b01	-0.14188768
63	0xbb94540a	-0.00452662
64	0x3e04bbd9	0.12962283
65	0x3d979e1d	0.074032046
66	0x3d676489	0.056492362
67	0x3dc52319	0.09625835
68	0x3dd3f893	0.10350146
69	0x3d2c94cf	0.042134102
70	0x3da699a6	0.08134775
71	0x3d5d494d	0.054024983
72	0xbd592c8e	-0.053021006
73	0x3e008747	0.12551604
74	0xbdebc653	-0.11512437
75	0xbdfe665f	-0.124218695
76	0x3caab584	0.020838507
77	0x3d6490ca	0.055802144
78	0x3ce04ed3	0.027381336
79	0xbd102450	-0.03519088
80	0xbdb36648	-0.08759743
81	0x3e0a54b7	0.13508879
82	0xbdc06fe4	-0.093963414
83	0x3cfa677d	0.030566925
84	0xbdb2181d	-0.086960055
85	0xbd87b30a	-0.06625946
86	0x3be71b64	0.0070528258
87	0x3d4fc791	0.05072743
88	0x3dea21dc	0.114322394
89	0xbddceafa	-0.10787006
90	0x3cffe90d	0.031239057
91	0x3b2a4763	0.0025982491
92	0xbd1bf38e	-0.03807407
93	0x3df05487	0.11734872
94	0x3dfeed5d	0.12447617
95	0xbe008e6c	-0.1255433
96	0xbd91f1d3	-0.071262024
97	0x3d477e9a	0.04870472
98	0x3de429a9	0.111407585
99	0x3dac7cb0	0.0842222
100	0x3d1995e1	0.03749645
101	0x3e038687	0.12844287
102	0xbd654261	-0.055971507
103	0xbde24e24	-0.110500604
104	0xbdd0caca	-0.10194929
105	0xbd049d5e	-0.03237664
106	0x3dd56a1f	0.104206316
107	0xbdf9e27b	-0.12201401
108	0xbc8d9cfa	-0.017286766
109	0xbe063045	-0.13104351
110	0x3e0043b5	0.12525828
111	0xbcbb2e69	-0.022849279
112	0x3df6173e	0.12016152
113	0xbe0fc4e5	-0.14039953
114	0xbdcabf87	-0.09899812
115	0x3b24115e	0.0025034766
116	0x3dd9f9fc	0.10643384
117	0x3d8f277f	0.06989955
118	0x3d6dcdab	0.05805747
119	0xbdfb7423	-0.12278011
120	0x3e09b5ea	0.13448301
121	0xbb66b57d	-0.003520339
122	0x3d64d36b	0.055865686
123	0x3d8d9a8d	0.06914244
124	0x3deda61f	0.11603951
125	0x3d93fd36	0.072260305
126	0x3d4715d0	0.048604786
127	0xbde09d27	-0.109674744
128	0xbd1ae28a	-0.0378137
129	0x3bfa78aa	0.007643779
130	0xbdb127eb	-0.08650192
131	0xbdb15dc6	-0.08660464
132	0x3cd8961f	0.02643877
133	0xbe1141c5	-0.14185245
134	0xbdad2750	-0.08454764
135	0x3d0f3c5d	0.034969676
136	0x3ce5f364	0.02807016
137	0xbdbbf4c4	-0.09177545
138	0x3d91a573	0.07111635
139	0xbdb2b85b	-0.08726569
140	0xbd58b4f9	-0.052906964
141	0x3d742cb8	0.05961296
142	0x3dc17017	0.094452076
143	0x3da44431	0.08020819
144	0x3e096e16	0.134209
145	0x3db66c97	0.089074306
146	0x3c2a3b0c	0.010390054
147	0x3e0910e7	0.13385354
148	0xbe0efd05	-0.13963707
149	0xbd6e91ae	-0.0582444
150	0x3dd61e69	0.10455019
151	0xbd9e25d4	-0.07722059
152	0x3e132f7e	0.14373586
153	0xbc1a2472	-0.009408103
154	0xbd9329f9	-0.0718574
155	0xbe122812	-0.14273098
156	0x3e12791f	0.14304017
157	0xbd79c6f7	-0.060980763
158	0xbc6a8511	-0.014313952
159	0xbe06b410	-0.13154626
160	0x3b1cb579	0.0023911877
161	0xbd9686d2	-0.07349934
162	0xbe066c29	-0.13127197
163	0x3d7987c4	0.06092049
164	0x3dc91d31	0.09820021
165	0x3d4eefbf	0.05052161
166	0xbcb21804	-0.021739967
167	0x3dc1b64f	0.09458601
168	0xbe0ae8d8	-0.13565385
169	0xbd04d5e5	-0.03243055
170	0x3defa063	0.11700513
171	0x3d9e51cc	0.07730445
172	0xbd1e177f	-0.038596626
173	0xbdbb0c93	-0.09133258
174	0x3e0bc928	0.13650954
175	0x3daed706	0.08537106
176	0x3d26225d	0.040560115
177	0x3d9ff703	0.078107856
178	0x3d25657f	0.040379997
179	0x3e02ddb1	0.12779881
180	0x3e07a041	0.13244726
181	0x3d39d04e	0.04536467
182	0xbdd183e7	-0.102302365
183	0x3d565e5e	0.05233609
184	0xbdc3bb33	-0.0955719
185	0x3dd3e6a6	0.10346727
186	0xbd316bf7	-0.043315854
187	0x3df08fdc	0.11746189
188	0x3c70ac01	0.014689446
189	0xbdbbf97f	-0.09178447
190	0x3c249787	0.010045893
191	0x3d690b63	0.056895625

lmbd.hidden_to_mean.weight f4 [2, 48]
0	0x3e9b2ba1	0.30306724
1	0x3eb7cd7a	0.35898954
2	0xbe82f65a	-0.25578576
3	0x3dfee36c	0.12445721
4	0xbea03d5c	-0.31296813
5	0xbe536fcc	-0.20648116
6	0x3e389569	0.18025745
7	0xbec586c3	-0.38579378
8	0xbe131428	-0.14363158
9	0x3e45e736	0.19326481
10	0xbeaa9890	-0.3331952
11	0x3db3fba0	0.08788228
12	0x3e2618b0	0.16220355
13	0xbee98280	-0.45607376
14	0xbdd2bb76	-0.102896616
15	0xbcdaa1e8	-0.026688531
16	0xbe8f2f64	-0.27965844
17	0x3e829874	0.25506938
18	0x3e16b0f7	0.14715944
19	0x3d8d3964	0.06895712
20	0xbea01e0d	-0.31272927
21	0x3d9f2b8a	0.07771976
22	0xbdbfba59	-0.09361715
23	0x3e6487cc	0.22317427
24	0x3ed280d4	0.41113913
25	0x3e9d5ea8	0.3073628
26	0xbe0e859d	-0.13918157
27	0xbd50305d	-0.050827373
28	0xbef073b9	-0.4696329
29	0x3d9489ec	0.07252869
30	0x3da08cd3	0.0783936
31	0xbedb9abb	-0.42891487
32	0xbee0c20b	-0.43898043
33	0x3e90fa2a	0.2831586
34	0x3eaa62d4	0.33278525
35	0xbdb56c75	-0.08858577
36	0xbeac2e86	-0.33629245
37	0x3e005403	0.12532048
38	0xbd4853f2	-0.04890818
39	0x3dd3a15a	0.1033351
40	0x3e5f4140	0.21802235
41	0x3f09210f	0.5356607
42	0x3e700cf7	0.23442446
43	0x3e1e49f2	0.15457895
44	0x3b0564e0	0.0020354316
45	0x3eb761e9	0.35816887
46	0xbe7e56be	-0.24837777
47	0xbe5b3c2b	-0.21409671
48	0xbe9e52fe	-0.30922693
49	0x3e0bfcae	0.13670608
50	0xbe2847b2	-0.164336
51	0xbe8d04b2	-0.27542645
52	0x3f0a4676	0.54013765
53	0x3d6781d9	0.056520317
54	0xbd93f491	-0.07224382
55	0x3cd00aaa	0.02539571
56	0xbeac257a	-0.33622342
57	0x3cb8c587	0.022555126
58	0x3c11bc46	0.008894986
59	0x3f16c72e	0.58897674
60	0xbe70029d	-0.23438497
61	0x3ed94221	0.42433265
62	0x3e9c82ad	0.30568448
63	0xbed48bda	-0.41512948
64	0xbdd88328	-0.10571891
65	0x3e567b35	0.20945437
66	0xbddffa9a	-0.1093647
67	0x3ea07c00	0.31344604
68	0x3f06880e	0.5255135
69	0xbf039e18	-0.51413107
70	0xbe015c3f	-0.12632845
71	0x3f042aed	0.51628
72	0xbe555a27	-0.20835172
73	0xbc88e884	-0.016712435
74	0xbec80e98	-0.39073634
75	0xbedeea15	-0.43537965
76	0x3c9320e0	0.017960012
77	0x3e1b74a4	0.15181214
78	0x3f77b00b	0.96752995
79	0x3e09dc0c	0.13462847
80	0xbde8511d	-0.11343596
81	0x3d39f5c7	0.045400407
82	0x3e2c2cae	0.16813919
83	0xbf00c8ef	-0.503066
84	0xbe3444d6	-0.17604384
85	0x3e46b37c	0.19404405
86	0x3f8c115c	1.0942798
87	0xbef7ce67	-0.4839966
88	0x3d97112a	0.07376321
89	0x3ed0fec2	0.40819365
90	0x3e40d1c3	0.18830018
91	0xbf422467	-0.75836796
92	0xbf2655cf	-0.64974684
93	0x3e0cf8e5	0.1376682
94	0x3e0ab0f7	0.13544069
95	0x3dd1e7cc	0.1024929

lmbd.hidden_to_mean.bias f4 [2]
0	0x3dd90c15	0.105980076
1	0x3de68f24	0.11257771
